{"format":"layers-model","generatedBy":"keras v2.2.4","convertedBy":"TensorFlow.js Converter v1.2.10.1","modelTopology":{"keras_version":"2.2.4","backend":"tensorflow","model_config":{"class_name":"Model","config":{"name":"model_2","layers":[{"name":"input_2","class_name":"InputLayer","config":{"batch_input_shape":[null,512,512,3],"dtype":"float32","sparse":false,"name":"input_2"},"inbound_nodes":[]},{"name":"zero_padding2d_4","class_name":"ZeroPadding2D","config":{"name":"zero_padding2d_4","trainable":true,"padding":[[3,3],[3,3]],"data_format":"channels_last"},"inbound_nodes":[[["input_2",0,0,{}]]]},{"name":"cp.resnet.conv1","class_name":"Conv2D","config":{"name":"cp.resnet.conv1","trainable":true,"filters":64,"kernel_size":[7,7],"strides":[2,2],"padding":"valid","data_format":"channels_last","dilation_rate":[1,1],"activation":"linear","use_bias":false,"kernel_initializer":{"class_name":"VarianceScaling","config":{"scale":1,"mode":"fan_avg","distribution":"uniform","seed":null}},"bias_initializer":{"class_name":"Zeros","config":{}},"kernel_regularizer":null,"bias_regularizer":null,"activity_regularizer":null,"kernel_constraint":null,"bias_constraint":null},"inbound_nodes":[[["zero_padding2d_4",0,0,{}]]]},{"name":"cp.resnet.bn1","class_name":"BatchNormalization","config":{"name":"cp.resnet.bn1","trainable":true,"axis":-1,"momentum":0.99,"epsilon":0.00001,"center":true,"scale":true,"beta_initializer":{"class_name":"Zeros","config":{}},"gamma_initializer":{"class_name":"Ones","config":{}},"moving_mean_initializer":{"class_name":"Zeros","config":{}},"moving_variance_initializer":{"class_name":"Ones","config":{}},"beta_regularizer":null,"gamma_regularizer":null,"beta_constraint":null,"gamma_constraint":null},"inbound_nodes":[[["cp.resnet.conv1",0,0,{}]]]},{"name":"activation_1","class_name":"Activation","config":{"name":"activation_1","trainable":true,"activation":"relu"},"inbound_nodes":[[["cp.resnet.bn1",0,0,{}]]]},{"name":"zero_padding2d_5","class_name":"ZeroPadding2D","config":{"name":"zero_padding2d_5","trainable":true,"padding":[[1,1],[1,1]],"data_format":"channels_last"},"inbound_nodes":[[["activation_1",0,0,{}]]]},{"name":"max_pooling2d_6","class_name":"MaxPooling2D","config":{"name":"max_pooling2d_6","trainable":true,"pool_size":[3,3],"padding":"valid","strides":[2,2],"data_format":"channels_last"},"inbound_nodes":[[["zero_padding2d_5",0,0,{}]]]},{"name":"zero_padding2d_6","class_name":"ZeroPadding2D","config":{"name":"zero_padding2d_6","trainable":true,"padding":[[1,1],[1,1]],"data_format":"channels_last"},"inbound_nodes":[[["max_pooling2d_6",0,0,{}]]]},{"name":"cp.resnet.layer1.0.conv1","class_name":"Conv2D","config":{"name":"cp.resnet.layer1.0.conv1","trainable":true,"filters":64,"kernel_size":[3,3],"strides":[1,1],"padding":"valid","data_format":"channels_last","dilation_rate":[1,1],"activation":"linear","use_bias":false,"kernel_initializer":{"class_name":"VarianceScaling","config":{"scale":1,"mode":"fan_avg","distribution":"uniform","seed":null}},"bias_initializer":{"class_name":"Zeros","config":{}},"kernel_regularizer":null,"bias_regularizer":null,"activity_regularizer":null,"kernel_constraint":null,"bias_constraint":null},"inbound_nodes":[[["zero_padding2d_6",0,0,{}]]]},{"name":"cp.resnet.layer1.0.bn1","class_name":"BatchNormalization","config":{"name":"cp.resnet.layer1.0.bn1","trainable":true,"axis":-1,"momentum":0.99,"epsilon":0.00001,"center":true,"scale":true,"beta_initializer":{"class_name":"Zeros","config":{}},"gamma_initializer":{"class_name":"Ones","config":{}},"moving_mean_initializer":{"class_name":"Zeros","config":{}},"moving_variance_initializer":{"class_name":"Ones","config":{}},"beta_regularizer":null,"gamma_regularizer":null,"beta_constraint":null,"gamma_constraint":null},"inbound_nodes":[[["cp.resnet.layer1.0.conv1",0,0,{}]]]},{"name":"activation_2","class_name":"Activation","config":{"name":"activation_2","trainable":true,"activation":"relu"},"inbound_nodes":[[["cp.resnet.layer1.0.bn1",0,0,{}]]]},{"name":"zero_padding2d_7","class_name":"ZeroPadding2D","config":{"name":"zero_padding2d_7","trainable":true,"padding":[[1,1],[1,1]],"data_format":"channels_last"},"inbound_nodes":[[["activation_2",0,0,{}]]]},{"name":"cp.resnet.layer1.0.conv2","class_name":"Conv2D","config":{"name":"cp.resnet.layer1.0.conv2","trainable":true,"filters":64,"kernel_size":[3,3],"strides":[1,1],"padding":"valid","data_format":"channels_last","dilation_rate":[1,1],"activation":"linear","use_bias":false,"kernel_initializer":{"class_name":"VarianceScaling","config":{"scale":1,"mode":"fan_avg","distribution":"uniform","seed":null}},"bias_initializer":{"class_name":"Zeros","config":{}},"kernel_regularizer":null,"bias_regularizer":null,"activity_regularizer":null,"kernel_constraint":null,"bias_constraint":null},"inbound_nodes":[[["zero_padding2d_7",0,0,{}]]]},{"name":"cp.resnet.layer1.0.bn2","class_name":"BatchNormalization","config":{"name":"cp.resnet.layer1.0.bn2","trainable":true,"axis":-1,"momentum":0.99,"epsilon":0.00001,"center":true,"scale":true,"beta_initializer":{"class_name":"Zeros","config":{}},"gamma_initializer":{"class_name":"Ones","config":{}},"moving_mean_initializer":{"class_name":"Zeros","config":{}},"moving_variance_initializer":{"class_name":"Ones","config":{}},"beta_regularizer":null,"gamma_regularizer":null,"beta_constraint":null,"gamma_constraint":null},"inbound_nodes":[[["cp.resnet.layer1.0.conv2",0,0,{}]]]},{"name":"add_1","class_name":"Add","config":{"name":"add_1","trainable":true},"inbound_nodes":[[["cp.resnet.layer1.0.bn2",0,0,{}],["max_pooling2d_6",0,0,{}]]]},{"name":"activation_3","class_name":"Activation","config":{"name":"activation_3","trainable":true,"activation":"relu"},"inbound_nodes":[[["add_1",0,0,{}]]]},{"name":"zero_padding2d_8","class_name":"ZeroPadding2D","config":{"name":"zero_padding2d_8","trainable":true,"padding":[[1,1],[1,1]],"data_format":"channels_last"},"inbound_nodes":[[["activation_3",0,0,{}]]]},{"name":"cp.resnet.layer1.1.conv1","class_name":"Conv2D","config":{"name":"cp.resnet.layer1.1.conv1","trainable":true,"filters":64,"kernel_size":[3,3],"strides":[1,1],"padding":"valid","data_format":"channels_last","dilation_rate":[1,1],"activation":"linear","use_bias":false,"kernel_initializer":{"class_name":"VarianceScaling","config":{"scale":1,"mode":"fan_avg","distribution":"uniform","seed":null}},"bias_initializer":{"class_name":"Zeros","config":{}},"kernel_regularizer":null,"bias_regularizer":null,"activity_regularizer":null,"kernel_constraint":null,"bias_constraint":null},"inbound_nodes":[[["zero_padding2d_8",0,0,{}]]]},{"name":"cp.resnet.layer1.1.bn1","class_name":"BatchNormalization","config":{"name":"cp.resnet.layer1.1.bn1","trainable":true,"axis":-1,"momentum":0.99,"epsilon":0.00001,"center":true,"scale":true,"beta_initializer":{"class_name":"Zeros","config":{}},"gamma_initializer":{"class_name":"Ones","config":{}},"moving_mean_initializer":{"class_name":"Zeros","config":{}},"moving_variance_initializer":{"class_name":"Ones","config":{}},"beta_regularizer":null,"gamma_regularizer":null,"beta_constraint":null,"gamma_constraint":null},"inbound_nodes":[[["cp.resnet.layer1.1.conv1",0,0,{}]]]},{"name":"activation_4","class_name":"Activation","config":{"name":"activation_4","trainable":true,"activation":"relu"},"inbound_nodes":[[["cp.resnet.layer1.1.bn1",0,0,{}]]]},{"name":"zero_padding2d_9","class_name":"ZeroPadding2D","config":{"name":"zero_padding2d_9","trainable":true,"padding":[[1,1],[1,1]],"data_format":"channels_last"},"inbound_nodes":[[["activation_4",0,0,{}]]]},{"name":"cp.resnet.layer1.1.conv2","class_name":"Conv2D","config":{"name":"cp.resnet.layer1.1.conv2","trainable":true,"filters":64,"kernel_size":[3,3],"strides":[1,1],"padding":"valid","data_format":"channels_last","dilation_rate":[1,1],"activation":"linear","use_bias":false,"kernel_initializer":{"class_name":"VarianceScaling","config":{"scale":1,"mode":"fan_avg","distribution":"uniform","seed":null}},"bias_initializer":{"class_name":"Zeros","config":{}},"kernel_regularizer":null,"bias_regularizer":null,"activity_regularizer":null,"kernel_constraint":null,"bias_constraint":null},"inbound_nodes":[[["zero_padding2d_9",0,0,{}]]]},{"name":"cp.resnet.layer1.1.bn2","class_name":"BatchNormalization","config":{"name":"cp.resnet.layer1.1.bn2","trainable":true,"axis":-1,"momentum":0.99,"epsilon":0.00001,"center":true,"scale":true,"beta_initializer":{"class_name":"Zeros","config":{}},"gamma_initializer":{"class_name":"Ones","config":{}},"moving_mean_initializer":{"class_name":"Zeros","config":{}},"moving_variance_initializer":{"class_name":"Ones","config":{}},"beta_regularizer":null,"gamma_regularizer":null,"beta_constraint":null,"gamma_constraint":null},"inbound_nodes":[[["cp.resnet.layer1.1.conv2",0,0,{}]]]},{"name":"add_2","class_name":"Add","config":{"name":"add_2","trainable":true},"inbound_nodes":[[["cp.resnet.layer1.1.bn2",0,0,{}],["activation_3",0,0,{}]]]},{"name":"activation_5","class_name":"Activation","config":{"name":"activation_5","trainable":true,"activation":"relu"},"inbound_nodes":[[["add_2",0,0,{}]]]},{"name":"zero_padding2d_10","class_name":"ZeroPadding2D","config":{"name":"zero_padding2d_10","trainable":true,"padding":[[1,1],[1,1]],"data_format":"channels_last"},"inbound_nodes":[[["activation_5",0,0,{}]]]},{"name":"cp.resnet.layer2.0.conv1","class_name":"Conv2D","config":{"name":"cp.resnet.layer2.0.conv1","trainable":true,"filters":128,"kernel_size":[3,3],"strides":[2,2],"padding":"valid","data_format":"channels_last","dilation_rate":[1,1],"activation":"linear","use_bias":false,"kernel_initializer":{"class_name":"VarianceScaling","config":{"scale":1,"mode":"fan_avg","distribution":"uniform","seed":null}},"bias_initializer":{"class_name":"Zeros","config":{}},"kernel_regularizer":null,"bias_regularizer":null,"activity_regularizer":null,"kernel_constraint":null,"bias_constraint":null},"inbound_nodes":[[["zero_padding2d_10",0,0,{}]]]},{"name":"cp.resnet.layer2.0.bn1","class_name":"BatchNormalization","config":{"name":"cp.resnet.layer2.0.bn1","trainable":true,"axis":-1,"momentum":0.99,"epsilon":0.00001,"center":true,"scale":true,"beta_initializer":{"class_name":"Zeros","config":{}},"gamma_initializer":{"class_name":"Ones","config":{}},"moving_mean_initializer":{"class_name":"Zeros","config":{}},"moving_variance_initializer":{"class_name":"Ones","config":{}},"beta_regularizer":null,"gamma_regularizer":null,"beta_constraint":null,"gamma_constraint":null},"inbound_nodes":[[["cp.resnet.layer2.0.conv1",0,0,{}]]]},{"name":"activation_6","class_name":"Activation","config":{"name":"activation_6","trainable":true,"activation":"relu"},"inbound_nodes":[[["cp.resnet.layer2.0.bn1",0,0,{}]]]},{"name":"zero_padding2d_11","class_name":"ZeroPadding2D","config":{"name":"zero_padding2d_11","trainable":true,"padding":[[1,1],[1,1]],"data_format":"channels_last"},"inbound_nodes":[[["activation_6",0,0,{}]]]},{"name":"cp.resnet.layer2.0.conv2","class_name":"Conv2D","config":{"name":"cp.resnet.layer2.0.conv2","trainable":true,"filters":128,"kernel_size":[3,3],"strides":[1,1],"padding":"valid","data_format":"channels_last","dilation_rate":[1,1],"activation":"linear","use_bias":false,"kernel_initializer":{"class_name":"VarianceScaling","config":{"scale":1,"mode":"fan_avg","distribution":"uniform","seed":null}},"bias_initializer":{"class_name":"Zeros","config":{}},"kernel_regularizer":null,"bias_regularizer":null,"activity_regularizer":null,"kernel_constraint":null,"bias_constraint":null},"inbound_nodes":[[["zero_padding2d_11",0,0,{}]]]},{"name":"cp.resnet.layer2.0.downsample.0","class_name":"Conv2D","config":{"name":"cp.resnet.layer2.0.downsample.0","trainable":true,"filters":128,"kernel_size":[1,1],"strides":[2,2],"padding":"valid","data_format":"channels_last","dilation_rate":[1,1],"activation":"linear","use_bias":false,"kernel_initializer":{"class_name":"VarianceScaling","config":{"scale":1,"mode":"fan_avg","distribution":"uniform","seed":null}},"bias_initializer":{"class_name":"Zeros","config":{}},"kernel_regularizer":null,"bias_regularizer":null,"activity_regularizer":null,"kernel_constraint":null,"bias_constraint":null},"inbound_nodes":[[["activation_5",0,0,{}]]]},{"name":"cp.resnet.layer2.0.bn2","class_name":"BatchNormalization","config":{"name":"cp.resnet.layer2.0.bn2","trainable":true,"axis":-1,"momentum":0.99,"epsilon":0.00001,"center":true,"scale":true,"beta_initializer":{"class_name":"Zeros","config":{}},"gamma_initializer":{"class_name":"Ones","config":{}},"moving_mean_initializer":{"class_name":"Zeros","config":{}},"moving_variance_initializer":{"class_name":"Ones","config":{}},"beta_regularizer":null,"gamma_regularizer":null,"beta_constraint":null,"gamma_constraint":null},"inbound_nodes":[[["cp.resnet.layer2.0.conv2",0,0,{}]]]},{"name":"cp.resnet.layer2.0.downsample.1","class_name":"BatchNormalization","config":{"name":"cp.resnet.layer2.0.downsample.1","trainable":true,"axis":-1,"momentum":0.99,"epsilon":0.00001,"center":true,"scale":true,"beta_initializer":{"class_name":"Zeros","config":{}},"gamma_initializer":{"class_name":"Ones","config":{}},"moving_mean_initializer":{"class_name":"Zeros","config":{}},"moving_variance_initializer":{"class_name":"Ones","config":{}},"beta_regularizer":null,"gamma_regularizer":null,"beta_constraint":null,"gamma_constraint":null},"inbound_nodes":[[["cp.resnet.layer2.0.downsample.0",0,0,{}]]]},{"name":"add_3","class_name":"Add","config":{"name":"add_3","trainable":true},"inbound_nodes":[[["cp.resnet.layer2.0.bn2",0,0,{}],["cp.resnet.layer2.0.downsample.1",0,0,{}]]]},{"name":"activation_7","class_name":"Activation","config":{"name":"activation_7","trainable":true,"activation":"relu"},"inbound_nodes":[[["add_3",0,0,{}]]]},{"name":"zero_padding2d_12","class_name":"ZeroPadding2D","config":{"name":"zero_padding2d_12","trainable":true,"padding":[[1,1],[1,1]],"data_format":"channels_last"},"inbound_nodes":[[["activation_7",0,0,{}]]]},{"name":"cp.resnet.layer2.1.conv1","class_name":"Conv2D","config":{"name":"cp.resnet.layer2.1.conv1","trainable":true,"filters":128,"kernel_size":[3,3],"strides":[1,1],"padding":"valid","data_format":"channels_last","dilation_rate":[1,1],"activation":"linear","use_bias":false,"kernel_initializer":{"class_name":"VarianceScaling","config":{"scale":1,"mode":"fan_avg","distribution":"uniform","seed":null}},"bias_initializer":{"class_name":"Zeros","config":{}},"kernel_regularizer":null,"bias_regularizer":null,"activity_regularizer":null,"kernel_constraint":null,"bias_constraint":null},"inbound_nodes":[[["zero_padding2d_12",0,0,{}]]]},{"name":"cp.resnet.layer2.1.bn1","class_name":"BatchNormalization","config":{"name":"cp.resnet.layer2.1.bn1","trainable":true,"axis":-1,"momentum":0.99,"epsilon":0.00001,"center":true,"scale":true,"beta_initializer":{"class_name":"Zeros","config":{}},"gamma_initializer":{"class_name":"Ones","config":{}},"moving_mean_initializer":{"class_name":"Zeros","config":{}},"moving_variance_initializer":{"class_name":"Ones","config":{}},"beta_regularizer":null,"gamma_regularizer":null,"beta_constraint":null,"gamma_constraint":null},"inbound_nodes":[[["cp.resnet.layer2.1.conv1",0,0,{}]]]},{"name":"activation_8","class_name":"Activation","config":{"name":"activation_8","trainable":true,"activation":"relu"},"inbound_nodes":[[["cp.resnet.layer2.1.bn1",0,0,{}]]]},{"name":"zero_padding2d_13","class_name":"ZeroPadding2D","config":{"name":"zero_padding2d_13","trainable":true,"padding":[[1,1],[1,1]],"data_format":"channels_last"},"inbound_nodes":[[["activation_8",0,0,{}]]]},{"name":"cp.resnet.layer2.1.conv2","class_name":"Conv2D","config":{"name":"cp.resnet.layer2.1.conv2","trainable":true,"filters":128,"kernel_size":[3,3],"strides":[1,1],"padding":"valid","data_format":"channels_last","dilation_rate":[1,1],"activation":"linear","use_bias":false,"kernel_initializer":{"class_name":"VarianceScaling","config":{"scale":1,"mode":"fan_avg","distribution":"uniform","seed":null}},"bias_initializer":{"class_name":"Zeros","config":{}},"kernel_regularizer":null,"bias_regularizer":null,"activity_regularizer":null,"kernel_constraint":null,"bias_constraint":null},"inbound_nodes":[[["zero_padding2d_13",0,0,{}]]]},{"name":"cp.resnet.layer2.1.bn2","class_name":"BatchNormalization","config":{"name":"cp.resnet.layer2.1.bn2","trainable":true,"axis":-1,"momentum":0.99,"epsilon":0.00001,"center":true,"scale":true,"beta_initializer":{"class_name":"Zeros","config":{}},"gamma_initializer":{"class_name":"Ones","config":{}},"moving_mean_initializer":{"class_name":"Zeros","config":{}},"moving_variance_initializer":{"class_name":"Ones","config":{}},"beta_regularizer":null,"gamma_regularizer":null,"beta_constraint":null,"gamma_constraint":null},"inbound_nodes":[[["cp.resnet.layer2.1.conv2",0,0,{}]]]},{"name":"add_4","class_name":"Add","config":{"name":"add_4","trainable":true},"inbound_nodes":[[["cp.resnet.layer2.1.bn2",0,0,{}],["activation_7",0,0,{}]]]},{"name":"activation_9","class_name":"Activation","config":{"name":"activation_9","trainable":true,"activation":"relu"},"inbound_nodes":[[["add_4",0,0,{}]]]},{"name":"zero_padding2d_14","class_name":"ZeroPadding2D","config":{"name":"zero_padding2d_14","trainable":true,"padding":[[1,1],[1,1]],"data_format":"channels_last"},"inbound_nodes":[[["activation_9",0,0,{}]]]},{"name":"cp.resnet.layer3.0.conv1","class_name":"Conv2D","config":{"name":"cp.resnet.layer3.0.conv1","trainable":true,"filters":256,"kernel_size":[3,3],"strides":[2,2],"padding":"valid","data_format":"channels_last","dilation_rate":[1,1],"activation":"linear","use_bias":false,"kernel_initializer":{"class_name":"VarianceScaling","config":{"scale":1,"mode":"fan_avg","distribution":"uniform","seed":null}},"bias_initializer":{"class_name":"Zeros","config":{}},"kernel_regularizer":null,"bias_regularizer":null,"activity_regularizer":null,"kernel_constraint":null,"bias_constraint":null},"inbound_nodes":[[["zero_padding2d_14",0,0,{}]]]},{"name":"cp.resnet.layer3.0.bn1","class_name":"BatchNormalization","config":{"name":"cp.resnet.layer3.0.bn1","trainable":true,"axis":-1,"momentum":0.99,"epsilon":0.00001,"center":true,"scale":true,"beta_initializer":{"class_name":"Zeros","config":{}},"gamma_initializer":{"class_name":"Ones","config":{}},"moving_mean_initializer":{"class_name":"Zeros","config":{}},"moving_variance_initializer":{"class_name":"Ones","config":{}},"beta_regularizer":null,"gamma_regularizer":null,"beta_constraint":null,"gamma_constraint":null},"inbound_nodes":[[["cp.resnet.layer3.0.conv1",0,0,{}]]]},{"name":"activation_10","class_name":"Activation","config":{"name":"activation_10","trainable":true,"activation":"relu"},"inbound_nodes":[[["cp.resnet.layer3.0.bn1",0,0,{}]]]},{"name":"zero_padding2d_15","class_name":"ZeroPadding2D","config":{"name":"zero_padding2d_15","trainable":true,"padding":[[1,1],[1,1]],"data_format":"channels_last"},"inbound_nodes":[[["activation_10",0,0,{}]]]},{"name":"cp.resnet.layer3.0.conv2","class_name":"Conv2D","config":{"name":"cp.resnet.layer3.0.conv2","trainable":true,"filters":256,"kernel_size":[3,3],"strides":[1,1],"padding":"valid","data_format":"channels_last","dilation_rate":[1,1],"activation":"linear","use_bias":false,"kernel_initializer":{"class_name":"VarianceScaling","config":{"scale":1,"mode":"fan_avg","distribution":"uniform","seed":null}},"bias_initializer":{"class_name":"Zeros","config":{}},"kernel_regularizer":null,"bias_regularizer":null,"activity_regularizer":null,"kernel_constraint":null,"bias_constraint":null},"inbound_nodes":[[["zero_padding2d_15",0,0,{}]]]},{"name":"cp.resnet.layer3.0.downsample.0","class_name":"Conv2D","config":{"name":"cp.resnet.layer3.0.downsample.0","trainable":true,"filters":256,"kernel_size":[1,1],"strides":[2,2],"padding":"valid","data_format":"channels_last","dilation_rate":[1,1],"activation":"linear","use_bias":false,"kernel_initializer":{"class_name":"VarianceScaling","config":{"scale":1,"mode":"fan_avg","distribution":"uniform","seed":null}},"bias_initializer":{"class_name":"Zeros","config":{}},"kernel_regularizer":null,"bias_regularizer":null,"activity_regularizer":null,"kernel_constraint":null,"bias_constraint":null},"inbound_nodes":[[["activation_9",0,0,{}]]]},{"name":"cp.resnet.layer3.0.bn2","class_name":"BatchNormalization","config":{"name":"cp.resnet.layer3.0.bn2","trainable":true,"axis":-1,"momentum":0.99,"epsilon":0.00001,"center":true,"scale":true,"beta_initializer":{"class_name":"Zeros","config":{}},"gamma_initializer":{"class_name":"Ones","config":{}},"moving_mean_initializer":{"class_name":"Zeros","config":{}},"moving_variance_initializer":{"class_name":"Ones","config":{}},"beta_regularizer":null,"gamma_regularizer":null,"beta_constraint":null,"gamma_constraint":null},"inbound_nodes":[[["cp.resnet.layer3.0.conv2",0,0,{}]]]},{"name":"cp.resnet.layer3.0.downsample.1","class_name":"BatchNormalization","config":{"name":"cp.resnet.layer3.0.downsample.1","trainable":true,"axis":-1,"momentum":0.99,"epsilon":0.00001,"center":true,"scale":true,"beta_initializer":{"class_name":"Zeros","config":{}},"gamma_initializer":{"class_name":"Ones","config":{}},"moving_mean_initializer":{"class_name":"Zeros","config":{}},"moving_variance_initializer":{"class_name":"Ones","config":{}},"beta_regularizer":null,"gamma_regularizer":null,"beta_constraint":null,"gamma_constraint":null},"inbound_nodes":[[["cp.resnet.layer3.0.downsample.0",0,0,{}]]]},{"name":"add_5","class_name":"Add","config":{"name":"add_5","trainable":true},"inbound_nodes":[[["cp.resnet.layer3.0.bn2",0,0,{}],["cp.resnet.layer3.0.downsample.1",0,0,{}]]]},{"name":"activation_11","class_name":"Activation","config":{"name":"activation_11","trainable":true,"activation":"relu"},"inbound_nodes":[[["add_5",0,0,{}]]]},{"name":"zero_padding2d_16","class_name":"ZeroPadding2D","config":{"name":"zero_padding2d_16","trainable":true,"padding":[[1,1],[1,1]],"data_format":"channels_last"},"inbound_nodes":[[["activation_11",0,0,{}]]]},{"name":"cp.resnet.layer3.1.conv1","class_name":"Conv2D","config":{"name":"cp.resnet.layer3.1.conv1","trainable":true,"filters":256,"kernel_size":[3,3],"strides":[1,1],"padding":"valid","data_format":"channels_last","dilation_rate":[1,1],"activation":"linear","use_bias":false,"kernel_initializer":{"class_name":"VarianceScaling","config":{"scale":1,"mode":"fan_avg","distribution":"uniform","seed":null}},"bias_initializer":{"class_name":"Zeros","config":{}},"kernel_regularizer":null,"bias_regularizer":null,"activity_regularizer":null,"kernel_constraint":null,"bias_constraint":null},"inbound_nodes":[[["zero_padding2d_16",0,0,{}]]]},{"name":"cp.resnet.layer3.1.bn1","class_name":"BatchNormalization","config":{"name":"cp.resnet.layer3.1.bn1","trainable":true,"axis":-1,"momentum":0.99,"epsilon":0.00001,"center":true,"scale":true,"beta_initializer":{"class_name":"Zeros","config":{}},"gamma_initializer":{"class_name":"Ones","config":{}},"moving_mean_initializer":{"class_name":"Zeros","config":{}},"moving_variance_initializer":{"class_name":"Ones","config":{}},"beta_regularizer":null,"gamma_regularizer":null,"beta_constraint":null,"gamma_constraint":null},"inbound_nodes":[[["cp.resnet.layer3.1.conv1",0,0,{}]]]},{"name":"activation_12","class_name":"Activation","config":{"name":"activation_12","trainable":true,"activation":"relu"},"inbound_nodes":[[["cp.resnet.layer3.1.bn1",0,0,{}]]]},{"name":"zero_padding2d_17","class_name":"ZeroPadding2D","config":{"name":"zero_padding2d_17","trainable":true,"padding":[[1,1],[1,1]],"data_format":"channels_last"},"inbound_nodes":[[["activation_12",0,0,{}]]]},{"name":"cp.resnet.layer3.1.conv2","class_name":"Conv2D","config":{"name":"cp.resnet.layer3.1.conv2","trainable":true,"filters":256,"kernel_size":[3,3],"strides":[1,1],"padding":"valid","data_format":"channels_last","dilation_rate":[1,1],"activation":"linear","use_bias":false,"kernel_initializer":{"class_name":"VarianceScaling","config":{"scale":1,"mode":"fan_avg","distribution":"uniform","seed":null}},"bias_initializer":{"class_name":"Zeros","config":{}},"kernel_regularizer":null,"bias_regularizer":null,"activity_regularizer":null,"kernel_constraint":null,"bias_constraint":null},"inbound_nodes":[[["zero_padding2d_17",0,0,{}]]]},{"name":"cp.resnet.layer3.1.bn2","class_name":"BatchNormalization","config":{"name":"cp.resnet.layer3.1.bn2","trainable":true,"axis":-1,"momentum":0.99,"epsilon":0.00001,"center":true,"scale":true,"beta_initializer":{"class_name":"Zeros","config":{}},"gamma_initializer":{"class_name":"Ones","config":{}},"moving_mean_initializer":{"class_name":"Zeros","config":{}},"moving_variance_initializer":{"class_name":"Ones","config":{}},"beta_regularizer":null,"gamma_regularizer":null,"beta_constraint":null,"gamma_constraint":null},"inbound_nodes":[[["cp.resnet.layer3.1.conv2",0,0,{}]]]},{"name":"add_6","class_name":"Add","config":{"name":"add_6","trainable":true},"inbound_nodes":[[["cp.resnet.layer3.1.bn2",0,0,{}],["activation_11",0,0,{}]]]},{"name":"activation_13","class_name":"Activation","config":{"name":"activation_13","trainable":true,"activation":"relu"},"inbound_nodes":[[["add_6",0,0,{}]]]},{"name":"zero_padding2d_18","class_name":"ZeroPadding2D","config":{"name":"zero_padding2d_18","trainable":true,"padding":[[1,1],[1,1]],"data_format":"channels_last"},"inbound_nodes":[[["activation_13",0,0,{}]]]},{"name":"cp.resnet.layer4.0.conv1","class_name":"Conv2D","config":{"name":"cp.resnet.layer4.0.conv1","trainable":true,"filters":512,"kernel_size":[3,3],"strides":[2,2],"padding":"valid","data_format":"channels_last","dilation_rate":[1,1],"activation":"linear","use_bias":false,"kernel_initializer":{"class_name":"VarianceScaling","config":{"scale":1,"mode":"fan_avg","distribution":"uniform","seed":null}},"bias_initializer":{"class_name":"Zeros","config":{}},"kernel_regularizer":null,"bias_regularizer":null,"activity_regularizer":null,"kernel_constraint":null,"bias_constraint":null},"inbound_nodes":[[["zero_padding2d_18",0,0,{}]]]},{"name":"cp.resnet.layer4.0.bn1","class_name":"BatchNormalization","config":{"name":"cp.resnet.layer4.0.bn1","trainable":true,"axis":-1,"momentum":0.99,"epsilon":0.00001,"center":true,"scale":true,"beta_initializer":{"class_name":"Zeros","config":{}},"gamma_initializer":{"class_name":"Ones","config":{}},"moving_mean_initializer":{"class_name":"Zeros","config":{}},"moving_variance_initializer":{"class_name":"Ones","config":{}},"beta_regularizer":null,"gamma_regularizer":null,"beta_constraint":null,"gamma_constraint":null},"inbound_nodes":[[["cp.resnet.layer4.0.conv1",0,0,{}]]]},{"name":"activation_16","class_name":"Activation","config":{"name":"activation_16","trainable":true,"activation":"relu"},"inbound_nodes":[[["cp.resnet.layer4.0.bn1",0,0,{}]]]},{"name":"zero_padding2d_19","class_name":"ZeroPadding2D","config":{"name":"zero_padding2d_19","trainable":true,"padding":[[1,1],[1,1]],"data_format":"channels_last"},"inbound_nodes":[[["activation_16",0,0,{}]]]},{"name":"cp.resnet.layer4.0.conv2","class_name":"Conv2D","config":{"name":"cp.resnet.layer4.0.conv2","trainable":true,"filters":512,"kernel_size":[3,3],"strides":[1,1],"padding":"valid","data_format":"channels_last","dilation_rate":[1,1],"activation":"linear","use_bias":false,"kernel_initializer":{"class_name":"VarianceScaling","config":{"scale":1,"mode":"fan_avg","distribution":"uniform","seed":null}},"bias_initializer":{"class_name":"Zeros","config":{}},"kernel_regularizer":null,"bias_regularizer":null,"activity_regularizer":null,"kernel_constraint":null,"bias_constraint":null},"inbound_nodes":[[["zero_padding2d_19",0,0,{}]]]},{"name":"cp.resnet.layer4.0.downsample.0","class_name":"Conv2D","config":{"name":"cp.resnet.layer4.0.downsample.0","trainable":true,"filters":512,"kernel_size":[1,1],"strides":[2,2],"padding":"valid","data_format":"channels_last","dilation_rate":[1,1],"activation":"linear","use_bias":false,"kernel_initializer":{"class_name":"VarianceScaling","config":{"scale":1,"mode":"fan_avg","distribution":"uniform","seed":null}},"bias_initializer":{"class_name":"Zeros","config":{}},"kernel_regularizer":null,"bias_regularizer":null,"activity_regularizer":null,"kernel_constraint":null,"bias_constraint":null},"inbound_nodes":[[["activation_13",0,0,{}]]]},{"name":"cp.resnet.layer4.0.bn2","class_name":"BatchNormalization","config":{"name":"cp.resnet.layer4.0.bn2","trainable":true,"axis":-1,"momentum":0.99,"epsilon":0.00001,"center":true,"scale":true,"beta_initializer":{"class_name":"Zeros","config":{}},"gamma_initializer":{"class_name":"Ones","config":{}},"moving_mean_initializer":{"class_name":"Zeros","config":{}},"moving_variance_initializer":{"class_name":"Ones","config":{}},"beta_regularizer":null,"gamma_regularizer":null,"beta_constraint":null,"gamma_constraint":null},"inbound_nodes":[[["cp.resnet.layer4.0.conv2",0,0,{}]]]},{"name":"cp.resnet.layer4.0.downsample.1","class_name":"BatchNormalization","config":{"name":"cp.resnet.layer4.0.downsample.1","trainable":true,"axis":-1,"momentum":0.99,"epsilon":0.00001,"center":true,"scale":true,"beta_initializer":{"class_name":"Zeros","config":{}},"gamma_initializer":{"class_name":"Ones","config":{}},"moving_mean_initializer":{"class_name":"Zeros","config":{}},"moving_variance_initializer":{"class_name":"Ones","config":{}},"beta_regularizer":null,"gamma_regularizer":null,"beta_constraint":null,"gamma_constraint":null},"inbound_nodes":[[["cp.resnet.layer4.0.downsample.0",0,0,{}]]]},{"name":"add_7","class_name":"Add","config":{"name":"add_7","trainable":true},"inbound_nodes":[[["cp.resnet.layer4.0.bn2",0,0,{}],["cp.resnet.layer4.0.downsample.1",0,0,{}]]]},{"name":"activation_17","class_name":"Activation","config":{"name":"activation_17","trainable":true,"activation":"relu"},"inbound_nodes":[[["add_7",0,0,{}]]]},{"name":"zero_padding2d_20","class_name":"ZeroPadding2D","config":{"name":"zero_padding2d_20","trainable":true,"padding":[[1,1],[1,1]],"data_format":"channels_last"},"inbound_nodes":[[["activation_17",0,0,{}]]]},{"name":"cp.resnet.layer4.1.conv1","class_name":"Conv2D","config":{"name":"cp.resnet.layer4.1.conv1","trainable":true,"filters":512,"kernel_size":[3,3],"strides":[1,1],"padding":"valid","data_format":"channels_last","dilation_rate":[1,1],"activation":"linear","use_bias":false,"kernel_initializer":{"class_name":"VarianceScaling","config":{"scale":1,"mode":"fan_avg","distribution":"uniform","seed":null}},"bias_initializer":{"class_name":"Zeros","config":{}},"kernel_regularizer":null,"bias_regularizer":null,"activity_regularizer":null,"kernel_constraint":null,"bias_constraint":null},"inbound_nodes":[[["zero_padding2d_20",0,0,{}]]]},{"name":"cp.resnet.layer4.1.bn1","class_name":"BatchNormalization","config":{"name":"cp.resnet.layer4.1.bn1","trainable":true,"axis":-1,"momentum":0.99,"epsilon":0.00001,"center":true,"scale":true,"beta_initializer":{"class_name":"Zeros","config":{}},"gamma_initializer":{"class_name":"Ones","config":{}},"moving_mean_initializer":{"class_name":"Zeros","config":{}},"moving_variance_initializer":{"class_name":"Ones","config":{}},"beta_regularizer":null,"gamma_regularizer":null,"beta_constraint":null,"gamma_constraint":null},"inbound_nodes":[[["cp.resnet.layer4.1.conv1",0,0,{}]]]},{"name":"activation_18","class_name":"Activation","config":{"name":"activation_18","trainable":true,"activation":"relu"},"inbound_nodes":[[["cp.resnet.layer4.1.bn1",0,0,{}]]]},{"name":"zero_padding2d_21","class_name":"ZeroPadding2D","config":{"name":"zero_padding2d_21","trainable":true,"padding":[[1,1],[1,1]],"data_format":"channels_last"},"inbound_nodes":[[["activation_18",0,0,{}]]]},{"name":"cp.resnet.layer4.1.conv2","class_name":"Conv2D","config":{"name":"cp.resnet.layer4.1.conv2","trainable":true,"filters":512,"kernel_size":[3,3],"strides":[1,1],"padding":"valid","data_format":"channels_last","dilation_rate":[1,1],"activation":"linear","use_bias":false,"kernel_initializer":{"class_name":"VarianceScaling","config":{"scale":1,"mode":"fan_avg","distribution":"uniform","seed":null}},"bias_initializer":{"class_name":"Zeros","config":{}},"kernel_regularizer":null,"bias_regularizer":null,"activity_regularizer":null,"kernel_constraint":null,"bias_constraint":null},"inbound_nodes":[[["zero_padding2d_21",0,0,{}]]]},{"name":"cp.resnet.layer4.1.bn2","class_name":"BatchNormalization","config":{"name":"cp.resnet.layer4.1.bn2","trainable":true,"axis":-1,"momentum":0.99,"epsilon":0.00001,"center":true,"scale":true,"beta_initializer":{"class_name":"Zeros","config":{}},"gamma_initializer":{"class_name":"Ones","config":{}},"moving_mean_initializer":{"class_name":"Zeros","config":{}},"moving_variance_initializer":{"class_name":"Ones","config":{}},"beta_regularizer":null,"gamma_regularizer":null,"beta_constraint":null,"gamma_constraint":null},"inbound_nodes":[[["cp.resnet.layer4.1.conv2",0,0,{}]]]},{"name":"add_8","class_name":"Add","config":{"name":"add_8","trainable":true},"inbound_nodes":[[["cp.resnet.layer4.1.bn2",0,0,{}],["activation_17",0,0,{}]]]},{"name":"activation_19","class_name":"Activation","config":{"name":"activation_19","trainable":true,"activation":"relu"},"inbound_nodes":[[["add_8",0,0,{}]]]},{"name":"cp.arm32.conv.conv","class_name":"Conv2D","config":{"name":"cp.arm32.conv.conv","trainable":true,"filters":128,"kernel_size":[3,3],"strides":[1,1],"padding":"same","data_format":"channels_last","dilation_rate":[1,1],"activation":"linear","use_bias":false,"kernel_initializer":{"class_name":"VarianceScaling","config":{"scale":1,"mode":"fan_avg","distribution":"uniform","seed":null}},"bias_initializer":{"class_name":"Zeros","config":{}},"kernel_regularizer":null,"bias_regularizer":null,"activity_regularizer":null,"kernel_constraint":null,"bias_constraint":null},"inbound_nodes":[[["activation_19",0,0,{}]]]},{"name":"cp.arm32.conv.bn","class_name":"BatchNormalization","config":{"name":"cp.arm32.conv.bn","trainable":true,"axis":-1,"momentum":0.99,"epsilon":0.00001,"center":true,"scale":true,"beta_initializer":{"class_name":"Zeros","config":{}},"gamma_initializer":{"class_name":"Ones","config":{}},"moving_mean_initializer":{"class_name":"Zeros","config":{}},"moving_variance_initializer":{"class_name":"Ones","config":{}},"beta_regularizer":null,"gamma_regularizer":null,"beta_constraint":null,"gamma_constraint":null},"inbound_nodes":[[["cp.arm32.conv.conv",0,0,{}]]]},{"name":"activation_21","class_name":"Activation","config":{"name":"activation_21","trainable":true,"activation":"relu"},"inbound_nodes":[[["cp.arm32.conv.bn",0,0,{}]]]},{"name":"global_average_pooling2d_3","class_name":"GlobalAveragePooling2D","config":{"name":"global_average_pooling2d_3","trainable":true,"data_format":"channels_last"},"inbound_nodes":[[["activation_21",0,0,{}]]]},{"name":"global_average_pooling2d_2","class_name":"GlobalAveragePooling2D","config":{"name":"global_average_pooling2d_2","trainable":true,"data_format":"channels_last"},"inbound_nodes":[[["activation_19",0,0,{}]]]},{"name":"reshape_3","class_name":"Reshape","config":{"name":"reshape_3","trainable":true,"target_shape":[1,1,128]},"inbound_nodes":[[["global_average_pooling2d_3",0,0,{}]]]},{"name":"reshape_2","class_name":"Reshape","config":{"name":"reshape_2","trainable":true,"target_shape":[1,1,512]},"inbound_nodes":[[["global_average_pooling2d_2",0,0,{}]]]},{"name":"cp.arm32.conv_atten","class_name":"Conv2D","config":{"name":"cp.arm32.conv_atten","trainable":true,"filters":128,"kernel_size":[1,1],"strides":[1,1],"padding":"valid","data_format":"channels_last","dilation_rate":[1,1],"activation":"linear","use_bias":false,"kernel_initializer":{"class_name":"VarianceScaling","config":{"scale":1,"mode":"fan_avg","distribution":"uniform","seed":null}},"bias_initializer":{"class_name":"Zeros","config":{}},"kernel_regularizer":null,"bias_regularizer":null,"activity_regularizer":null,"kernel_constraint":null,"bias_constraint":null},"inbound_nodes":[[["reshape_3",0,0,{}]]]},{"name":"cp.conv_avg.conv","class_name":"Conv2D","config":{"name":"cp.conv_avg.conv","trainable":true,"filters":128,"kernel_size":[1,1],"strides":[1,1],"padding":"valid","data_format":"channels_last","dilation_rate":[1,1],"activation":"linear","use_bias":false,"kernel_initializer":{"class_name":"VarianceScaling","config":{"scale":1,"mode":"fan_avg","distribution":"uniform","seed":null}},"bias_initializer":{"class_name":"Zeros","config":{}},"kernel_regularizer":null,"bias_regularizer":null,"activity_regularizer":null,"kernel_constraint":null,"bias_constraint":null},"inbound_nodes":[[["reshape_2",0,0,{}]]]},{"name":"cp.arm16.conv.conv","class_name":"Conv2D","config":{"name":"cp.arm16.conv.conv","trainable":true,"filters":128,"kernel_size":[3,3],"strides":[1,1],"padding":"same","data_format":"channels_last","dilation_rate":[1,1],"activation":"linear","use_bias":false,"kernel_initializer":{"class_name":"VarianceScaling","config":{"scale":1,"mode":"fan_avg","distribution":"uniform","seed":null}},"bias_initializer":{"class_name":"Zeros","config":{}},"kernel_regularizer":null,"bias_regularizer":null,"activity_regularizer":null,"kernel_constraint":null,"bias_constraint":null},"inbound_nodes":[[["activation_13",0,0,{}]]]},{"name":"cp.arm32.bn_atten","class_name":"BatchNormalization","config":{"name":"cp.arm32.bn_atten","trainable":true,"axis":-1,"momentum":0.99,"epsilon":0.00001,"center":true,"scale":true,"beta_initializer":{"class_name":"Zeros","config":{}},"gamma_initializer":{"class_name":"Ones","config":{}},"moving_mean_initializer":{"class_name":"Zeros","config":{}},"moving_variance_initializer":{"class_name":"Ones","config":{}},"beta_regularizer":null,"gamma_regularizer":null,"beta_constraint":null,"gamma_constraint":null},"inbound_nodes":[[["cp.arm32.conv_atten",0,0,{}]]]},{"name":"cp.conv_avg.bn","class_name":"BatchNormalization","config":{"name":"cp.conv_avg.bn","trainable":true,"axis":-1,"momentum":0.99,"epsilon":0.00001,"center":true,"scale":true,"beta_initializer":{"class_name":"Zeros","config":{}},"gamma_initializer":{"class_name":"Ones","config":{}},"moving_mean_initializer":{"class_name":"Zeros","config":{}},"moving_variance_initializer":{"class_name":"Ones","config":{}},"beta_regularizer":null,"gamma_regularizer":null,"beta_constraint":null,"gamma_constraint":null},"inbound_nodes":[[["cp.conv_avg.conv",0,0,{}]]]},{"name":"cp.arm16.conv.bn","class_name":"BatchNormalization","config":{"name":"cp.arm16.conv.bn","trainable":true,"axis":-1,"momentum":0.99,"epsilon":0.00001,"center":true,"scale":true,"beta_initializer":{"class_name":"Zeros","config":{}},"gamma_initializer":{"class_name":"Ones","config":{}},"moving_mean_initializer":{"class_name":"Zeros","config":{}},"moving_variance_initializer":{"class_name":"Ones","config":{}},"beta_regularizer":null,"gamma_regularizer":null,"beta_constraint":null,"gamma_constraint":null},"inbound_nodes":[[["cp.arm16.conv.conv",0,0,{}]]]},{"name":"activation_22","class_name":"Activation","config":{"name":"activation_22","trainable":true,"activation":"sigmoid"},"inbound_nodes":[[["cp.arm32.bn_atten",0,0,{}]]]},{"name":"activation_20","class_name":"Activation","config":{"name":"activation_20","trainable":true,"activation":"relu"},"inbound_nodes":[[["cp.conv_avg.bn",0,0,{}]]]},{"name":"activation_14","class_name":"Activation","config":{"name":"activation_14","trainable":true,"activation":"relu"},"inbound_nodes":[[["cp.arm16.conv.bn",0,0,{}]]]},{"name":"multiply_2","class_name":"Multiply","config":{"name":"multiply_2","trainable":true},"inbound_nodes":[[["activation_21",0,0,{}],["activation_22",0,0,{}]]]},{"name":"bisenetresize_3","class_name":"BiSeNetResize","config":{"name":"bisenetresize_3","trainable":true,"size":[16,16],"output_shape":null,"output_shape_type":"raw","arguments":{}},"inbound_nodes":[[["activation_20",0,0,{}]]]},{"name":"global_average_pooling2d_1","class_name":"GlobalAveragePooling2D","config":{"name":"global_average_pooling2d_1","trainable":true,"data_format":"channels_last"},"inbound_nodes":[[["activation_14",0,0,{}]]]},{"name":"feat32_sum","class_name":"Add","config":{"name":"feat32_sum","trainable":true},"inbound_nodes":[[["multiply_2",0,0,{}],["bisenetresize_3",0,0,{}]]]},{"name":"reshape_1","class_name":"Reshape","config":{"name":"reshape_1","trainable":true,"target_shape":[1,1,128]},"inbound_nodes":[[["global_average_pooling2d_1",0,0,{}]]]},{"name":"bisenetresize_4","class_name":"BiSeNetResize","config":{"name":"bisenetresize_4","trainable":true,"size":[32,32],"output_shape":null,"output_shape_type":"raw","arguments":{}},"inbound_nodes":[[["feat32_sum",0,0,{}]]]},{"name":"cp.arm16.conv_atten","class_name":"Conv2D","config":{"name":"cp.arm16.conv_atten","trainable":true,"filters":128,"kernel_size":[1,1],"strides":[1,1],"padding":"valid","data_format":"channels_last","dilation_rate":[1,1],"activation":"linear","use_bias":false,"kernel_initializer":{"class_name":"VarianceScaling","config":{"scale":1,"mode":"fan_avg","distribution":"uniform","seed":null}},"bias_initializer":{"class_name":"Zeros","config":{}},"kernel_regularizer":null,"bias_regularizer":null,"activity_regularizer":null,"kernel_constraint":null,"bias_constraint":null},"inbound_nodes":[[["reshape_1",0,0,{}]]]},{"name":"zero_padding2d_22","class_name":"ZeroPadding2D","config":{"name":"zero_padding2d_22","trainable":true,"padding":[[1,1],[1,1]],"data_format":"channels_last"},"inbound_nodes":[[["bisenetresize_4",0,0,{}]]]},{"name":"cp.arm16.bn_atten","class_name":"BatchNormalization","config":{"name":"cp.arm16.bn_atten","trainable":true,"axis":-1,"momentum":0.99,"epsilon":0.00001,"center":true,"scale":true,"beta_initializer":{"class_name":"Zeros","config":{}},"gamma_initializer":{"class_name":"Ones","config":{}},"moving_mean_initializer":{"class_name":"Zeros","config":{}},"moving_variance_initializer":{"class_name":"Ones","config":{}},"beta_regularizer":null,"gamma_regularizer":null,"beta_constraint":null,"gamma_constraint":null},"inbound_nodes":[[["cp.arm16.conv_atten",0,0,{}]]]},{"name":"cp.conv_head32.conv","class_name":"Conv2D","config":{"name":"cp.conv_head32.conv","trainable":true,"filters":128,"kernel_size":[3,3],"strides":[1,1],"padding":"valid","data_format":"channels_last","dilation_rate":[1,1],"activation":"linear","use_bias":false,"kernel_initializer":{"class_name":"VarianceScaling","config":{"scale":1,"mode":"fan_avg","distribution":"uniform","seed":null}},"bias_initializer":{"class_name":"Zeros","config":{}},"kernel_regularizer":null,"bias_regularizer":null,"activity_regularizer":null,"kernel_constraint":null,"bias_constraint":null},"inbound_nodes":[[["zero_padding2d_22",0,0,{}]]]},{"name":"activation_15","class_name":"Activation","config":{"name":"activation_15","trainable":true,"activation":"sigmoid"},"inbound_nodes":[[["cp.arm16.bn_atten",0,0,{}]]]},{"name":"cp.conv_head32.bn","class_name":"BatchNormalization","config":{"name":"cp.conv_head32.bn","trainable":true,"axis":-1,"momentum":0.99,"epsilon":0.00001,"center":true,"scale":true,"beta_initializer":{"class_name":"Zeros","config":{}},"gamma_initializer":{"class_name":"Ones","config":{}},"moving_mean_initializer":{"class_name":"Zeros","config":{}},"moving_variance_initializer":{"class_name":"Ones","config":{}},"beta_regularizer":null,"gamma_regularizer":null,"beta_constraint":null,"gamma_constraint":null},"inbound_nodes":[[["cp.conv_head32.conv",0,0,{}]]]},{"name":"multiply_1","class_name":"Multiply","config":{"name":"multiply_1","trainable":true},"inbound_nodes":[[["activation_14",0,0,{}],["activation_15",0,0,{}]]]},{"name":"activation_23","class_name":"Activation","config":{"name":"activation_23","trainable":true,"activation":"relu"},"inbound_nodes":[[["cp.conv_head32.bn",0,0,{}]]]},{"name":"feat16_sum","class_name":"Add","config":{"name":"feat16_sum","trainable":true},"inbound_nodes":[[["multiply_1",0,0,{}],["activation_23",0,0,{}]]]},{"name":"bisenetresize_5","class_name":"BiSeNetResize","config":{"name":"bisenetresize_5","trainable":true,"size":[64,64],"output_shape":null,"output_shape_type":"raw","arguments":{}},"inbound_nodes":[[["feat16_sum",0,0,{}]]]},{"name":"zero_padding2d_23","class_name":"ZeroPadding2D","config":{"name":"zero_padding2d_23","trainable":true,"padding":[[1,1],[1,1]],"data_format":"channels_last"},"inbound_nodes":[[["bisenetresize_5",0,0,{}]]]},{"name":"cp.conv_head16.conv","class_name":"Conv2D","config":{"name":"cp.conv_head16.conv","trainable":true,"filters":128,"kernel_size":[3,3],"strides":[1,1],"padding":"valid","data_format":"channels_last","dilation_rate":[1,1],"activation":"linear","use_bias":false,"kernel_initializer":{"class_name":"VarianceScaling","config":{"scale":1,"mode":"fan_avg","distribution":"uniform","seed":null}},"bias_initializer":{"class_name":"Zeros","config":{}},"kernel_regularizer":null,"bias_regularizer":null,"activity_regularizer":null,"kernel_constraint":null,"bias_constraint":null},"inbound_nodes":[[["zero_padding2d_23",0,0,{}]]]},{"name":"cp.conv_head16.bn","class_name":"BatchNormalization","config":{"name":"cp.conv_head16.bn","trainable":true,"axis":-1,"momentum":0.99,"epsilon":0.00001,"center":true,"scale":true,"beta_initializer":{"class_name":"Zeros","config":{}},"gamma_initializer":{"class_name":"Ones","config":{}},"moving_mean_initializer":{"class_name":"Zeros","config":{}},"moving_variance_initializer":{"class_name":"Ones","config":{}},"beta_regularizer":null,"gamma_regularizer":null,"beta_constraint":null,"gamma_constraint":null},"inbound_nodes":[[["cp.conv_head16.conv",0,0,{}]]]},{"name":"activation_24","class_name":"Activation","config":{"name":"activation_24","trainable":true,"activation":"relu"},"inbound_nodes":[[["cp.conv_head16.bn",0,0,{}]]]},{"name":"concatenate_2","class_name":"Concatenate","config":{"name":"concatenate_2","trainable":true,"axis":-1},"inbound_nodes":[[["activation_9",0,0,{}],["activation_24",0,0,{}]]]},{"name":"ffm.convblk.conv","class_name":"Conv2D","config":{"name":"ffm.convblk.conv","trainable":true,"filters":256,"kernel_size":[1,1],"strides":[1,1],"padding":"valid","data_format":"channels_last","dilation_rate":[1,1],"activation":"linear","use_bias":false,"kernel_initializer":{"class_name":"VarianceScaling","config":{"scale":1,"mode":"fan_avg","distribution":"uniform","seed":null}},"bias_initializer":{"class_name":"Zeros","config":{}},"kernel_regularizer":null,"bias_regularizer":null,"activity_regularizer":null,"kernel_constraint":null,"bias_constraint":null},"inbound_nodes":[[["concatenate_2",0,0,{}]]]},{"name":"ffm.convblk.bn","class_name":"BatchNormalization","config":{"name":"ffm.convblk.bn","trainable":true,"axis":-1,"momentum":0.99,"epsilon":0.00001,"center":true,"scale":true,"beta_initializer":{"class_name":"Zeros","config":{}},"gamma_initializer":{"class_name":"Ones","config":{}},"moving_mean_initializer":{"class_name":"Zeros","config":{}},"moving_variance_initializer":{"class_name":"Ones","config":{}},"beta_regularizer":null,"gamma_regularizer":null,"beta_constraint":null,"gamma_constraint":null},"inbound_nodes":[[["ffm.convblk.conv",0,0,{}]]]},{"name":"activation_25","class_name":"Activation","config":{"name":"activation_25","trainable":true,"activation":"relu"},"inbound_nodes":[[["ffm.convblk.bn",0,0,{}]]]},{"name":"global_average_pooling2d_4","class_name":"GlobalAveragePooling2D","config":{"name":"global_average_pooling2d_4","trainable":true,"data_format":"channels_last"},"inbound_nodes":[[["activation_25",0,0,{}]]]},{"name":"reshape_4","class_name":"Reshape","config":{"name":"reshape_4","trainable":true,"target_shape":[1,1,256]},"inbound_nodes":[[["global_average_pooling2d_4",0,0,{}]]]},{"name":"ffm.conv1","class_name":"Conv2D","config":{"name":"ffm.conv1","trainable":true,"filters":64,"kernel_size":[1,1],"strides":[1,1],"padding":"valid","data_format":"channels_last","dilation_rate":[1,1],"activation":"linear","use_bias":false,"kernel_initializer":{"class_name":"VarianceScaling","config":{"scale":1,"mode":"fan_avg","distribution":"uniform","seed":null}},"bias_initializer":{"class_name":"Zeros","config":{}},"kernel_regularizer":null,"bias_regularizer":null,"activity_regularizer":null,"kernel_constraint":null,"bias_constraint":null},"inbound_nodes":[[["reshape_4",0,0,{}]]]},{"name":"activation_26","class_name":"Activation","config":{"name":"activation_26","trainable":true,"activation":"relu"},"inbound_nodes":[[["ffm.conv1",0,0,{}]]]},{"name":"ffm.conv2","class_name":"Conv2D","config":{"name":"ffm.conv2","trainable":true,"filters":256,"kernel_size":[1,1],"strides":[1,1],"padding":"valid","data_format":"channels_last","dilation_rate":[1,1],"activation":"linear","use_bias":false,"kernel_initializer":{"class_name":"VarianceScaling","config":{"scale":1,"mode":"fan_avg","distribution":"uniform","seed":null}},"bias_initializer":{"class_name":"Zeros","config":{}},"kernel_regularizer":null,"bias_regularizer":null,"activity_regularizer":null,"kernel_constraint":null,"bias_constraint":null},"inbound_nodes":[[["activation_26",0,0,{}]]]},{"name":"activation_27","class_name":"Activation","config":{"name":"activation_27","trainable":true,"activation":"sigmoid"},"inbound_nodes":[[["ffm.conv2",0,0,{}]]]},{"name":"multiply_3","class_name":"Multiply","config":{"name":"multiply_3","trainable":true},"inbound_nodes":[[["activation_25",0,0,{}],["activation_27",0,0,{}]]]},{"name":"add_9","class_name":"Add","config":{"name":"add_9","trainable":true},"inbound_nodes":[[["activation_25",0,0,{}],["multiply_3",0,0,{}]]]},{"name":"zero_padding2d_24","class_name":"ZeroPadding2D","config":{"name":"zero_padding2d_24","trainable":true,"padding":[[1,1],[1,1]],"data_format":"channels_last"},"inbound_nodes":[[["add_9",0,0,{}]]]},{"name":"conv_out.conv.conv","class_name":"Conv2D","config":{"name":"conv_out.conv.conv","trainable":true,"filters":256,"kernel_size":[3,3],"strides":[1,1],"padding":"valid","data_format":"channels_last","dilation_rate":[1,1],"activation":"linear","use_bias":false,"kernel_initializer":{"class_name":"VarianceScaling","config":{"scale":1,"mode":"fan_avg","distribution":"uniform","seed":null}},"bias_initializer":{"class_name":"Zeros","config":{}},"kernel_regularizer":null,"bias_regularizer":null,"activity_regularizer":null,"kernel_constraint":null,"bias_constraint":null},"inbound_nodes":[[["zero_padding2d_24",0,0,{}]]]},{"name":"conv_out.conv.bn","class_name":"BatchNormalization","config":{"name":"conv_out.conv.bn","trainable":true,"axis":-1,"momentum":0.99,"epsilon":0.00001,"center":true,"scale":true,"beta_initializer":{"class_name":"Zeros","config":{}},"gamma_initializer":{"class_name":"Ones","config":{}},"moving_mean_initializer":{"class_name":"Zeros","config":{}},"moving_variance_initializer":{"class_name":"Ones","config":{}},"beta_regularizer":null,"gamma_regularizer":null,"beta_constraint":null,"gamma_constraint":null},"inbound_nodes":[[["conv_out.conv.conv",0,0,{}]]]},{"name":"activation_28","class_name":"Activation","config":{"name":"activation_28","trainable":true,"activation":"relu"},"inbound_nodes":[[["conv_out.conv.bn",0,0,{}]]]},{"name":"conv_out.conv_out","class_name":"Conv2D","config":{"name":"conv_out.conv_out","trainable":true,"filters":19,"kernel_size":[1,1],"strides":[1,1],"padding":"valid","data_format":"channels_last","dilation_rate":[1,1],"activation":"linear","use_bias":false,"kernel_initializer":{"class_name":"VarianceScaling","config":{"scale":1,"mode":"fan_avg","distribution":"uniform","seed":null}},"bias_initializer":{"class_name":"Zeros","config":{}},"kernel_regularizer":null,"bias_regularizer":null,"activity_regularizer":null,"kernel_constraint":null,"bias_constraint":null},"inbound_nodes":[[["activation_28",0,0,{}]]]},{"name":"bisenetresize_6","class_name":"BiSeNetResize","config":{"name":"bisenetresize_6","trainable":true,"size":[512,512],"interpolation":"bilinear","output_shape":null,"output_shape_type":"raw","arguments":{}},"inbound_nodes":[[["conv_out.conv_out",0,0,{}]]]}],"input_layers":[["input_2",0,0]],"output_layers":[["bisenetresize_6",0,0]]}}},"weightsManifest":[{"paths":["group1-shard1of7.bin","group1-shard2of7.bin","group1-shard3of7.bin","group1-shard4of7.bin","group1-shard5of7.bin","group1-shard6of7.bin","group1-shard7of7.bin"],"weights":[{"name":"conv_out.conv.bn/gamma","shape":[256],"dtype":"float32","quantization":{"min":0.005488037597388029,"scale":0.00002202707542966421,"dtype":"uint16"}},{"name":"conv_out.conv.bn/beta","shape":[256],"dtype":"float32","quantization":{"min":-1.0423907296325774,"scale":0.000022940441682972278,"dtype":"uint16"}},{"name":"conv_out.conv.bn/moving_mean","shape":[256],"dtype":"float32","quantization":{"min":-0.9703620548009818,"scale":0.000018811663819494443,"dtype":"uint16"}},{"name":"conv_out.conv.bn/moving_variance","shape":[256],"dtype":"float32","quantization":{"min":1.0539601907966243e-19,"scale":0.000038843892700586474,"dtype":"uint16"}},{"name":"conv_out.conv.conv/kernel","shape":[3,3,256,256],"dtype":"float32","quantization":{"min":-0.07471922190713966,"scale":0.0000021296021748600484,"dtype":"uint16"}},{"name":"conv_out.conv_out/kernel","shape":[1,1,256,19],"dtype":"float32","quantization":{"min":-0.39025154951245034,"scale":0.000010959659332522195,"dtype":"uint16"}},{"name":"cp.arm16.bn_atten/gamma","shape":[128],"dtype":"float32","quantization":{"min":0.00018716431804932654,"scale":0.00002230398249825214,"dtype":"uint16"}},{"name":"cp.arm16.bn_atten/beta","shape":[128],"dtype":"float32","quantization":{"min":-0.27844673544543647,"scale":0.000006108297366358154,"dtype":"uint16"}},{"name":"cp.arm16.bn_atten/moving_mean","shape":[128],"dtype":"float32","quantization":{"min":-0.08800464029353335,"scale":0.0000030024441436161627,"dtype":"uint16"}},{"name":"cp.arm16.bn_atten/moving_variance","shape":[128],"dtype":"float32","quantization":{"min":0.000026209454517811537,"scale":4.0685613077249574e-8,"dtype":"uint16"}},{"name":"cp.arm16.conv.bn/gamma","shape":[128],"dtype":"float32","quantization":{"min":0.0006405778112821281,"scale":0.000017087931678921526,"dtype":"uint16"}},{"name":"cp.arm16.conv.bn/beta","shape":[128],"dtype":"float32","quantization":{"min":-0.25293038811605983,"scale":0.000005884154661301845,"dtype":"uint16"}},{"name":"cp.arm16.conv.bn/moving_mean","shape":[128],"dtype":"float32","quantization":{"min":-0.29848939909345273,"scale":0.000006069942025286278,"dtype":"uint16"}},{"name":"cp.arm16.conv.bn/moving_variance","shape":[128],"dtype":"float32","quantization":{"min":0.0006391029455699027,"scale":0.0000012032553005247041,"dtype":"uint16"}},{"name":"cp.arm16.conv.conv/kernel","shape":[3,3,256,128],"dtype":"float32","quantization":{"min":-0.07384286440463818,"scale":0.0000023823352821215055,"dtype":"uint16"}},{"name":"cp.arm16.conv_atten/kernel","shape":[1,1,128,128],"dtype":"float32","quantization":{"min":-0.19004763096441363,"scale":0.000004551275976828164,"dtype":"uint16"}},{"name":"cp.arm32.bn_atten/gamma","shape":[128],"dtype":"float32","quantization":{"min":-0.08621119942032628,"scale":0.000029303602794128578,"dtype":"uint16"}},{"name":"cp.arm32.bn_atten/beta","shape":[128],"dtype":"float32","quantization":{"min":-0.4028608472717247,"scale":0.00001126410868926953,"dtype":"uint16"}},{"name":"cp.arm32.bn_atten/moving_mean","shape":[128],"dtype":"float32","quantization":{"min":-0.1791578968695684,"scale":0.000007452181559401373,"dtype":"uint16"}},{"name":"cp.arm32.bn_atten/moving_variance","shape":[128],"dtype":"float32","quantization":{"min":0.00014622918388340622,"scale":0.0000010635926860420243,"dtype":"uint16"}},{"name":"cp.arm32.conv.bn/gamma","shape":[128],"dtype":"float32","quantization":{"min":0.0007872091373428702,"scale":0.000022520913862992548,"dtype":"uint16"}},{"name":"cp.arm32.conv.bn/beta","shape":[128],"dtype":"float32","quantization":{"min":-0.308950359009856,"scale":0.000012501531947147493,"dtype":"uint16"}},{"name":"cp.arm32.conv.bn/moving_mean","shape":[128],"dtype":"float32","quantization":{"min":-7.537437075197792,"scale":0.00014684272501846467,"dtype":"uint16"}},{"name":"cp.arm32.conv.bn/moving_variance","shape":[128],"dtype":"float32","quantization":{"min":0.022758707404136658,"scale":0.0005171849344818454,"dtype":"uint16"}},{"name":"cp.arm32.conv.conv/kernel","shape":[3,3,512,128],"dtype":"float32","quantization":{"min":-0.08810196297205294,"scale":0.000004254489229865411,"dtype":"uint16"}},{"name":"cp.arm32.conv_atten/kernel","shape":[1,1,128,128],"dtype":"float32","quantization":{"min":-0.2640960275567514,"scale":0.00001024899206600246,"dtype":"uint16"}},{"name":"cp.conv_avg.bn/gamma","shape":[128],"dtype":"float32","quantization":{"min":-0.0032983257847987247,"scale":0.000006772742884596971,"dtype":"uint16"}},{"name":"cp.conv_avg.bn/beta","shape":[128],"dtype":"float32","quantization":{"min":-0.4060156110009349,"scale":0.00000836421266121987,"dtype":"uint16"}},{"name":"cp.conv_avg.bn/moving_mean","shape":[128],"dtype":"float32","quantization":{"min":-2.1228358823301554,"scale":0.00004594982320678273,"dtype":"uint16"}},{"name":"cp.conv_avg.bn/moving_variance","shape":[128],"dtype":"float32","quantization":{"min":0.0005509880720637739,"scale":0.000004382620302084448,"dtype":"uint16"}},{"name":"cp.conv_avg.conv/kernel","shape":[1,1,512,128],"dtype":"float32","quantization":{"min":-0.14707040025961973,"scale":0.000003763123695297573,"dtype":"uint16"}},{"name":"cp.conv_head16.bn/gamma","shape":[128],"dtype":"float32","quantization":{"min":0.0002645831264089793,"scale":0.00001459878327175699,"dtype":"uint16"}},{"name":"cp.conv_head16.bn/beta","shape":[128],"dtype":"float32","quantization":{"min":-0.4947989025186545,"scale":0.000012713883100844198,"dtype":"uint16"}},{"name":"cp.conv_head16.bn/moving_mean","shape":[128],"dtype":"float32","quantization":{"min":-0.9190918867198955,"scale":0.00001691995373195684,"dtype":"uint16"}},{"name":"cp.conv_head16.bn/moving_variance","shape":[128],"dtype":"float32","quantization":{"min":0.0014282965566962957,"scale":0.000021124140006955678,"dtype":"uint16"}},{"name":"cp.conv_head16.conv/kernel","shape":[3,3,128,128],"dtype":"float32","quantization":{"min":-0.09012112158077155,"scale":0.0000026461849716878043,"dtype":"uint16"}},{"name":"cp.conv_head32.bn/gamma","shape":[128],"dtype":"float32","quantization":{"min":0.1439826637506485,"scale":0.000013256838576893898,"dtype":"uint16"}},{"name":"cp.conv_head32.bn/beta","shape":[128],"dtype":"float32","quantization":{"min":-0.4461521162940461,"scale":0.000009243036240528002,"dtype":"uint16"}},{"name":"cp.conv_head32.bn/moving_mean","shape":[128],"dtype":"float32","quantization":{"min":-1.0860850368892518,"scale":0.00001974125775936549,"dtype":"uint16"}},{"name":"cp.conv_head32.bn/moving_variance","shape":[128],"dtype":"float32","quantization":{"min":0.007003912702202797,"scale":0.00002228888823923843,"dtype":"uint16"}},{"name":"cp.conv_head32.conv/kernel","shape":[3,3,128,128],"dtype":"float32","quantization":{"min":-0.16176873651173493,"scale":0.000004950538192359609,"dtype":"uint16"}},{"name":"cp.resnet.bn1/gamma","shape":[64],"dtype":"float32","quantization":{"min":0,"scale":0.000012061136848884479,"dtype":"uint16"}},{"name":"cp.resnet.bn1/beta","shape":[64],"dtype":"float32","quantization":{"min":-0.8830094743759052,"scale":0.000029904140963692264,"dtype":"uint16"}},{"name":"cp.resnet.bn1/moving_mean","shape":[64],"dtype":"float32","quantization":{"min":-1.1818068110261617,"scale":0.00003457597457654072,"dtype":"uint16"}},{"name":"cp.resnet.bn1/moving_variance","shape":[64],"dtype":"float32","quantization":{"min":1.6916949434101175e-15,"scale":0.00008101534987147177,"dtype":"uint16"}},{"name":"cp.resnet.conv1/kernel","shape":[7,7,3,64],"dtype":"float32","quantization":{"min":-0.3013652600976125,"scale":0.000009185164891728512,"dtype":"uint16"}},{"name":"cp.resnet.layer1.0.bn1/gamma","shape":[64],"dtype":"float32","quantization":{"min":0.15391583740711212,"scale":0.00000790630237656181,"dtype":"uint16"}},{"name":"cp.resnet.layer1.0.bn1/beta","shape":[64],"dtype":"float32","quantization":{"min":-0.86078836229743,"scale":0.00002217497970780128,"dtype":"uint16"}},{"name":"cp.resnet.layer1.0.bn1/moving_mean","shape":[64],"dtype":"float32","quantization":{"min":-2.6775627712640624,"scale":0.000059141290172374046,"dtype":"uint16"}},{"name":"cp.resnet.layer1.0.bn1/moving_variance","shape":[64],"dtype":"float32","quantization":{"min":0.014746289700269699,"scale":0.000009572963717964791,"dtype":"uint16"}},{"name":"cp.resnet.layer1.0.bn2/gamma","shape":[64],"dtype":"float32","quantization":{"min":0.10462351143360138,"scale":0.000009058022186213521,"dtype":"uint16"}},{"name":"cp.resnet.layer1.0.bn2/beta","shape":[64],"dtype":"float32","quantization":{"min":-0.6374809343936542,"scale":0.000020310996444072332,"dtype":"uint16"}},{"name":"cp.resnet.layer1.0.bn2/moving_mean","shape":[64],"dtype":"float32","quantization":{"min":-0.7653357302823309,"scale":0.000027096326085407363,"dtype":"uint16"}},{"name":"cp.resnet.layer1.0.bn2/moving_variance","shape":[64],"dtype":"float32","quantization":{"min":0.010811434127390385,"scale":0.000007586341336775383,"dtype":"uint16"}},{"name":"cp.resnet.layer1.0.conv1/kernel","shape":[3,3,64,64],"dtype":"float32","quantization":{"min":-0.3709705774176718,"scale":0.000011246644760275029,"dtype":"uint16"}},{"name":"cp.resnet.layer1.0.conv2/kernel","shape":[3,3,64,64],"dtype":"float32","quantization":{"min":-0.21650344554320386,"scale":0.000006664310202333359,"dtype":"uint16"}},{"name":"cp.resnet.layer1.1.bn1/gamma","shape":[64],"dtype":"float32","quantization":{"min":0.19821004569530487,"scale":0.000007507578817486736,"dtype":"uint16"}},{"name":"cp.resnet.layer1.1.bn1/beta","shape":[64],"dtype":"float32","quantization":{"min":-0.8265622556423299,"scale":0.000018226692002962136,"dtype":"uint16"}},{"name":"cp.resnet.layer1.1.bn1/moving_mean","shape":[64],"dtype":"float32","quantization":{"min":-2.023634033242416,"scale":0.000054832114920132654,"dtype":"uint16"}},{"name":"cp.resnet.layer1.1.bn1/moving_variance","shape":[64],"dtype":"float32","quantization":{"min":0.06588681042194366,"scale":0.000009696902850040393,"dtype":"uint16"}},{"name":"cp.resnet.layer1.1.bn2/gamma","shape":[64],"dtype":"float32","quantization":{"min":0.09535342454910278,"scale":0.00001692598650236647,"dtype":"uint16"}},{"name":"cp.resnet.layer1.1.bn2/beta","shape":[64],"dtype":"float32","quantization":{"min":-0.759211139310786,"scale":0.000020802584921930788,"dtype":"uint16"}},{"name":"cp.resnet.layer1.1.bn2/moving_mean","shape":[64],"dtype":"float32","quantization":{"min":-0.3640907053162725,"scale":0.000016453846046469292,"dtype":"uint16"}},{"name":"cp.resnet.layer1.1.bn2/moving_variance","shape":[64],"dtype":"float32","quantization":{"min":0.005421038251370192,"scale":0.000002348049942205361,"dtype":"uint16"}},{"name":"cp.resnet.layer1.1.conv1/kernel","shape":[3,3,64,64],"dtype":"float32","quantization":{"min":-0.2597280432819238,"scale":0.000008836391089100254,"dtype":"uint16"}},{"name":"cp.resnet.layer1.1.conv2/kernel","shape":[3,3,64,64],"dtype":"float32","quantization":{"min":-0.21016577746617654,"scale":0.000005864655024728668,"dtype":"uint16"}},{"name":"cp.resnet.layer2.0.bn1/gamma","shape":[128],"dtype":"float32","quantization":{"min":0.13564147055149078,"scale":0.000005645971644922444,"dtype":"uint16"}},{"name":"cp.resnet.layer2.0.bn1/beta","shape":[128],"dtype":"float32","quantization":{"min":-0.4486776948238916,"scale":0.000018118143063474866,"dtype":"uint16"}},{"name":"cp.resnet.layer2.0.bn1/moving_mean","shape":[128],"dtype":"float32","quantization":{"min":-1.6753824073871613,"scale":0.00003764988892755256,"dtype":"uint16"}},{"name":"cp.resnet.layer2.0.bn1/moving_variance","shape":[128],"dtype":"float32","quantization":{"min":0.11168394982814789,"scale":0.000016075866331704523,"dtype":"uint16"}},{"name":"cp.resnet.layer2.0.bn2/gamma","shape":[128],"dtype":"float32","quantization":{"min":0.09618387371301651,"scale":0.000010544582695494238,"dtype":"uint16"}},{"name":"cp.resnet.layer2.0.bn2/beta","shape":[128],"dtype":"float32","quantization":{"min":-0.4507689830507795,"scale":0.000010466204997812336,"dtype":"uint16"}},{"name":"cp.resnet.layer2.0.bn2/moving_mean","shape":[128],"dtype":"float32","quantization":{"min":-0.8296750742428506,"scale":0.000017098593950144274,"dtype":"uint16"}},{"name":"cp.resnet.layer2.0.bn2/moving_variance","shape":[128],"dtype":"float32","quantization":{"min":0.004384285304695368,"scale":0.0000034944667057609214,"dtype":"uint16"}},{"name":"cp.resnet.layer2.0.conv1/kernel","shape":[3,3,64,128],"dtype":"float32","quantization":{"min":-0.17343624434768903,"scale":0.000005493530276129645,"dtype":"uint16"}},{"name":"cp.resnet.layer2.0.conv2/kernel","shape":[3,3,128,128],"dtype":"float32","quantization":{"min":-0.22925166844175673,"scale":0.000006516904555169616,"dtype":"uint16"}},{"name":"cp.resnet.layer2.0.downsample.0/kernel","shape":[1,1,64,128],"dtype":"float32","quantization":{"min":-0.4057203892140073,"scale":0.000010692609878083684,"dtype":"uint16"}},{"name":"cp.resnet.layer2.0.downsample.1/gamma","shape":[128],"dtype":"float32","quantization":{"min":-0.0030481008070860627,"scale":0.000008938712044240654,"dtype":"uint16"}},{"name":"cp.resnet.layer2.0.downsample.1/beta","shape":[128],"dtype":"float32","quantization":{"min":-0.4507689830507795,"scale":0.000010466204997812336,"dtype":"uint16"}},{"name":"cp.resnet.layer2.0.downsample.1/moving_mean","shape":[128],"dtype":"float32","quantization":{"min":-0.6761782226040806,"scale":0.000016607186919247484,"dtype":"uint16"}},{"name":"cp.resnet.layer2.0.downsample.1/moving_variance","shape":[128],"dtype":"float32","quantization":{"min":0.00230052275583148,"scale":0.000002942227406672121,"dtype":"uint16"}},{"name":"cp.resnet.layer2.1.bn1/gamma","shape":[128],"dtype":"float32","quantization":{"min":0.23744885623455048,"scale":0.0000045417622897065985,"dtype":"uint16"}},{"name":"cp.resnet.layer2.1.bn1/beta","shape":[128],"dtype":"float32","quantization":{"min":-0.7535592317581177,"scale":0.000010731629899394515,"dtype":"uint16"}},{"name":"cp.resnet.layer2.1.bn1/moving_mean","shape":[128],"dtype":"float32","quantization":{"min":-1.025896346604532,"scale":0.00003118036431233761,"dtype":"uint16"}},{"name":"cp.resnet.layer2.1.bn1/moving_variance","shape":[128],"dtype":"float32","quantization":{"min":0.021650265902280807,"scale":0.0000055732555813053395,"dtype":"uint16"}},{"name":"cp.resnet.layer2.1.bn2/gamma","shape":[128],"dtype":"float32","quantization":{"min":0.04766131564974785,"scale":0.000010735901861193706,"dtype":"uint16"}},{"name":"cp.resnet.layer2.1.bn2/beta","shape":[128],"dtype":"float32","quantization":{"min":-0.7195244056241522,"scale":0.000015452707205810454,"dtype":"uint16"}},{"name":"cp.resnet.layer2.1.bn2/moving_mean","shape":[128],"dtype":"float32","quantization":{"min":-0.2863160138420958,"scale":0.000007980044422701184,"dtype":"uint16"}},{"name":"cp.resnet.layer2.1.bn2/moving_variance","shape":[128],"dtype":"float32","quantization":{"min":0.0033371741883456707,"scale":6.292071376779473e-7,"dtype":"uint16"}},{"name":"cp.resnet.layer2.1.conv1/kernel","shape":[3,3,128,128],"dtype":"float32","quantization":{"min":-0.15536995814645502,"scale":0.00000513399062044262,"dtype":"uint16"}},{"name":"cp.resnet.layer2.1.conv2/kernel","shape":[3,3,128,128],"dtype":"float32","quantization":{"min":-0.11777956998847557,"scale":0.0000036507212816463815,"dtype":"uint16"}},{"name":"cp.resnet.layer3.0.bn1/gamma","shape":[256],"dtype":"float32","quantization":{"min":0.17209412157535553,"scale":0.000005033379417085317,"dtype":"uint16"}},{"name":"cp.resnet.layer3.0.bn1/beta","shape":[256],"dtype":"float32","quantization":{"min":-0.5885947678939897,"scale":0.000013242918775457626,"dtype":"uint16"}},{"name":"cp.resnet.layer3.0.bn1/moving_mean","shape":[256],"dtype":"float32","quantization":{"min":-0.8138757437146973,"scale":0.000018191232537208255,"dtype":"uint16"}},{"name":"cp.resnet.layer3.0.bn1/moving_variance","shape":[256],"dtype":"float32","quantization":{"min":0.027575984597206116,"scale":0.000007187075724797835,"dtype":"uint16"}},{"name":"cp.resnet.layer3.0.bn2/gamma","shape":[256],"dtype":"float32","quantization":{"min":0.18774056434631348,"scale":0.000007164190897290745,"dtype":"uint16"}},{"name":"cp.resnet.layer3.0.bn2/beta","shape":[256],"dtype":"float32","quantization":{"min":-0.42832310874592916,"scale":0.000009620050057181052,"dtype":"uint16"}},{"name":"cp.resnet.layer3.0.bn2/moving_mean","shape":[256],"dtype":"float32","quantization":{"min":-0.371071140132853,"scale":0.000007160908935580636,"dtype":"uint16"}},{"name":"cp.resnet.layer3.0.bn2/moving_variance","shape":[256],"dtype":"float32","quantization":{"min":0.009847561828792095,"scale":0.0000022702721862259268,"dtype":"uint16"}},{"name":"cp.resnet.layer3.0.conv1/kernel","shape":[3,3,128,256],"dtype":"float32","quantization":{"min":-0.1528653682410567,"scale":0.00000482681933189317,"dtype":"uint16"}},{"name":"cp.resnet.layer3.0.conv2/kernel","shape":[3,3,256,256],"dtype":"float32","quantization":{"min":-0.13029819399793735,"scale":0.0000040765320526213856,"dtype":"uint16"}},{"name":"cp.resnet.layer3.0.downsample.0/kernel","shape":[1,1,128,256],"dtype":"float32","quantization":{"min":-0.14590067199113815,"scale":0.000004108720698145259,"dtype":"uint16"}},{"name":"cp.resnet.layer3.0.downsample.1/gamma","shape":[256],"dtype":"float32","quantization":{"min":-0.0008222364471418333,"scale":0.0000046984939836676185,"dtype":"uint16"}},{"name":"cp.resnet.layer3.0.downsample.1/beta","shape":[256],"dtype":"float32","quantization":{"min":-0.42832310874592916,"scale":0.000009620050057181052,"dtype":"uint16"}},{"name":"cp.resnet.layer3.0.downsample.1/moving_mean","shape":[256],"dtype":"float32","quantization":{"min":-0.14437395491134003,"scale":0.000003886348351539477,"dtype":"uint16"}},{"name":"cp.resnet.layer3.0.downsample.1/moving_variance","shape":[256],"dtype":"float32","quantization":{"min":0.00038198998663574457,"scale":2.5056690474180715e-7,"dtype":"uint16"}},{"name":"cp.resnet.layer3.1.bn1/gamma","shape":[256],"dtype":"float32","quantization":{"min":0.14245349168777466,"scale":0.0000052402573755260935,"dtype":"uint16"}},{"name":"cp.resnet.layer3.1.bn1/beta","shape":[256],"dtype":"float32","quantization":{"min":-0.7901821867996908,"scale":0.000014794371698707958,"dtype":"uint16"}},{"name":"cp.resnet.layer3.1.bn1/moving_mean","shape":[256],"dtype":"float32","quantization":{"min":-0.9624557487750168,"scale":0.000024084273779465914,"dtype":"uint16"}},{"name":"cp.resnet.layer3.1.bn1/moving_variance","shape":[256],"dtype":"float32","quantization":{"min":0.017834234982728958,"scale":0.00000199687514350954,"dtype":"uint16"}},{"name":"cp.resnet.layer3.1.bn2/gamma","shape":[256],"dtype":"float32","quantization":{"min":0.01157708466053009,"scale":0.000011590167742495117,"dtype":"uint16"}},{"name":"cp.resnet.layer3.1.bn2/beta","shape":[256],"dtype":"float32","quantization":{"min":-0.7841978263653069,"scale":0.000014395818672491591,"dtype":"uint16"}},{"name":"cp.resnet.layer3.1.bn2/moving_mean","shape":[256],"dtype":"float32","quantization":{"min":-0.2948365939662123,"scale":0.000008923895819068746,"dtype":"uint16"}},{"name":"cp.resnet.layer3.1.bn2/moving_variance","shape":[256],"dtype":"float32","quantization":{"min":0.0006593226571567357,"scale":7.684920269856944e-7,"dtype":"uint16"}},{"name":"cp.resnet.layer3.1.conv1/kernel","shape":[3,3,256,256],"dtype":"float32","quantization":{"min":-0.11079980995506901,"scale":0.000004509006224517519,"dtype":"uint16"}},{"name":"cp.resnet.layer3.1.conv2/kernel","shape":[3,3,256,256],"dtype":"float32","quantization":{"min":-0.17241478624429002,"scale":0.00000467908125934352,"dtype":"uint16"}},{"name":"cp.resnet.layer4.0.bn1/gamma","shape":[512],"dtype":"float32","quantization":{"min":0.12123177945613861,"scale":0.000004567726031133364,"dtype":"uint16"}},{"name":"cp.resnet.layer4.0.bn1/beta","shape":[512],"dtype":"float32","quantization":{"min":-0.5323988899942156,"scale":0.000013596518885364446,"dtype":"uint16"}},{"name":"cp.resnet.layer4.0.bn1/moving_mean","shape":[512],"dtype":"float32","quantization":{"min":-0.6735018760568446,"scale":0.000016737956062847176,"dtype":"uint16"}},{"name":"cp.resnet.layer4.0.bn1/moving_variance","shape":[512],"dtype":"float32","quantization":{"min":0.009357506409287453,"scale":0.0000016715796511588166,"dtype":"uint16"}},{"name":"cp.resnet.layer4.0.bn2/gamma","shape":[512],"dtype":"float32","quantization":{"min":0.12678062915802002,"scale":0.00000906816798179803,"dtype":"uint16"}},{"name":"cp.resnet.layer4.0.bn2/beta","shape":[512],"dtype":"float32","quantization":{"min":-0.5055118176942015,"scale":0.000010762898520145663,"dtype":"uint16"}},{"name":"cp.resnet.layer4.0.bn2/moving_mean","shape":[512],"dtype":"float32","quantization":{"min":-0.2935207367634586,"scale":0.000008187011512982778,"dtype":"uint16"}},{"name":"cp.resnet.layer4.0.bn2/moving_variance","shape":[512],"dtype":"float32","quantization":{"min":0.0023963614366948605,"scale":3.7383173745939256e-7,"dtype":"uint16"}},{"name":"cp.resnet.layer4.0.conv1/kernel","shape":[3,3,256,512],"dtype":"float32","quantization":{"min":-0.1488412616058628,"scale":0.000003969417862918708,"dtype":"uint16"}},{"name":"cp.resnet.layer4.0.conv2/kernel","shape":[3,3,512,512],"dtype":"float32","quantization":{"min":-0.15632246638986932,"scale":0.000004331462077857282,"dtype":"uint16"}},{"name":"cp.resnet.layer4.0.downsample.0/kernel","shape":[1,1,256,512],"dtype":"float32","quantization":{"min":-0.11656683100855139,"scale":0.0000039991365105170645,"dtype":"uint16"}},{"name":"cp.resnet.layer4.0.downsample.1/gamma","shape":[512],"dtype":"float32","quantization":{"min":-0.04164536056005956,"scale":0.0000071752861061439625,"dtype":"uint16"}},{"name":"cp.resnet.layer4.0.downsample.1/beta","shape":[512],"dtype":"float32","quantization":{"min":-0.5055118176942015,"scale":0.000010762898520145663,"dtype":"uint16"}},{"name":"cp.resnet.layer4.0.downsample.1/moving_mean","shape":[512],"dtype":"float32","quantization":{"min":-0.15160529548737864,"scale":0.000005011579633313895,"dtype":"uint16"}},{"name":"cp.resnet.layer4.0.downsample.1/moving_variance","shape":[512],"dtype":"float32","quantization":{"min":0.00020987167954444885,"scale":2.763403688023181e-7,"dtype":"uint16"}},{"name":"cp.resnet.layer4.1.bn1/gamma","shape":[512],"dtype":"float32","quantization":{"min":0.13699203729629517,"scale":0.000008886853808386062,"dtype":"uint16"}},{"name":"cp.resnet.layer4.1.bn1/beta","shape":[512],"dtype":"float32","quantization":{"min":-1.2564034292950885,"scale":0.000020225751047104567,"dtype":"uint16"}},{"name":"cp.resnet.layer4.1.bn1/moving_mean","shape":[512],"dtype":"float32","quantization":{"min":-0.739925736832366,"scale":0.00002370113510465953,"dtype":"uint16"}},{"name":"cp.resnet.layer4.1.bn1/moving_variance","shape":[512],"dtype":"float32","quantization":{"min":0.013365334831178188,"scale":0.000004053294008930697,"dtype":"uint16"}},{"name":"cp.resnet.layer4.1.bn2/gamma","shape":[512],"dtype":"float32","quantization":{"min":1.5809094905853271,"scale":0.000012498154032282219,"dtype":"uint16"}},{"name":"cp.resnet.layer4.1.bn2/beta","shape":[512],"dtype":"float32","quantization":{"min":0.0070670428685843945,"scale":0.00000903791563030174,"dtype":"uint16"}},{"name":"cp.resnet.layer4.1.bn2/moving_mean","shape":[512],"dtype":"float32","quantization":{"min":-0.11675462308758647,"scale":0.0000029852119119323583,"dtype":"uint16"}},{"name":"cp.resnet.layer4.1.bn2/moving_variance","shape":[512],"dtype":"float32","quantization":{"min":0.002811586018651724,"scale":3.285785696299496e-7,"dtype":"uint16"}},{"name":"cp.resnet.layer4.1.conv1/kernel","shape":[3,3,512,512],"dtype":"float32","quantization":{"min":-0.10396862788798199,"scale":0.0000031428502127499768,"dtype":"uint16"}},{"name":"cp.resnet.layer4.1.conv2/kernel","shape":[3,3,512,512],"dtype":"float32","quantization":{"min":-0.05421773013228582,"scale":0.0000019346891996961825,"dtype":"uint16"}},{"name":"ffm.conv1/kernel","shape":[1,1,256,64],"dtype":"float32","quantization":{"min":-2.6546459489061527e-10,"scale":1.3097074097913823e-14,"dtype":"uint16"}},{"name":"ffm.conv2/kernel","shape":[1,1,64,256],"dtype":"float32","quantization":{"min":-4.249212497678792e-10,"scale":1.9164768616628144e-14,"dtype":"uint16"}},{"name":"ffm.convblk.bn/gamma","shape":[256],"dtype":"float32","quantization":{"min":-0.13785672464750537,"scale":0.00002062488399872911,"dtype":"uint16"}},{"name":"ffm.convblk.bn/beta","shape":[256],"dtype":"float32","quantization":{"min":-1.1494782418128582,"scale":0.0000246177851458004,"dtype":"uint16"}},{"name":"ffm.convblk.bn/moving_mean","shape":[256],"dtype":"float32","quantization":{"min":-0.12328294680549122,"scale":0.000002942875651806818,"dtype":"uint16"}},{"name":"ffm.convblk.bn/moving_variance","shape":[256],"dtype":"float32","quantization":{"min":4.423764500873006e-20,"scale":0.0000011590337365845243,"dtype":"uint16"}},{"name":"ffm.convblk.conv/kernel","shape":[1,1,256,256],"dtype":"float32","quantization":{"min":-0.17857871178182047,"scale":0.00000561656586827553,"dtype":"uint16"}}]}]}