{"format": "layers-model", "generatedBy": "keras v2.1.2", "convertedBy": "TensorFlow.js Converter v1.2.10.1", "modelTopology": {"keras_version": "2.1.2", "backend": "tensorflow", "model_config": {"config": {"input_layers": [["input_1", 0, 0]], "name": "model_1", "layers": [{"class_name": "InputLayer", "name": "input_1", "inbound_nodes": [], "config": {"sparse": false, "batch_input_shape": [null, 3, 256, 256], "name": "input_1", "dtype": "float32"}}, {"class_name": "ZeroPadding2D", "name": "zero_padding2d_1", "inbound_nodes": [[["input_1", 0, 0, {}]]], "config": {"padding": [[3, 3], [3, 3]], "data_format": "channels_first", "name": "zero_padding2d_1", "trainable": true}}, {"class_name": "Conv2D", "name": "conv2d_1", "inbound_nodes": [[["zero_padding2d_1", 0, 0, {}]]], "config": {"data_format": "channels_first", "kernel_initializer": {"config": {"mode": "fan_avg", "scale": 1.0, "distribution": "uniform", "seed": null}, "class_name": "VarianceScaling"}, "activity_regularizer": null, "bias_constraint": null, "kernel_size": [7, 7], "kernel_regularizer": null, "filters": 64, "activation": "linear", "strides": [2, 2], "padding": "valid", "dilation_rate": [1, 1], "trainable": true, "bias_initializer": {"config": {}, "class_name": "Zeros"}, "kernel_constraint": null, "name": "conv2d_1", "use_bias": true, "bias_regularizer": null}}, {"class_name": "TorchBatchNorm2D", "name": "torch_batch_norm2d_1", "inbound_nodes": [[["conv2d_1", 0, 0, {}]]], "config": {"epsilon": 1e-05, "name": "torch_batch_norm2d_1", "momentum": 0.1, "trainable": true, "axis": 1}}, {"class_name": "Activation", "name": "activation_1", "inbound_nodes": [[["torch_batch_norm2d_1", 0, 0, {}]]], "config": {"activation": "relu", "name": "activation_1", "trainable": true}}, {"class_name": "TorchBatchNorm2D", "name": "torch_batch_norm2d_2", "inbound_nodes": [[["activation_1", 0, 0, {}]]], "config": {"epsilon": 1e-05, "name": "torch_batch_norm2d_2", "momentum": 0.1, "trainable": true, "axis": 1}}, {"class_name": "Activation", "name": "activation_2", "inbound_nodes": [[["torch_batch_norm2d_2", 0, 0, {}]]], "config": {"activation": "relu", "name": "activation_2", "trainable": true}}, {"class_name": "ZeroPadding2D", "name": "zero_padding2d_2", "inbound_nodes": [[["activation_2", 0, 0, {}]]], "config": {"padding": [[1, 1], [1, 1]], "data_format": "channels_first", "name": "zero_padding2d_2", "trainable": true}}, {"class_name": "Conv2D", "name": "conv2d_2", "inbound_nodes": [[["zero_padding2d_2", 0, 0, {}]]], "config": {"data_format": "channels_first", "kernel_initializer": {"config": {"mode": "fan_avg", "scale": 1.0, "distribution": "uniform", "seed": null}, "class_name": "VarianceScaling"}, "activity_regularizer": null, "bias_constraint": null, "kernel_size": [3, 3], "kernel_regularizer": null, "filters": 64, "activation": "linear", "strides": [1, 1], "padding": "valid", "dilation_rate": [1, 1], "trainable": true, "bias_initializer": {"config": {}, "class_name": "Zeros"}, "kernel_constraint": null, "name": "conv2d_2", "use_bias": false, "bias_regularizer": null}}, {"class_name": "TorchBatchNorm2D", "name": "torch_batch_norm2d_3", "inbound_nodes": [[["conv2d_2", 0, 0, {}]]], "config": {"epsilon": 1e-05, "name": "torch_batch_norm2d_3", "momentum": 0.1, "trainable": true, "axis": 1}}, {"class_name": "Activation", "name": "activation_3", "inbound_nodes": [[["torch_batch_norm2d_3", 0, 0, {}]]], "config": {"activation": "relu", "name": "activation_3", "trainable": true}}, {"class_name": "ZeroPadding2D", "name": "zero_padding2d_3", "inbound_nodes": [[["activation_3", 0, 0, {}]]], "config": {"padding": [[1, 1], [1, 1]], "data_format": "channels_first", "name": "zero_padding2d_3", "trainable": true}}, {"class_name": "Conv2D", "name": "conv2d_3", "inbound_nodes": [[["zero_padding2d_3", 0, 0, {}]]], "config": {"data_format": "channels_first", "kernel_initializer": {"config": {"mode": "fan_avg", "scale": 1.0, "distribution": "uniform", "seed": null}, "class_name": "VarianceScaling"}, "activity_regularizer": null, "bias_constraint": null, "kernel_size": [3, 3], "kernel_regularizer": null, "filters": 32, "activation": "linear", "strides": [1, 1], "padding": "valid", "dilation_rate": [1, 1], "trainable": true, "bias_initializer": {"config": {}, "class_name": "Zeros"}, "kernel_constraint": null, "name": "conv2d_3", "use_bias": false, "bias_regularizer": null}}, {"class_name": "TorchBatchNorm2D", "name": "torch_batch_norm2d_4", "inbound_nodes": [[["conv2d_3", 0, 0, {}]]], "config": {"epsilon": 1e-05, "name": "torch_batch_norm2d_4", "momentum": 0.1, "trainable": true, "axis": 1}}, {"class_name": "Activation", "name": "activation_4", "inbound_nodes": [[["torch_batch_norm2d_4", 0, 0, {}]]], "config": {"activation": "relu", "name": "activation_4", "trainable": true}}, {"class_name": "ZeroPadding2D", "name": "zero_padding2d_4", "inbound_nodes": [[["activation_4", 0, 0, {}]]], "config": {"padding": [[1, 1], [1, 1]], "data_format": "channels_first", "name": "zero_padding2d_4", "trainable": true}}, {"class_name": "TorchBatchNorm2D", "name": "torch_batch_norm2d_5", "inbound_nodes": [[["activation_1", 0, 0, {}]]], "config": {"epsilon": 1e-05, "name": "torch_batch_norm2d_5", "momentum": 0.1, "trainable": true, "axis": 1}}, {"class_name": "Conv2D", "name": "conv2d_4", "inbound_nodes": [[["zero_padding2d_4", 0, 0, {}]]], "config": {"data_format": "channels_first", "kernel_initializer": {"config": {"mode": "fan_avg", "scale": 1.0, "distribution": "uniform", "seed": null}, "class_name": "VarianceScaling"}, "activity_regularizer": null, "bias_constraint": null, "kernel_size": [3, 3], "kernel_regularizer": null, "filters": 32, "activation": "linear", "strides": [1, 1], "padding": "valid", "dilation_rate": [1, 1], "trainable": true, "bias_initializer": {"config": {}, "class_name": "Zeros"}, "kernel_constraint": null, "name": "conv2d_4", "use_bias": false, "bias_regularizer": null}}, {"class_name": "Activation", "name": "activation_5", "inbound_nodes": [[["torch_batch_norm2d_5", 0, 0, {}]]], "config": {"activation": "relu", "name": "activation_5", "trainable": true}}, {"class_name": "Concatenate", "name": "concatenate_1", "inbound_nodes": [[["conv2d_2", 0, 0, {}], ["conv2d_3", 0, 0, {}], ["conv2d_4", 0, 0, {}]]], "config": {"name": "concatenate_1", "trainable": true, "axis": 1}}, {"class_name": "Conv2D", "name": "conv2d_5", "inbound_nodes": [[["activation_5", 0, 0, {}]]], "config": {"data_format": "channels_first", "kernel_initializer": {"config": {"mode": "fan_avg", "scale": 1.0, "distribution": "uniform", "seed": null}, "class_name": "VarianceScaling"}, "activity_regularizer": null, "bias_constraint": null, "kernel_size": [1, 1], "kernel_regularizer": null, "filters": 128, "activation": "linear", "strides": [1, 1], "padding": "valid", "dilation_rate": [1, 1], "trainable": true, "bias_initializer": {"config": {}, "class_name": "Zeros"}, "kernel_constraint": null, "name": "conv2d_5", "use_bias": false, "bias_regularizer": null}}, {"class_name": "Add", "name": "add_1", "inbound_nodes": [[["concatenate_1", 0, 0, {}], ["conv2d_5", 0, 0, {}]]], "config": {"name": "add_1", "trainable": true}}, {"class_name": "AveragePooling2D", "name": "average_pooling2d_1", "inbound_nodes": [[["add_1", 0, 0, {}]]], "config": {"data_format": "channels_first", "strides": [2, 2], "trainable": true, "padding": "valid", "name": "average_pooling2d_1", "pool_size": [2, 2]}}, {"class_name": "TorchBatchNorm2D", "name": "torch_batch_norm2d_6", "inbound_nodes": [[["average_pooling2d_1", 0, 0, {}]]], "config": {"epsilon": 1e-05, "name": "torch_batch_norm2d_6", "momentum": 0.1, "trainable": true, "axis": 1}}, {"class_name": "Activation", "name": "activation_6", "inbound_nodes": [[["torch_batch_norm2d_6", 0, 0, {}]]], "config": {"activation": "relu", "name": "activation_6", "trainable": true}}, {"class_name": "ZeroPadding2D", "name": "zero_padding2d_5", "inbound_nodes": [[["activation_6", 0, 0, {}]]], "config": {"padding": [[1, 1], [1, 1]], "data_format": "channels_first", "name": "zero_padding2d_5", "trainable": true}}, {"class_name": "Conv2D", "name": "conv2d_6", "inbound_nodes": [[["zero_padding2d_5", 0, 0, {}]]], "config": {"data_format": "channels_first", "kernel_initializer": {"config": {"mode": "fan_avg", "scale": 1.0, "distribution": "uniform", "seed": null}, "class_name": "VarianceScaling"}, "activity_regularizer": null, "bias_constraint": null, "kernel_size": [3, 3], "kernel_regularizer": null, "filters": 64, "activation": "linear", "strides": [1, 1], "padding": "valid", "dilation_rate": [1, 1], "trainable": true, "bias_initializer": {"config": {}, "class_name": "Zeros"}, "kernel_constraint": null, "name": "conv2d_6", "use_bias": false, "bias_regularizer": null}}, {"class_name": "TorchBatchNorm2D", "name": "torch_batch_norm2d_7", "inbound_nodes": [[["conv2d_6", 0, 0, {}]]], "config": {"epsilon": 1e-05, "name": "torch_batch_norm2d_7", "momentum": 0.1, "trainable": true, "axis": 1}}, {"class_name": "Activation", "name": "activation_7", "inbound_nodes": [[["torch_batch_norm2d_7", 0, 0, {}]]], "config": {"activation": "relu", "name": "activation_7", "trainable": true}}, {"class_name": "ZeroPadding2D", "name": "zero_padding2d_6", "inbound_nodes": [[["activation_7", 0, 0, {}]]], "config": {"padding": [[1, 1], [1, 1]], "data_format": "channels_first", "name": "zero_padding2d_6", "trainable": true}}, {"class_name": "Conv2D", "name": "conv2d_7", "inbound_nodes": [[["zero_padding2d_6", 0, 0, {}]]], "config": {"data_format": "channels_first", "kernel_initializer": {"config": {"mode": "fan_avg", "scale": 1.0, "distribution": "uniform", "seed": null}, "class_name": "VarianceScaling"}, "activity_regularizer": null, "bias_constraint": null, "kernel_size": [3, 3], "kernel_regularizer": null, "filters": 32, "activation": "linear", "strides": [1, 1], "padding": "valid", "dilation_rate": [1, 1], "trainable": true, "bias_initializer": {"config": {}, "class_name": "Zeros"}, "kernel_constraint": null, "name": "conv2d_7", "use_bias": false, "bias_regularizer": null}}, {"class_name": "TorchBatchNorm2D", "name": "torch_batch_norm2d_8", "inbound_nodes": [[["conv2d_7", 0, 0, {}]]], "config": {"epsilon": 1e-05, "name": "torch_batch_norm2d_8", "momentum": 0.1, "trainable": true, "axis": 1}}, {"class_name": "Activation", "name": "activation_8", "inbound_nodes": [[["torch_batch_norm2d_8", 0, 0, {}]]], "config": {"activation": "relu", "name": "activation_8", "trainable": true}}, {"class_name": "ZeroPadding2D", "name": "zero_padding2d_7", "inbound_nodes": [[["activation_8", 0, 0, {}]]], "config": {"padding": [[1, 1], [1, 1]], "data_format": "channels_first", "name": "zero_padding2d_7", "trainable": true}}, {"class_name": "Conv2D", "name": "conv2d_8", "inbound_nodes": [[["zero_padding2d_7", 0, 0, {}]]], "config": {"data_format": "channels_first", "kernel_initializer": {"config": {"mode": "fan_avg", "scale": 1.0, "distribution": "uniform", "seed": null}, "class_name": "VarianceScaling"}, "activity_regularizer": null, "bias_constraint": null, "kernel_size": [3, 3], "kernel_regularizer": null, "filters": 32, "activation": "linear", "strides": [1, 1], "padding": "valid", "dilation_rate": [1, 1], "trainable": true, "bias_initializer": {"config": {}, "class_name": "Zeros"}, "kernel_constraint": null, "name": "conv2d_8", "use_bias": false, "bias_regularizer": null}}, {"class_name": "Concatenate", "name": "concatenate_2", "inbound_nodes": [[["conv2d_6", 0, 0, {}], ["conv2d_7", 0, 0, {}], ["conv2d_8", 0, 0, {}]]], "config": {"name": "concatenate_2", "trainable": true, "axis": 1}}, {"class_name": "Add", "name": "add_2", "inbound_nodes": [[["concatenate_2", 0, 0, {}], ["average_pooling2d_1", 0, 0, {}]]], "config": {"name": "add_2", "trainable": true}}, {"class_name": "TorchBatchNorm2D", "name": "torch_batch_norm2d_9", "inbound_nodes": [[["add_2", 0, 0, {}]]], "config": {"epsilon": 1e-05, "name": "torch_batch_norm2d_9", "momentum": 0.1, "trainable": true, "axis": 1}}, {"class_name": "Activation", "name": "activation_9", "inbound_nodes": [[["torch_batch_norm2d_9", 0, 0, {}]]], "config": {"activation": "relu", "name": "activation_9", "trainable": true}}, {"class_name": "ZeroPadding2D", "name": "zero_padding2d_8", "inbound_nodes": [[["activation_9", 0, 0, {}]]], "config": {"padding": [[1, 1], [1, 1]], "data_format": "channels_first", "name": "zero_padding2d_8", "trainable": true}}, {"class_name": "Conv2D", "name": "conv2d_9", "inbound_nodes": [[["zero_padding2d_8", 0, 0, {}]]], "config": {"data_format": "channels_first", "kernel_initializer": {"config": {"mode": "fan_avg", "scale": 1.0, "distribution": "uniform", "seed": null}, "class_name": "VarianceScaling"}, "activity_regularizer": null, "bias_constraint": null, "kernel_size": [3, 3], "kernel_regularizer": null, "filters": 128, "activation": "linear", "strides": [1, 1], "padding": "valid", "dilation_rate": [1, 1], "trainable": true, "bias_initializer": {"config": {}, "class_name": "Zeros"}, "kernel_constraint": null, "name": "conv2d_9", "use_bias": false, "bias_regularizer": null}}, {"class_name": "TorchBatchNorm2D", "name": "torch_batch_norm2d_10", "inbound_nodes": [[["conv2d_9", 0, 0, {}]]], "config": {"epsilon": 1e-05, "name": "torch_batch_norm2d_10", "momentum": 0.1, "trainable": true, "axis": 1}}, {"class_name": "Activation", "name": "activation_10", "inbound_nodes": [[["torch_batch_norm2d_10", 0, 0, {}]]], "config": {"activation": "relu", "name": "activation_10", "trainable": true}}, {"class_name": "ZeroPadding2D", "name": "zero_padding2d_9", "inbound_nodes": [[["activation_10", 0, 0, {}]]], "config": {"padding": [[1, 1], [1, 1]], "data_format": "channels_first", "name": "zero_padding2d_9", "trainable": true}}, {"class_name": "Conv2D", "name": "conv2d_10", "inbound_nodes": [[["zero_padding2d_9", 0, 0, {}]]], "config": {"data_format": "channels_first", "kernel_initializer": {"config": {"mode": "fan_avg", "scale": 1.0, "distribution": "uniform", "seed": null}, "class_name": "VarianceScaling"}, "activity_regularizer": null, "bias_constraint": null, "kernel_size": [3, 3], "kernel_regularizer": null, "filters": 64, "activation": "linear", "strides": [1, 1], "padding": "valid", "dilation_rate": [1, 1], "trainable": true, "bias_initializer": {"config": {}, "class_name": "Zeros"}, "kernel_constraint": null, "name": "conv2d_10", "use_bias": false, "bias_regularizer": null}}, {"class_name": "TorchBatchNorm2D", "name": "torch_batch_norm2d_11", "inbound_nodes": [[["conv2d_10", 0, 0, {}]]], "config": {"epsilon": 1e-05, "name": "torch_batch_norm2d_11", "momentum": 0.1, "trainable": true, "axis": 1}}, {"class_name": "Activation", "name": "activation_11", "inbound_nodes": [[["torch_batch_norm2d_11", 0, 0, {}]]], "config": {"activation": "relu", "name": "activation_11", "trainable": true}}, {"class_name": "ZeroPadding2D", "name": "zero_padding2d_10", "inbound_nodes": [[["activation_11", 0, 0, {}]]], "config": {"padding": [[1, 1], [1, 1]], "data_format": "channels_first", "name": "zero_padding2d_10", "trainable": true}}, {"class_name": "TorchBatchNorm2D", "name": "torch_batch_norm2d_12", "inbound_nodes": [[["add_2", 0, 0, {}]]], "config": {"epsilon": 1e-05, "name": "torch_batch_norm2d_12", "momentum": 0.1, "trainable": true, "axis": 1}}, {"class_name": "Conv2D", "name": "conv2d_11", "inbound_nodes": [[["zero_padding2d_10", 0, 0, {}]]], "config": {"data_format": "channels_first", "kernel_initializer": {"config": {"mode": "fan_avg", "scale": 1.0, "distribution": "uniform", "seed": null}, "class_name": "VarianceScaling"}, "activity_regularizer": null, "bias_constraint": null, "kernel_size": [3, 3], "kernel_regularizer": null, "filters": 64, "activation": "linear", "strides": [1, 1], "padding": "valid", "dilation_rate": [1, 1], "trainable": true, "bias_initializer": {"config": {}, "class_name": "Zeros"}, "kernel_constraint": null, "name": "conv2d_11", "use_bias": false, "bias_regularizer": null}}, {"class_name": "Activation", "name": "activation_12", "inbound_nodes": [[["torch_batch_norm2d_12", 0, 0, {}]]], "config": {"activation": "relu", "name": "activation_12", "trainable": true}}, {"class_name": "Concatenate", "name": "concatenate_3", "inbound_nodes": [[["conv2d_9", 0, 0, {}], ["conv2d_10", 0, 0, {}], ["conv2d_11", 0, 0, {}]]], "config": {"name": "concatenate_3", "trainable": true, "axis": 1}}, {"class_name": "Conv2D", "name": "conv2d_12", "inbound_nodes": [[["activation_12", 0, 0, {}]]], "config": {"data_format": "channels_first", "kernel_initializer": {"config": {"mode": "fan_avg", "scale": 1.0, "distribution": "uniform", "seed": null}, "class_name": "VarianceScaling"}, "activity_regularizer": null, "bias_constraint": null, "kernel_size": [1, 1], "kernel_regularizer": null, "filters": 256, "activation": "linear", "strides": [1, 1], "padding": "valid", "dilation_rate": [1, 1], "trainable": true, "bias_initializer": {"config": {}, "class_name": "Zeros"}, "kernel_constraint": null, "name": "conv2d_12", "use_bias": false, "bias_regularizer": null}}, {"class_name": "Add", "name": "add_3", "inbound_nodes": [[["concatenate_3", 0, 0, {}], ["conv2d_12", 0, 0, {}]]], "config": {"name": "add_3", "trainable": true}}, {"class_name": "AveragePooling2D", "name": "average_pooling2d_2", "inbound_nodes": [[["add_3", 0, 0, {}]]], "config": {"data_format": "channels_first", "strides": [2, 2], "trainable": true, "padding": "valid", "name": "average_pooling2d_2", "pool_size": [2, 2]}}, {"class_name": "TorchBatchNorm2D", "name": "torch_batch_norm2d_16", "inbound_nodes": [[["average_pooling2d_2", 0, 0, {}]]], "config": {"epsilon": 1e-05, "name": "torch_batch_norm2d_16", "momentum": 0.1, "trainable": true, "axis": 1}}, {"class_name": "Activation", "name": "activation_16", "inbound_nodes": [[["torch_batch_norm2d_16", 0, 0, {}]]], "config": {"activation": "relu", "name": "activation_16", "trainable": true}}, {"class_name": "ZeroPadding2D", "name": "zero_padding2d_14", "inbound_nodes": [[["activation_16", 0, 0, {}]]], "config": {"padding": [[1, 1], [1, 1]], "data_format": "channels_first", "name": "zero_padding2d_14", "trainable": true}}, {"class_name": "Conv2D", "name": "conv2d_16", "inbound_nodes": [[["zero_padding2d_14", 0, 0, {}]]], "config": {"data_format": "channels_first", "kernel_initializer": {"config": {"mode": "fan_avg", "scale": 1.0, "distribution": "uniform", "seed": null}, "class_name": "VarianceScaling"}, "activity_regularizer": null, "bias_constraint": null, "kernel_size": [3, 3], "kernel_regularizer": null, "filters": 128, "activation": "linear", "strides": [1, 1], "padding": "valid", "dilation_rate": [1, 1], "trainable": true, "bias_initializer": {"config": {}, "class_name": "Zeros"}, "kernel_constraint": null, "name": "conv2d_16", "use_bias": false, "bias_regularizer": null}}, {"class_name": "TorchBatchNorm2D", "name": "torch_batch_norm2d_17", "inbound_nodes": [[["conv2d_16", 0, 0, {}]]], "config": {"epsilon": 1e-05, "name": "torch_batch_norm2d_17", "momentum": 0.1, "trainable": true, "axis": 1}}, {"class_name": "Activation", "name": "activation_17", "inbound_nodes": [[["torch_batch_norm2d_17", 0, 0, {}]]], "config": {"activation": "relu", "name": "activation_17", "trainable": true}}, {"class_name": "ZeroPadding2D", "name": "zero_padding2d_15", "inbound_nodes": [[["activation_17", 0, 0, {}]]], "config": {"padding": [[1, 1], [1, 1]], "data_format": "channels_first", "name": "zero_padding2d_15", "trainable": true}}, {"class_name": "Conv2D", "name": "conv2d_17", "inbound_nodes": [[["zero_padding2d_15", 0, 0, {}]]], "config": {"data_format": "channels_first", "kernel_initializer": {"config": {"mode": "fan_avg", "scale": 1.0, "distribution": "uniform", "seed": null}, "class_name": "VarianceScaling"}, "activity_regularizer": null, "bias_constraint": null, "kernel_size": [3, 3], "kernel_regularizer": null, "filters": 64, "activation": "linear", "strides": [1, 1], "padding": "valid", "dilation_rate": [1, 1], "trainable": true, "bias_initializer": {"config": {}, "class_name": "Zeros"}, "kernel_constraint": null, "name": "conv2d_17", "use_bias": false, "bias_regularizer": null}}, {"class_name": "TorchBatchNorm2D", "name": "torch_batch_norm2d_18", "inbound_nodes": [[["conv2d_17", 0, 0, {}]]], "config": {"epsilon": 1e-05, "name": "torch_batch_norm2d_18", "momentum": 0.1, "trainable": true, "axis": 1}}, {"class_name": "Activation", "name": "activation_18", "inbound_nodes": [[["torch_batch_norm2d_18", 0, 0, {}]]], "config": {"activation": "relu", "name": "activation_18", "trainable": true}}, {"class_name": "ZeroPadding2D", "name": "zero_padding2d_16", "inbound_nodes": [[["activation_18", 0, 0, {}]]], "config": {"padding": [[1, 1], [1, 1]], "data_format": "channels_first", "name": "zero_padding2d_16", "trainable": true}}, {"class_name": "Conv2D", "name": "conv2d_18", "inbound_nodes": [[["zero_padding2d_16", 0, 0, {}]]], "config": {"data_format": "channels_first", "kernel_initializer": {"config": {"mode": "fan_avg", "scale": 1.0, "distribution": "uniform", "seed": null}, "class_name": "VarianceScaling"}, "activity_regularizer": null, "bias_constraint": null, "kernel_size": [3, 3], "kernel_regularizer": null, "filters": 64, "activation": "linear", "strides": [1, 1], "padding": "valid", "dilation_rate": [1, 1], "trainable": true, "bias_initializer": {"config": {}, "class_name": "Zeros"}, "kernel_constraint": null, "name": "conv2d_18", "use_bias": false, "bias_regularizer": null}}, {"class_name": "Concatenate", "name": "concatenate_5", "inbound_nodes": [[["conv2d_16", 0, 0, {}], ["conv2d_17", 0, 0, {}], ["conv2d_18", 0, 0, {}]]], "config": {"name": "concatenate_5", "trainable": true, "axis": 1}}, {"class_name": "Add", "name": "add_5", "inbound_nodes": [[["concatenate_5", 0, 0, {}], ["average_pooling2d_2", 0, 0, {}]]], "config": {"name": "add_5", "trainable": true}}, {"class_name": "AveragePooling2D", "name": "average_pooling2d_3", "inbound_nodes": [[["add_5", 0, 0, {}]]], "config": {"data_format": "channels_first", "strides": [2, 2], "trainable": true, "padding": "valid", "name": "average_pooling2d_3", "pool_size": [2, 2]}}, {"class_name": "TorchBatchNorm2D", "name": "torch_batch_norm2d_22", "inbound_nodes": [[["average_pooling2d_3", 0, 0, {}]]], "config": {"epsilon": 1e-05, "name": "torch_batch_norm2d_22", "momentum": 0.1, "trainable": true, "axis": 1}}, {"class_name": "Activation", "name": "activation_22", "inbound_nodes": [[["torch_batch_norm2d_22", 0, 0, {}]]], "config": {"activation": "relu", "name": "activation_22", "trainable": true}}, {"class_name": "ZeroPadding2D", "name": "zero_padding2d_20", "inbound_nodes": [[["activation_22", 0, 0, {}]]], "config": {"padding": [[1, 1], [1, 1]], "data_format": "channels_first", "name": "zero_padding2d_20", "trainable": true}}, {"class_name": "Conv2D", "name": "conv2d_22", "inbound_nodes": [[["zero_padding2d_20", 0, 0, {}]]], "config": {"data_format": "channels_first", "kernel_initializer": {"config": {"mode": "fan_avg", "scale": 1.0, "distribution": "uniform", "seed": null}, "class_name": "VarianceScaling"}, "activity_regularizer": null, "bias_constraint": null, "kernel_size": [3, 3], "kernel_regularizer": null, "filters": 128, "activation": "linear", "strides": [1, 1], "padding": "valid", "dilation_rate": [1, 1], "trainable": true, "bias_initializer": {"config": {}, "class_name": "Zeros"}, "kernel_constraint": null, "name": "conv2d_22", "use_bias": false, "bias_regularizer": null}}, {"class_name": "TorchBatchNorm2D", "name": "torch_batch_norm2d_23", "inbound_nodes": [[["conv2d_22", 0, 0, {}]]], "config": {"epsilon": 1e-05, "name": "torch_batch_norm2d_23", "momentum": 0.1, "trainable": true, "axis": 1}}, {"class_name": "Activation", "name": "activation_23", "inbound_nodes": [[["torch_batch_norm2d_23", 0, 0, {}]]], "config": {"activation": "relu", "name": "activation_23", "trainable": true}}, {"class_name": "ZeroPadding2D", "name": "zero_padding2d_21", "inbound_nodes": [[["activation_23", 0, 0, {}]]], "config": {"padding": [[1, 1], [1, 1]], "data_format": "channels_first", "name": "zero_padding2d_21", "trainable": true}}, {"class_name": "Conv2D", "name": "conv2d_23", "inbound_nodes": [[["zero_padding2d_21", 0, 0, {}]]], "config": {"data_format": "channels_first", "kernel_initializer": {"config": {"mode": "fan_avg", "scale": 1.0, "distribution": "uniform", "seed": null}, "class_name": "VarianceScaling"}, "activity_regularizer": null, "bias_constraint": null, "kernel_size": [3, 3], "kernel_regularizer": null, "filters": 64, "activation": "linear", "strides": [1, 1], "padding": "valid", "dilation_rate": [1, 1], "trainable": true, "bias_initializer": {"config": {}, "class_name": "Zeros"}, "kernel_constraint": null, "name": "conv2d_23", "use_bias": false, "bias_regularizer": null}}, {"class_name": "TorchBatchNorm2D", "name": "torch_batch_norm2d_24", "inbound_nodes": [[["conv2d_23", 0, 0, {}]]], "config": {"epsilon": 1e-05, "name": "torch_batch_norm2d_24", "momentum": 0.1, "trainable": true, "axis": 1}}, {"class_name": "Activation", "name": "activation_24", "inbound_nodes": [[["torch_batch_norm2d_24", 0, 0, {}]]], "config": {"activation": "relu", "name": "activation_24", "trainable": true}}, {"class_name": "ZeroPadding2D", "name": "zero_padding2d_22", "inbound_nodes": [[["activation_24", 0, 0, {}]]], "config": {"padding": [[1, 1], [1, 1]], "data_format": "channels_first", "name": "zero_padding2d_22", "trainable": true}}, {"class_name": "Conv2D", "name": "conv2d_24", "inbound_nodes": [[["zero_padding2d_22", 0, 0, {}]]], "config": {"data_format": "channels_first", "kernel_initializer": {"config": {"mode": "fan_avg", "scale": 1.0, "distribution": "uniform", "seed": null}, "class_name": "VarianceScaling"}, "activity_regularizer": null, "bias_constraint": null, "kernel_size": [3, 3], "kernel_regularizer": null, "filters": 64, "activation": "linear", "strides": [1, 1], "padding": "valid", "dilation_rate": [1, 1], "trainable": true, "bias_initializer": {"config": {}, "class_name": "Zeros"}, "kernel_constraint": null, "name": "conv2d_24", "use_bias": false, "bias_regularizer": null}}, {"class_name": "Concatenate", "name": "concatenate_7", "inbound_nodes": [[["conv2d_22", 0, 0, {}], ["conv2d_23", 0, 0, {}], ["conv2d_24", 0, 0, {}]]], "config": {"name": "concatenate_7", "trainable": true, "axis": 1}}, {"class_name": "Add", "name": "add_7", "inbound_nodes": [[["concatenate_7", 0, 0, {}], ["average_pooling2d_3", 0, 0, {}]]], "config": {"name": "add_7", "trainable": true}}, {"class_name": "AveragePooling2D", "name": "average_pooling2d_4", "inbound_nodes": [[["add_7", 0, 0, {}]]], "config": {"data_format": "channels_first", "strides": [2, 2], "trainable": true, "padding": "valid", "name": "average_pooling2d_4", "pool_size": [2, 2]}}, {"class_name": "TorchBatchNorm2D", "name": "torch_batch_norm2d_28", "inbound_nodes": [[["average_pooling2d_4", 0, 0, {}]]], "config": {"epsilon": 1e-05, "name": "torch_batch_norm2d_28", "momentum": 0.1, "trainable": true, "axis": 1}}, {"class_name": "Activation", "name": "activation_28", "inbound_nodes": [[["torch_batch_norm2d_28", 0, 0, {}]]], "config": {"activation": "relu", "name": "activation_28", "trainable": true}}, {"class_name": "ZeroPadding2D", "name": "zero_padding2d_26", "inbound_nodes": [[["activation_28", 0, 0, {}]]], "config": {"padding": [[1, 1], [1, 1]], "data_format": "channels_first", "name": "zero_padding2d_26", "trainable": true}}, {"class_name": "Conv2D", "name": "conv2d_28", "inbound_nodes": [[["zero_padding2d_26", 0, 0, {}]]], "config": {"data_format": "channels_first", "kernel_initializer": {"config": {"mode": "fan_avg", "scale": 1.0, "distribution": "uniform", "seed": null}, "class_name": "VarianceScaling"}, "activity_regularizer": null, "bias_constraint": null, "kernel_size": [3, 3], "kernel_regularizer": null, "filters": 128, "activation": "linear", "strides": [1, 1], "padding": "valid", "dilation_rate": [1, 1], "trainable": true, "bias_initializer": {"config": {}, "class_name": "Zeros"}, "kernel_constraint": null, "name": "conv2d_28", "use_bias": false, "bias_regularizer": null}}, {"class_name": "TorchBatchNorm2D", "name": "torch_batch_norm2d_29", "inbound_nodes": [[["conv2d_28", 0, 0, {}]]], "config": {"epsilon": 1e-05, "name": "torch_batch_norm2d_29", "momentum": 0.1, "trainable": true, "axis": 1}}, {"class_name": "Activation", "name": "activation_29", "inbound_nodes": [[["torch_batch_norm2d_29", 0, 0, {}]]], "config": {"activation": "relu", "name": "activation_29", "trainable": true}}, {"class_name": "ZeroPadding2D", "name": "zero_padding2d_27", "inbound_nodes": [[["activation_29", 0, 0, {}]]], "config": {"padding": [[1, 1], [1, 1]], "data_format": "channels_first", "name": "zero_padding2d_27", "trainable": true}}, {"class_name": "Conv2D", "name": "conv2d_29", "inbound_nodes": [[["zero_padding2d_27", 0, 0, {}]]], "config": {"data_format": "channels_first", "kernel_initializer": {"config": {"mode": "fan_avg", "scale": 1.0, "distribution": "uniform", "seed": null}, "class_name": "VarianceScaling"}, "activity_regularizer": null, "bias_constraint": null, "kernel_size": [3, 3], "kernel_regularizer": null, "filters": 64, "activation": "linear", "strides": [1, 1], "padding": "valid", "dilation_rate": [1, 1], "trainable": true, "bias_initializer": {"config": {}, "class_name": "Zeros"}, "kernel_constraint": null, "name": "conv2d_29", "use_bias": false, "bias_regularizer": null}}, {"class_name": "TorchBatchNorm2D", "name": "torch_batch_norm2d_30", "inbound_nodes": [[["conv2d_29", 0, 0, {}]]], "config": {"epsilon": 1e-05, "name": "torch_batch_norm2d_30", "momentum": 0.1, "trainable": true, "axis": 1}}, {"class_name": "Activation", "name": "activation_30", "inbound_nodes": [[["torch_batch_norm2d_30", 0, 0, {}]]], "config": {"activation": "relu", "name": "activation_30", "trainable": true}}, {"class_name": "ZeroPadding2D", "name": "zero_padding2d_28", "inbound_nodes": [[["activation_30", 0, 0, {}]]], "config": {"padding": [[1, 1], [1, 1]], "data_format": "channels_first", "name": "zero_padding2d_28", "trainable": true}}, {"class_name": "Conv2D", "name": "conv2d_30", "inbound_nodes": [[["zero_padding2d_28", 0, 0, {}]]], "config": {"data_format": "channels_first", "kernel_initializer": {"config": {"mode": "fan_avg", "scale": 1.0, "distribution": "uniform", "seed": null}, "class_name": "VarianceScaling"}, "activity_regularizer": null, "bias_constraint": null, "kernel_size": [3, 3], "kernel_regularizer": null, "filters": 64, "activation": "linear", "strides": [1, 1], "padding": "valid", "dilation_rate": [1, 1], "trainable": true, "bias_initializer": {"config": {}, "class_name": "Zeros"}, "kernel_constraint": null, "name": "conv2d_30", "use_bias": false, "bias_regularizer": null}}, {"class_name": "Concatenate", "name": "concatenate_9", "inbound_nodes": [[["conv2d_28", 0, 0, {}], ["conv2d_29", 0, 0, {}], ["conv2d_30", 0, 0, {}]]], "config": {"name": "concatenate_9", "trainable": true, "axis": 1}}, {"class_name": "Add", "name": "add_9", "inbound_nodes": [[["concatenate_9", 0, 0, {}], ["average_pooling2d_4", 0, 0, {}]]], "config": {"name": "add_9", "trainable": true}}, {"class_name": "AveragePooling2D", "name": "average_pooling2d_5", "inbound_nodes": [[["add_9", 0, 0, {}]]], "config": {"data_format": "channels_first", "strides": [2, 2], "trainable": true, "padding": "valid", "name": "average_pooling2d_5", "pool_size": [2, 2]}}, {"class_name": "TorchBatchNorm2D", "name": "torch_batch_norm2d_34", "inbound_nodes": [[["average_pooling2d_5", 0, 0, {}]]], "config": {"epsilon": 1e-05, "name": "torch_batch_norm2d_34", "momentum": 0.1, "trainable": true, "axis": 1}}, {"class_name": "Activation", "name": "activation_34", "inbound_nodes": [[["torch_batch_norm2d_34", 0, 0, {}]]], "config": {"activation": "relu", "name": "activation_34", "trainable": true}}, {"class_name": "ZeroPadding2D", "name": "zero_padding2d_32", "inbound_nodes": [[["activation_34", 0, 0, {}]]], "config": {"padding": [[1, 1], [1, 1]], "data_format": "channels_first", "name": "zero_padding2d_32", "trainable": true}}, {"class_name": "Conv2D", "name": "conv2d_34", "inbound_nodes": [[["zero_padding2d_32", 0, 0, {}]]], "config": {"data_format": "channels_first", "kernel_initializer": {"config": {"mode": "fan_avg", "scale": 1.0, "distribution": "uniform", "seed": null}, "class_name": "VarianceScaling"}, "activity_regularizer": null, "bias_constraint": null, "kernel_size": [3, 3], "kernel_regularizer": null, "filters": 128, "activation": "linear", "strides": [1, 1], "padding": "valid", "dilation_rate": [1, 1], "trainable": true, "bias_initializer": {"config": {}, "class_name": "Zeros"}, "kernel_constraint": null, "name": "conv2d_34", "use_bias": false, "bias_regularizer": null}}, {"class_name": "TorchBatchNorm2D", "name": "torch_batch_norm2d_35", "inbound_nodes": [[["conv2d_34", 0, 0, {}]]], "config": {"epsilon": 1e-05, "name": "torch_batch_norm2d_35", "momentum": 0.1, "trainable": true, "axis": 1}}, {"class_name": "Activation", "name": "activation_35", "inbound_nodes": [[["torch_batch_norm2d_35", 0, 0, {}]]], "config": {"activation": "relu", "name": "activation_35", "trainable": true}}, {"class_name": "ZeroPadding2D", "name": "zero_padding2d_33", "inbound_nodes": [[["activation_35", 0, 0, {}]]], "config": {"padding": [[1, 1], [1, 1]], "data_format": "channels_first", "name": "zero_padding2d_33", "trainable": true}}, {"class_name": "Conv2D", "name": "conv2d_35", "inbound_nodes": [[["zero_padding2d_33", 0, 0, {}]]], "config": {"data_format": "channels_first", "kernel_initializer": {"config": {"mode": "fan_avg", "scale": 1.0, "distribution": "uniform", "seed": null}, "class_name": "VarianceScaling"}, "activity_regularizer": null, "bias_constraint": null, "kernel_size": [3, 3], "kernel_regularizer": null, "filters": 64, "activation": "linear", "strides": [1, 1], "padding": "valid", "dilation_rate": [1, 1], "trainable": true, "bias_initializer": {"config": {}, "class_name": "Zeros"}, "kernel_constraint": null, "name": "conv2d_35", "use_bias": false, "bias_regularizer": null}}, {"class_name": "TorchBatchNorm2D", "name": "torch_batch_norm2d_36", "inbound_nodes": [[["conv2d_35", 0, 0, {}]]], "config": {"epsilon": 1e-05, "name": "torch_batch_norm2d_36", "momentum": 0.1, "trainable": true, "axis": 1}}, {"class_name": "Activation", "name": "activation_36", "inbound_nodes": [[["torch_batch_norm2d_36", 0, 0, {}]]], "config": {"activation": "relu", "name": "activation_36", "trainable": true}}, {"class_name": "ZeroPadding2D", "name": "zero_padding2d_34", "inbound_nodes": [[["activation_36", 0, 0, {}]]], "config": {"padding": [[1, 1], [1, 1]], "data_format": "channels_first", "name": "zero_padding2d_34", "trainable": true}}, {"class_name": "Conv2D", "name": "conv2d_36", "inbound_nodes": [[["zero_padding2d_34", 0, 0, {}]]], "config": {"data_format": "channels_first", "kernel_initializer": {"config": {"mode": "fan_avg", "scale": 1.0, "distribution": "uniform", "seed": null}, "class_name": "VarianceScaling"}, "activity_regularizer": null, "bias_constraint": null, "kernel_size": [3, 3], "kernel_regularizer": null, "filters": 64, "activation": "linear", "strides": [1, 1], "padding": "valid", "dilation_rate": [1, 1], "trainable": true, "bias_initializer": {"config": {}, "class_name": "Zeros"}, "kernel_constraint": null, "name": "conv2d_36", "use_bias": false, "bias_regularizer": null}}, {"class_name": "Concatenate", "name": "concatenate_11", "inbound_nodes": [[["conv2d_34", 0, 0, {}], ["conv2d_35", 0, 0, {}], ["conv2d_36", 0, 0, {}]]], "config": {"name": "concatenate_11", "trainable": true, "axis": 1}}, {"class_name": "Add", "name": "add_11", "inbound_nodes": [[["concatenate_11", 0, 0, {}], ["average_pooling2d_5", 0, 0, {}]]], "config": {"name": "add_11", "trainable": true}}, {"class_name": "TorchBatchNorm2D", "name": "torch_batch_norm2d_37", "inbound_nodes": [[["add_11", 0, 0, {}]]], "config": {"epsilon": 1e-05, "name": "torch_batch_norm2d_37", "momentum": 0.1, "trainable": true, "axis": 1}}, {"class_name": "Activation", "name": "activation_37", "inbound_nodes": [[["torch_batch_norm2d_37", 0, 0, {}]]], "config": {"activation": "relu", "name": "activation_37", "trainable": true}}, {"class_name": "ZeroPadding2D", "name": "zero_padding2d_35", "inbound_nodes": [[["activation_37", 0, 0, {}]]], "config": {"padding": [[1, 1], [1, 1]], "data_format": "channels_first", "name": "zero_padding2d_35", "trainable": true}}, {"class_name": "Conv2D", "name": "conv2d_37", "inbound_nodes": [[["zero_padding2d_35", 0, 0, {}]]], "config": {"data_format": "channels_first", "kernel_initializer": {"config": {"mode": "fan_avg", "scale": 1.0, "distribution": "uniform", "seed": null}, "class_name": "VarianceScaling"}, "activity_regularizer": null, "bias_constraint": null, "kernel_size": [3, 3], "kernel_regularizer": null, "filters": 128, "activation": "linear", "strides": [1, 1], "padding": "valid", "dilation_rate": [1, 1], "trainable": true, "bias_initializer": {"config": {}, "class_name": "Zeros"}, "kernel_constraint": null, "name": "conv2d_37", "use_bias": false, "bias_regularizer": null}}, {"class_name": "TorchBatchNorm2D", "name": "torch_batch_norm2d_38", "inbound_nodes": [[["conv2d_37", 0, 0, {}]]], "config": {"epsilon": 1e-05, "name": "torch_batch_norm2d_38", "momentum": 0.1, "trainable": true, "axis": 1}}, {"class_name": "Activation", "name": "activation_38", "inbound_nodes": [[["torch_batch_norm2d_38", 0, 0, {}]]], "config": {"activation": "relu", "name": "activation_38", "trainable": true}}, {"class_name": "ZeroPadding2D", "name": "zero_padding2d_36", "inbound_nodes": [[["activation_38", 0, 0, {}]]], "config": {"padding": [[1, 1], [1, 1]], "data_format": "channels_first", "name": "zero_padding2d_36", "trainable": true}}, {"class_name": "Conv2D", "name": "conv2d_38", "inbound_nodes": [[["zero_padding2d_36", 0, 0, {}]]], "config": {"data_format": "channels_first", "kernel_initializer": {"config": {"mode": "fan_avg", "scale": 1.0, "distribution": "uniform", "seed": null}, "class_name": "VarianceScaling"}, "activity_regularizer": null, "bias_constraint": null, "kernel_size": [3, 3], "kernel_regularizer": null, "filters": 64, "activation": "linear", "strides": [1, 1], "padding": "valid", "dilation_rate": [1, 1], "trainable": true, "bias_initializer": {"config": {}, "class_name": "Zeros"}, "kernel_constraint": null, "name": "conv2d_38", "use_bias": false, "bias_regularizer": null}}, {"class_name": "TorchBatchNorm2D", "name": "torch_batch_norm2d_39", "inbound_nodes": [[["conv2d_38", 0, 0, {}]]], "config": {"epsilon": 1e-05, "name": "torch_batch_norm2d_39", "momentum": 0.1, "trainable": true, "axis": 1}}, {"class_name": "Activation", "name": "activation_39", "inbound_nodes": [[["torch_batch_norm2d_39", 0, 0, {}]]], "config": {"activation": "relu", "name": "activation_39", "trainable": true}}, {"class_name": "ZeroPadding2D", "name": "zero_padding2d_37", "inbound_nodes": [[["activation_39", 0, 0, {}]]], "config": {"padding": [[1, 1], [1, 1]], "data_format": "channels_first", "name": "zero_padding2d_37", "trainable": true}}, {"class_name": "Conv2D", "name": "conv2d_39", "inbound_nodes": [[["zero_padding2d_37", 0, 0, {}]]], "config": {"data_format": "channels_first", "kernel_initializer": {"config": {"mode": "fan_avg", "scale": 1.0, "distribution": "uniform", "seed": null}, "class_name": "VarianceScaling"}, "activity_regularizer": null, "bias_constraint": null, "kernel_size": [3, 3], "kernel_regularizer": null, "filters": 64, "activation": "linear", "strides": [1, 1], "padding": "valid", "dilation_rate": [1, 1], "trainable": true, "bias_initializer": {"config": {}, "class_name": "Zeros"}, "kernel_constraint": null, "name": "conv2d_39", "use_bias": false, "bias_regularizer": null}}, {"class_name": "Concatenate", "name": "concatenate_12", "inbound_nodes": [[["conv2d_37", 0, 0, {}], ["conv2d_38", 0, 0, {}], ["conv2d_39", 0, 0, {}]]], "config": {"name": "concatenate_12", "trainable": true, "axis": 1}}, {"class_name": "Add", "name": "add_12", "inbound_nodes": [[["concatenate_12", 0, 0, {}], ["add_11", 0, 0, {}]]], "config": {"name": "add_12", "trainable": true}}, {"class_name": "TorchBatchNorm2D", "name": "torch_batch_norm2d_40", "inbound_nodes": [[["add_12", 0, 0, {}]]], "config": {"epsilon": 1e-05, "name": "torch_batch_norm2d_40", "momentum": 0.1, "trainable": true, "axis": 1}}, {"class_name": "TorchBatchNorm2D", "name": "torch_batch_norm2d_31", "inbound_nodes": [[["add_9", 0, 0, {}]]], "config": {"epsilon": 1e-05, "name": "torch_batch_norm2d_31", "momentum": 0.1, "trainable": true, "axis": 1}}, {"class_name": "Activation", "name": "activation_40", "inbound_nodes": [[["torch_batch_norm2d_40", 0, 0, {}]]], "config": {"activation": "relu", "name": "activation_40", "trainable": true}}, {"class_name": "Activation", "name": "activation_31", "inbound_nodes": [[["torch_batch_norm2d_31", 0, 0, {}]]], "config": {"activation": "relu", "name": "activation_31", "trainable": true}}, {"class_name": "ZeroPadding2D", "name": "zero_padding2d_38", "inbound_nodes": [[["activation_40", 0, 0, {}]]], "config": {"padding": [[1, 1], [1, 1]], "data_format": "channels_first", "name": "zero_padding2d_38", "trainable": true}}, {"class_name": "ZeroPadding2D", "name": "zero_padding2d_29", "inbound_nodes": [[["activation_31", 0, 0, {}]]], "config": {"padding": [[1, 1], [1, 1]], "data_format": "channels_first", "name": "zero_padding2d_29", "trainable": true}}, {"class_name": "Conv2D", "name": "conv2d_40", "inbound_nodes": [[["zero_padding2d_38", 0, 0, {}]]], "config": {"data_format": "channels_first", "kernel_initializer": {"config": {"mode": "fan_avg", "scale": 1.0, "distribution": "uniform", "seed": null}, "class_name": "VarianceScaling"}, "activity_regularizer": null, "bias_constraint": null, "kernel_size": [3, 3], "kernel_regularizer": null, "filters": 128, "activation": "linear", "strides": [1, 1], "padding": "valid", "dilation_rate": [1, 1], "trainable": true, "bias_initializer": {"config": {}, "class_name": "Zeros"}, "kernel_constraint": null, "name": "conv2d_40", "use_bias": false, "bias_regularizer": null}}, {"class_name": "Conv2D", "name": "conv2d_31", "inbound_nodes": [[["zero_padding2d_29", 0, 0, {}]]], "config": {"data_format": "channels_first", "kernel_initializer": {"config": {"mode": "fan_avg", "scale": 1.0, "distribution": "uniform", "seed": null}, "class_name": "VarianceScaling"}, "activity_regularizer": null, "bias_constraint": null, "kernel_size": [3, 3], "kernel_regularizer": null, "filters": 128, "activation": "linear", "strides": [1, 1], "padding": "valid", "dilation_rate": [1, 1], "trainable": true, "bias_initializer": {"config": {}, "class_name": "Zeros"}, "kernel_constraint": null, "name": "conv2d_31", "use_bias": false, "bias_regularizer": null}}, {"class_name": "TorchBatchNorm2D", "name": "torch_batch_norm2d_41", "inbound_nodes": [[["conv2d_40", 0, 0, {}]]], "config": {"epsilon": 1e-05, "name": "torch_batch_norm2d_41", "momentum": 0.1, "trainable": true, "axis": 1}}, {"class_name": "TorchBatchNorm2D", "name": "torch_batch_norm2d_32", "inbound_nodes": [[["conv2d_31", 0, 0, {}]]], "config": {"epsilon": 1e-05, "name": "torch_batch_norm2d_32", "momentum": 0.1, "trainable": true, "axis": 1}}, {"class_name": "Activation", "name": "activation_41", "inbound_nodes": [[["torch_batch_norm2d_41", 0, 0, {}]]], "config": {"activation": "relu", "name": "activation_41", "trainable": true}}, {"class_name": "Activation", "name": "activation_32", "inbound_nodes": [[["torch_batch_norm2d_32", 0, 0, {}]]], "config": {"activation": "relu", "name": "activation_32", "trainable": true}}, {"class_name": "ZeroPadding2D", "name": "zero_padding2d_39", "inbound_nodes": [[["activation_41", 0, 0, {}]]], "config": {"padding": [[1, 1], [1, 1]], "data_format": "channels_first", "name": "zero_padding2d_39", "trainable": true}}, {"class_name": "ZeroPadding2D", "name": "zero_padding2d_30", "inbound_nodes": [[["activation_32", 0, 0, {}]]], "config": {"padding": [[1, 1], [1, 1]], "data_format": "channels_first", "name": "zero_padding2d_30", "trainable": true}}, {"class_name": "Conv2D", "name": "conv2d_41", "inbound_nodes": [[["zero_padding2d_39", 0, 0, {}]]], "config": {"data_format": "channels_first", "kernel_initializer": {"config": {"mode": "fan_avg", "scale": 1.0, "distribution": "uniform", "seed": null}, "class_name": "VarianceScaling"}, "activity_regularizer": null, "bias_constraint": null, "kernel_size": [3, 3], "kernel_regularizer": null, "filters": 64, "activation": "linear", "strides": [1, 1], "padding": "valid", "dilation_rate": [1, 1], "trainable": true, "bias_initializer": {"config": {}, "class_name": "Zeros"}, "kernel_constraint": null, "name": "conv2d_41", "use_bias": false, "bias_regularizer": null}}, {"class_name": "Conv2D", "name": "conv2d_32", "inbound_nodes": [[["zero_padding2d_30", 0, 0, {}]]], "config": {"data_format": "channels_first", "kernel_initializer": {"config": {"mode": "fan_avg", "scale": 1.0, "distribution": "uniform", "seed": null}, "class_name": "VarianceScaling"}, "activity_regularizer": null, "bias_constraint": null, "kernel_size": [3, 3], "kernel_regularizer": null, "filters": 64, "activation": "linear", "strides": [1, 1], "padding": "valid", "dilation_rate": [1, 1], "trainable": true, "bias_initializer": {"config": {}, "class_name": "Zeros"}, "kernel_constraint": null, "name": "conv2d_32", "use_bias": false, "bias_regularizer": null}}, {"class_name": "TorchBatchNorm2D", "name": "torch_batch_norm2d_42", "inbound_nodes": [[["conv2d_41", 0, 0, {}]]], "config": {"epsilon": 1e-05, "name": "torch_batch_norm2d_42", "momentum": 0.1, "trainable": true, "axis": 1}}, {"class_name": "TorchBatchNorm2D", "name": "torch_batch_norm2d_33", "inbound_nodes": [[["conv2d_32", 0, 0, {}]]], "config": {"epsilon": 1e-05, "name": "torch_batch_norm2d_33", "momentum": 0.1, "trainable": true, "axis": 1}}, {"class_name": "Activation", "name": "activation_42", "inbound_nodes": [[["torch_batch_norm2d_42", 0, 0, {}]]], "config": {"activation": "relu", "name": "activation_42", "trainable": true}}, {"class_name": "Activation", "name": "activation_33", "inbound_nodes": [[["torch_batch_norm2d_33", 0, 0, {}]]], "config": {"activation": "relu", "name": "activation_33", "trainable": true}}, {"class_name": "ZeroPadding2D", "name": "zero_padding2d_40", "inbound_nodes": [[["activation_42", 0, 0, {}]]], "config": {"padding": [[1, 1], [1, 1]], "data_format": "channels_first", "name": "zero_padding2d_40", "trainable": true}}, {"class_name": "ZeroPadding2D", "name": "zero_padding2d_31", "inbound_nodes": [[["activation_33", 0, 0, {}]]], "config": {"padding": [[1, 1], [1, 1]], "data_format": "channels_first", "name": "zero_padding2d_31", "trainable": true}}, {"class_name": "Conv2D", "name": "conv2d_42", "inbound_nodes": [[["zero_padding2d_40", 0, 0, {}]]], "config": {"data_format": "channels_first", "kernel_initializer": {"config": {"mode": "fan_avg", "scale": 1.0, "distribution": "uniform", "seed": null}, "class_name": "VarianceScaling"}, "activity_regularizer": null, "bias_constraint": null, "kernel_size": [3, 3], "kernel_regularizer": null, "filters": 64, "activation": "linear", "strides": [1, 1], "padding": "valid", "dilation_rate": [1, 1], "trainable": true, "bias_initializer": {"config": {}, "class_name": "Zeros"}, "kernel_constraint": null, "name": "conv2d_42", "use_bias": false, "bias_regularizer": null}}, {"class_name": "Conv2D", "name": "conv2d_33", "inbound_nodes": [[["zero_padding2d_31", 0, 0, {}]]], "config": {"data_format": "channels_first", "kernel_initializer": {"config": {"mode": "fan_avg", "scale": 1.0, "distribution": "uniform", "seed": null}, "class_name": "VarianceScaling"}, "activity_regularizer": null, "bias_constraint": null, "kernel_size": [3, 3], "kernel_regularizer": null, "filters": 64, "activation": "linear", "strides": [1, 1], "padding": "valid", "dilation_rate": [1, 1], "trainable": true, "bias_initializer": {"config": {}, "class_name": "Zeros"}, "kernel_constraint": null, "name": "conv2d_33", "use_bias": false, "bias_regularizer": null}}, {"class_name": "Concatenate", "name": "concatenate_13", "inbound_nodes": [[["conv2d_40", 0, 0, {}], ["conv2d_41", 0, 0, {}], ["conv2d_42", 0, 0, {}]]], "config": {"name": "concatenate_13", "trainable": true, "axis": 1}}, {"class_name": "Concatenate", "name": "concatenate_10", "inbound_nodes": [[["conv2d_31", 0, 0, {}], ["conv2d_32", 0, 0, {}], ["conv2d_33", 0, 0, {}]]], "config": {"name": "concatenate_10", "trainable": true, "axis": 1}}, {"class_name": "Add", "name": "add_13", "inbound_nodes": [[["concatenate_13", 0, 0, {}], ["add_12", 0, 0, {}]]], "config": {"name": "add_13", "trainable": true}}, {"class_name": "Add", "name": "add_10", "inbound_nodes": [[["concatenate_10", 0, 0, {}], ["add_9", 0, 0, {}]]], "config": {"name": "add_10", "trainable": true}}, {"class_name": "UpSampling2D", "name": "up_sampling2d_1", "inbound_nodes": [[["add_13", 0, 0, {}]]], "config": {"data_format": "channels_first", "name": "up_sampling2d_1", "size": [2, 2], "trainable": true}}, {"class_name": "Add", "name": "add_14", "inbound_nodes": [[["add_10", 0, 0, {}], ["up_sampling2d_1", 0, 0, {}]]], "config": {"name": "add_14", "trainable": true}}, {"class_name": "TorchBatchNorm2D", "name": "torch_batch_norm2d_43", "inbound_nodes": [[["add_14", 0, 0, {}]]], "config": {"epsilon": 1e-05, "name": "torch_batch_norm2d_43", "momentum": 0.1, "trainable": true, "axis": 1}}, {"class_name": "TorchBatchNorm2D", "name": "torch_batch_norm2d_25", "inbound_nodes": [[["add_7", 0, 0, {}]]], "config": {"epsilon": 1e-05, "name": "torch_batch_norm2d_25", "momentum": 0.1, "trainable": true, "axis": 1}}, {"class_name": "Activation", "name": "activation_43", "inbound_nodes": [[["torch_batch_norm2d_43", 0, 0, {}]]], "config": {"activation": "relu", "name": "activation_43", "trainable": true}}, {"class_name": "Activation", "name": "activation_25", "inbound_nodes": [[["torch_batch_norm2d_25", 0, 0, {}]]], "config": {"activation": "relu", "name": "activation_25", "trainable": true}}, {"class_name": "ZeroPadding2D", "name": "zero_padding2d_41", "inbound_nodes": [[["activation_43", 0, 0, {}]]], "config": {"padding": [[1, 1], [1, 1]], "data_format": "channels_first", "name": "zero_padding2d_41", "trainable": true}}, {"class_name": "ZeroPadding2D", "name": "zero_padding2d_23", "inbound_nodes": [[["activation_25", 0, 0, {}]]], "config": {"padding": [[1, 1], [1, 1]], "data_format": "channels_first", "name": "zero_padding2d_23", "trainable": true}}, {"class_name": "Conv2D", "name": "conv2d_43", "inbound_nodes": [[["zero_padding2d_41", 0, 0, {}]]], "config": {"data_format": "channels_first", "kernel_initializer": {"config": {"mode": "fan_avg", "scale": 1.0, "distribution": "uniform", "seed": null}, "class_name": "VarianceScaling"}, "activity_regularizer": null, "bias_constraint": null, "kernel_size": [3, 3], "kernel_regularizer": null, "filters": 128, "activation": "linear", "strides": [1, 1], "padding": "valid", "dilation_rate": [1, 1], "trainable": true, "bias_initializer": {"config": {}, "class_name": "Zeros"}, "kernel_constraint": null, "name": "conv2d_43", "use_bias": false, "bias_regularizer": null}}, {"class_name": "Conv2D", "name": "conv2d_25", "inbound_nodes": [[["zero_padding2d_23", 0, 0, {}]]], "config": {"data_format": "channels_first", "kernel_initializer": {"config": {"mode": "fan_avg", "scale": 1.0, "distribution": "uniform", "seed": null}, "class_name": "VarianceScaling"}, "activity_regularizer": null, "bias_constraint": null, "kernel_size": [3, 3], "kernel_regularizer": null, "filters": 128, "activation": "linear", "strides": [1, 1], "padding": "valid", "dilation_rate": [1, 1], "trainable": true, "bias_initializer": {"config": {}, "class_name": "Zeros"}, "kernel_constraint": null, "name": "conv2d_25", "use_bias": false, "bias_regularizer": null}}, {"class_name": "TorchBatchNorm2D", "name": "torch_batch_norm2d_44", "inbound_nodes": [[["conv2d_43", 0, 0, {}]]], "config": {"epsilon": 1e-05, "name": "torch_batch_norm2d_44", "momentum": 0.1, "trainable": true, "axis": 1}}, {"class_name": "TorchBatchNorm2D", "name": "torch_batch_norm2d_26", "inbound_nodes": [[["conv2d_25", 0, 0, {}]]], "config": {"epsilon": 1e-05, "name": "torch_batch_norm2d_26", "momentum": 0.1, "trainable": true, "axis": 1}}, {"class_name": "Activation", "name": "activation_44", "inbound_nodes": [[["torch_batch_norm2d_44", 0, 0, {}]]], "config": {"activation": "relu", "name": "activation_44", "trainable": true}}, {"class_name": "Activation", "name": "activation_26", "inbound_nodes": [[["torch_batch_norm2d_26", 0, 0, {}]]], "config": {"activation": "relu", "name": "activation_26", "trainable": true}}, {"class_name": "ZeroPadding2D", "name": "zero_padding2d_42", "inbound_nodes": [[["activation_44", 0, 0, {}]]], "config": {"padding": [[1, 1], [1, 1]], "data_format": "channels_first", "name": "zero_padding2d_42", "trainable": true}}, {"class_name": "ZeroPadding2D", "name": "zero_padding2d_24", "inbound_nodes": [[["activation_26", 0, 0, {}]]], "config": {"padding": [[1, 1], [1, 1]], "data_format": "channels_first", "name": "zero_padding2d_24", "trainable": true}}, {"class_name": "Conv2D", "name": "conv2d_44", "inbound_nodes": [[["zero_padding2d_42", 0, 0, {}]]], "config": {"data_format": "channels_first", "kernel_initializer": {"config": {"mode": "fan_avg", "scale": 1.0, "distribution": "uniform", "seed": null}, "class_name": "VarianceScaling"}, "activity_regularizer": null, "bias_constraint": null, "kernel_size": [3, 3], "kernel_regularizer": null, "filters": 64, "activation": "linear", "strides": [1, 1], "padding": "valid", "dilation_rate": [1, 1], "trainable": true, "bias_initializer": {"config": {}, "class_name": "Zeros"}, "kernel_constraint": null, "name": "conv2d_44", "use_bias": false, "bias_regularizer": null}}, {"class_name": "Conv2D", "name": "conv2d_26", "inbound_nodes": [[["zero_padding2d_24", 0, 0, {}]]], "config": {"data_format": "channels_first", "kernel_initializer": {"config": {"mode": "fan_avg", "scale": 1.0, "distribution": "uniform", "seed": null}, "class_name": "VarianceScaling"}, "activity_regularizer": null, "bias_constraint": null, "kernel_size": [3, 3], "kernel_regularizer": null, "filters": 64, "activation": "linear", "strides": [1, 1], "padding": "valid", "dilation_rate": [1, 1], "trainable": true, "bias_initializer": {"config": {}, "class_name": "Zeros"}, "kernel_constraint": null, "name": "conv2d_26", "use_bias": false, "bias_regularizer": null}}, {"class_name": "TorchBatchNorm2D", "name": "torch_batch_norm2d_45", "inbound_nodes": [[["conv2d_44", 0, 0, {}]]], "config": {"epsilon": 1e-05, "name": "torch_batch_norm2d_45", "momentum": 0.1, "trainable": true, "axis": 1}}, {"class_name": "TorchBatchNorm2D", "name": "torch_batch_norm2d_27", "inbound_nodes": [[["conv2d_26", 0, 0, {}]]], "config": {"epsilon": 1e-05, "name": "torch_batch_norm2d_27", "momentum": 0.1, "trainable": true, "axis": 1}}, {"class_name": "Activation", "name": "activation_45", "inbound_nodes": [[["torch_batch_norm2d_45", 0, 0, {}]]], "config": {"activation": "relu", "name": "activation_45", "trainable": true}}, {"class_name": "Activation", "name": "activation_27", "inbound_nodes": [[["torch_batch_norm2d_27", 0, 0, {}]]], "config": {"activation": "relu", "name": "activation_27", "trainable": true}}, {"class_name": "ZeroPadding2D", "name": "zero_padding2d_43", "inbound_nodes": [[["activation_45", 0, 0, {}]]], "config": {"padding": [[1, 1], [1, 1]], "data_format": "channels_first", "name": "zero_padding2d_43", "trainable": true}}, {"class_name": "ZeroPadding2D", "name": "zero_padding2d_25", "inbound_nodes": [[["activation_27", 0, 0, {}]]], "config": {"padding": [[1, 1], [1, 1]], "data_format": "channels_first", "name": "zero_padding2d_25", "trainable": true}}, {"class_name": "Conv2D", "name": "conv2d_45", "inbound_nodes": [[["zero_padding2d_43", 0, 0, {}]]], "config": {"data_format": "channels_first", "kernel_initializer": {"config": {"mode": "fan_avg", "scale": 1.0, "distribution": "uniform", "seed": null}, "class_name": "VarianceScaling"}, "activity_regularizer": null, "bias_constraint": null, "kernel_size": [3, 3], "kernel_regularizer": null, "filters": 64, "activation": "linear", "strides": [1, 1], "padding": "valid", "dilation_rate": [1, 1], "trainable": true, "bias_initializer": {"config": {}, "class_name": "Zeros"}, "kernel_constraint": null, "name": "conv2d_45", "use_bias": false, "bias_regularizer": null}}, {"class_name": "Conv2D", "name": "conv2d_27", "inbound_nodes": [[["zero_padding2d_25", 0, 0, {}]]], "config": {"data_format": "channels_first", "kernel_initializer": {"config": {"mode": "fan_avg", "scale": 1.0, "distribution": "uniform", "seed": null}, "class_name": "VarianceScaling"}, "activity_regularizer": null, "bias_constraint": null, "kernel_size": [3, 3], "kernel_regularizer": null, "filters": 64, "activation": "linear", "strides": [1, 1], "padding": "valid", "dilation_rate": [1, 1], "trainable": true, "bias_initializer": {"config": {}, "class_name": "Zeros"}, "kernel_constraint": null, "name": "conv2d_27", "use_bias": false, "bias_regularizer": null}}, {"class_name": "Concatenate", "name": "concatenate_14", "inbound_nodes": [[["conv2d_43", 0, 0, {}], ["conv2d_44", 0, 0, {}], ["conv2d_45", 0, 0, {}]]], "config": {"name": "concatenate_14", "trainable": true, "axis": 1}}, {"class_name": "Concatenate", "name": "concatenate_8", "inbound_nodes": [[["conv2d_25", 0, 0, {}], ["conv2d_26", 0, 0, {}], ["conv2d_27", 0, 0, {}]]], "config": {"name": "concatenate_8", "trainable": true, "axis": 1}}, {"class_name": "Add", "name": "add_15", "inbound_nodes": [[["concatenate_14", 0, 0, {}], ["add_14", 0, 0, {}]]], "config": {"name": "add_15", "trainable": true}}, {"class_name": "Add", "name": "add_8", "inbound_nodes": [[["concatenate_8", 0, 0, {}], ["add_7", 0, 0, {}]]], "config": {"name": "add_8", "trainable": true}}, {"class_name": "UpSampling2D", "name": "up_sampling2d_2", "inbound_nodes": [[["add_15", 0, 0, {}]]], "config": {"data_format": "channels_first", "name": "up_sampling2d_2", "size": [2, 2], "trainable": true}}, {"class_name": "Add", "name": "add_16", "inbound_nodes": [[["add_8", 0, 0, {}], ["up_sampling2d_2", 0, 0, {}]]], "config": {"name": "add_16", "trainable": true}}, {"class_name": "TorchBatchNorm2D", "name": "torch_batch_norm2d_46", "inbound_nodes": [[["add_16", 0, 0, {}]]], "config": {"epsilon": 1e-05, "name": "torch_batch_norm2d_46", "momentum": 0.1, "trainable": true, "axis": 1}}, {"class_name": "TorchBatchNorm2D", "name": "torch_batch_norm2d_19", "inbound_nodes": [[["add_5", 0, 0, {}]]], "config": {"epsilon": 1e-05, "name": "torch_batch_norm2d_19", "momentum": 0.1, "trainable": true, "axis": 1}}, {"class_name": "Activation", "name": "activation_46", "inbound_nodes": [[["torch_batch_norm2d_46", 0, 0, {}]]], "config": {"activation": "relu", "name": "activation_46", "trainable": true}}, {"class_name": "Activation", "name": "activation_19", "inbound_nodes": [[["torch_batch_norm2d_19", 0, 0, {}]]], "config": {"activation": "relu", "name": "activation_19", "trainable": true}}, {"class_name": "ZeroPadding2D", "name": "zero_padding2d_44", "inbound_nodes": [[["activation_46", 0, 0, {}]]], "config": {"padding": [[1, 1], [1, 1]], "data_format": "channels_first", "name": "zero_padding2d_44", "trainable": true}}, {"class_name": "ZeroPadding2D", "name": "zero_padding2d_17", "inbound_nodes": [[["activation_19", 0, 0, {}]]], "config": {"padding": [[1, 1], [1, 1]], "data_format": "channels_first", "name": "zero_padding2d_17", "trainable": true}}, {"class_name": "Conv2D", "name": "conv2d_46", "inbound_nodes": [[["zero_padding2d_44", 0, 0, {}]]], "config": {"data_format": "channels_first", "kernel_initializer": {"config": {"mode": "fan_avg", "scale": 1.0, "distribution": "uniform", "seed": null}, "class_name": "VarianceScaling"}, "activity_regularizer": null, "bias_constraint": null, "kernel_size": [3, 3], "kernel_regularizer": null, "filters": 128, "activation": "linear", "strides": [1, 1], "padding": "valid", "dilation_rate": [1, 1], "trainable": true, "bias_initializer": {"config": {}, "class_name": "Zeros"}, "kernel_constraint": null, "name": "conv2d_46", "use_bias": false, "bias_regularizer": null}}, {"class_name": "Conv2D", "name": "conv2d_19", "inbound_nodes": [[["zero_padding2d_17", 0, 0, {}]]], "config": {"data_format": "channels_first", "kernel_initializer": {"config": {"mode": "fan_avg", "scale": 1.0, "distribution": "uniform", "seed": null}, "class_name": "VarianceScaling"}, "activity_regularizer": null, "bias_constraint": null, "kernel_size": [3, 3], "kernel_regularizer": null, "filters": 128, "activation": "linear", "strides": [1, 1], "padding": "valid", "dilation_rate": [1, 1], "trainable": true, "bias_initializer": {"config": {}, "class_name": "Zeros"}, "kernel_constraint": null, "name": "conv2d_19", "use_bias": false, "bias_regularizer": null}}, {"class_name": "TorchBatchNorm2D", "name": "torch_batch_norm2d_47", "inbound_nodes": [[["conv2d_46", 0, 0, {}]]], "config": {"epsilon": 1e-05, "name": "torch_batch_norm2d_47", "momentum": 0.1, "trainable": true, "axis": 1}}, {"class_name": "TorchBatchNorm2D", "name": "torch_batch_norm2d_20", "inbound_nodes": [[["conv2d_19", 0, 0, {}]]], "config": {"epsilon": 1e-05, "name": "torch_batch_norm2d_20", "momentum": 0.1, "trainable": true, "axis": 1}}, {"class_name": "Activation", "name": "activation_47", "inbound_nodes": [[["torch_batch_norm2d_47", 0, 0, {}]]], "config": {"activation": "relu", "name": "activation_47", "trainable": true}}, {"class_name": "Activation", "name": "activation_20", "inbound_nodes": [[["torch_batch_norm2d_20", 0, 0, {}]]], "config": {"activation": "relu", "name": "activation_20", "trainable": true}}, {"class_name": "ZeroPadding2D", "name": "zero_padding2d_45", "inbound_nodes": [[["activation_47", 0, 0, {}]]], "config": {"padding": [[1, 1], [1, 1]], "data_format": "channels_first", "name": "zero_padding2d_45", "trainable": true}}, {"class_name": "ZeroPadding2D", "name": "zero_padding2d_18", "inbound_nodes": [[["activation_20", 0, 0, {}]]], "config": {"padding": [[1, 1], [1, 1]], "data_format": "channels_first", "name": "zero_padding2d_18", "trainable": true}}, {"class_name": "Conv2D", "name": "conv2d_47", "inbound_nodes": [[["zero_padding2d_45", 0, 0, {}]]], "config": {"data_format": "channels_first", "kernel_initializer": {"config": {"mode": "fan_avg", "scale": 1.0, "distribution": "uniform", "seed": null}, "class_name": "VarianceScaling"}, "activity_regularizer": null, "bias_constraint": null, "kernel_size": [3, 3], "kernel_regularizer": null, "filters": 64, "activation": "linear", "strides": [1, 1], "padding": "valid", "dilation_rate": [1, 1], "trainable": true, "bias_initializer": {"config": {}, "class_name": "Zeros"}, "kernel_constraint": null, "name": "conv2d_47", "use_bias": false, "bias_regularizer": null}}, {"class_name": "Conv2D", "name": "conv2d_20", "inbound_nodes": [[["zero_padding2d_18", 0, 0, {}]]], "config": {"data_format": "channels_first", "kernel_initializer": {"config": {"mode": "fan_avg", "scale": 1.0, "distribution": "uniform", "seed": null}, "class_name": "VarianceScaling"}, "activity_regularizer": null, "bias_constraint": null, "kernel_size": [3, 3], "kernel_regularizer": null, "filters": 64, "activation": "linear", "strides": [1, 1], "padding": "valid", "dilation_rate": [1, 1], "trainable": true, "bias_initializer": {"config": {}, "class_name": "Zeros"}, "kernel_constraint": null, "name": "conv2d_20", "use_bias": false, "bias_regularizer": null}}, {"class_name": "TorchBatchNorm2D", "name": "torch_batch_norm2d_48", "inbound_nodes": [[["conv2d_47", 0, 0, {}]]], "config": {"epsilon": 1e-05, "name": "torch_batch_norm2d_48", "momentum": 0.1, "trainable": true, "axis": 1}}, {"class_name": "TorchBatchNorm2D", "name": "torch_batch_norm2d_21", "inbound_nodes": [[["conv2d_20", 0, 0, {}]]], "config": {"epsilon": 1e-05, "name": "torch_batch_norm2d_21", "momentum": 0.1, "trainable": true, "axis": 1}}, {"class_name": "Activation", "name": "activation_48", "inbound_nodes": [[["torch_batch_norm2d_48", 0, 0, {}]]], "config": {"activation": "relu", "name": "activation_48", "trainable": true}}, {"class_name": "Activation", "name": "activation_21", "inbound_nodes": [[["torch_batch_norm2d_21", 0, 0, {}]]], "config": {"activation": "relu", "name": "activation_21", "trainable": true}}, {"class_name": "ZeroPadding2D", "name": "zero_padding2d_46", "inbound_nodes": [[["activation_48", 0, 0, {}]]], "config": {"padding": [[1, 1], [1, 1]], "data_format": "channels_first", "name": "zero_padding2d_46", "trainable": true}}, {"class_name": "ZeroPadding2D", "name": "zero_padding2d_19", "inbound_nodes": [[["activation_21", 0, 0, {}]]], "config": {"padding": [[1, 1], [1, 1]], "data_format": "channels_first", "name": "zero_padding2d_19", "trainable": true}}, {"class_name": "Conv2D", "name": "conv2d_48", "inbound_nodes": [[["zero_padding2d_46", 0, 0, {}]]], "config": {"data_format": "channels_first", "kernel_initializer": {"config": {"mode": "fan_avg", "scale": 1.0, "distribution": "uniform", "seed": null}, "class_name": "VarianceScaling"}, "activity_regularizer": null, "bias_constraint": null, "kernel_size": [3, 3], "kernel_regularizer": null, "filters": 64, "activation": "linear", "strides": [1, 1], "padding": "valid", "dilation_rate": [1, 1], "trainable": true, "bias_initializer": {"config": {}, "class_name": "Zeros"}, "kernel_constraint": null, "name": "conv2d_48", "use_bias": false, "bias_regularizer": null}}, {"class_name": "Conv2D", "name": "conv2d_21", "inbound_nodes": [[["zero_padding2d_19", 0, 0, {}]]], "config": {"data_format": "channels_first", "kernel_initializer": {"config": {"mode": "fan_avg", "scale": 1.0, "distribution": "uniform", "seed": null}, "class_name": "VarianceScaling"}, "activity_regularizer": null, "bias_constraint": null, "kernel_size": [3, 3], "kernel_regularizer": null, "filters": 64, "activation": "linear", "strides": [1, 1], "padding": "valid", "dilation_rate": [1, 1], "trainable": true, "bias_initializer": {"config": {}, "class_name": "Zeros"}, "kernel_constraint": null, "name": "conv2d_21", "use_bias": false, "bias_regularizer": null}}, {"class_name": "Concatenate", "name": "concatenate_15", "inbound_nodes": [[["conv2d_46", 0, 0, {}], ["conv2d_47", 0, 0, {}], ["conv2d_48", 0, 0, {}]]], "config": {"name": "concatenate_15", "trainable": true, "axis": 1}}, {"class_name": "Concatenate", "name": "concatenate_6", "inbound_nodes": [[["conv2d_19", 0, 0, {}], ["conv2d_20", 0, 0, {}], ["conv2d_21", 0, 0, {}]]], "config": {"name": "concatenate_6", "trainable": true, "axis": 1}}, {"class_name": "Add", "name": "add_17", "inbound_nodes": [[["concatenate_15", 0, 0, {}], ["add_16", 0, 0, {}]]], "config": {"name": "add_17", "trainable": true}}, {"class_name": "Add", "name": "add_6", "inbound_nodes": [[["concatenate_6", 0, 0, {}], ["add_5", 0, 0, {}]]], "config": {"name": "add_6", "trainable": true}}, {"class_name": "UpSampling2D", "name": "up_sampling2d_3", "inbound_nodes": [[["add_17", 0, 0, {}]]], "config": {"data_format": "channels_first", "name": "up_sampling2d_3", "size": [2, 2], "trainable": true}}, {"class_name": "Add", "name": "add_18", "inbound_nodes": [[["add_6", 0, 0, {}], ["up_sampling2d_3", 0, 0, {}]]], "config": {"name": "add_18", "trainable": true}}, {"class_name": "TorchBatchNorm2D", "name": "torch_batch_norm2d_49", "inbound_nodes": [[["add_18", 0, 0, {}]]], "config": {"epsilon": 1e-05, "name": "torch_batch_norm2d_49", "momentum": 0.1, "trainable": true, "axis": 1}}, {"class_name": "TorchBatchNorm2D", "name": "torch_batch_norm2d_13", "inbound_nodes": [[["add_3", 0, 0, {}]]], "config": {"epsilon": 1e-05, "name": "torch_batch_norm2d_13", "momentum": 0.1, "trainable": true, "axis": 1}}, {"class_name": "Activation", "name": "activation_49", "inbound_nodes": [[["torch_batch_norm2d_49", 0, 0, {}]]], "config": {"activation": "relu", "name": "activation_49", "trainable": true}}, {"class_name": "Activation", "name": "activation_13", "inbound_nodes": [[["torch_batch_norm2d_13", 0, 0, {}]]], "config": {"activation": "relu", "name": "activation_13", "trainable": true}}, {"class_name": "ZeroPadding2D", "name": "zero_padding2d_47", "inbound_nodes": [[["activation_49", 0, 0, {}]]], "config": {"padding": [[1, 1], [1, 1]], "data_format": "channels_first", "name": "zero_padding2d_47", "trainable": true}}, {"class_name": "ZeroPadding2D", "name": "zero_padding2d_11", "inbound_nodes": [[["activation_13", 0, 0, {}]]], "config": {"padding": [[1, 1], [1, 1]], "data_format": "channels_first", "name": "zero_padding2d_11", "trainable": true}}, {"class_name": "Conv2D", "name": "conv2d_49", "inbound_nodes": [[["zero_padding2d_47", 0, 0, {}]]], "config": {"data_format": "channels_first", "kernel_initializer": {"config": {"mode": "fan_avg", "scale": 1.0, "distribution": "uniform", "seed": null}, "class_name": "VarianceScaling"}, "activity_regularizer": null, "bias_constraint": null, "kernel_size": [3, 3], "kernel_regularizer": null, "filters": 128, "activation": "linear", "strides": [1, 1], "padding": "valid", "dilation_rate": [1, 1], "trainable": true, "bias_initializer": {"config": {}, "class_name": "Zeros"}, "kernel_constraint": null, "name": "conv2d_49", "use_bias": false, "bias_regularizer": null}}, {"class_name": "Conv2D", "name": "conv2d_13", "inbound_nodes": [[["zero_padding2d_11", 0, 0, {}]]], "config": {"data_format": "channels_first", "kernel_initializer": {"config": {"mode": "fan_avg", "scale": 1.0, "distribution": "uniform", "seed": null}, "class_name": "VarianceScaling"}, "activity_regularizer": null, "bias_constraint": null, "kernel_size": [3, 3], "kernel_regularizer": null, "filters": 128, "activation": "linear", "strides": [1, 1], "padding": "valid", "dilation_rate": [1, 1], "trainable": true, "bias_initializer": {"config": {}, "class_name": "Zeros"}, "kernel_constraint": null, "name": "conv2d_13", "use_bias": false, "bias_regularizer": null}}, {"class_name": "TorchBatchNorm2D", "name": "torch_batch_norm2d_50", "inbound_nodes": [[["conv2d_49", 0, 0, {}]]], "config": {"epsilon": 1e-05, "name": "torch_batch_norm2d_50", "momentum": 0.1, "trainable": true, "axis": 1}}, {"class_name": "TorchBatchNorm2D", "name": "torch_batch_norm2d_14", "inbound_nodes": [[["conv2d_13", 0, 0, {}]]], "config": {"epsilon": 1e-05, "name": "torch_batch_norm2d_14", "momentum": 0.1, "trainable": true, "axis": 1}}, {"class_name": "Activation", "name": "activation_50", "inbound_nodes": [[["torch_batch_norm2d_50", 0, 0, {}]]], "config": {"activation": "relu", "name": "activation_50", "trainable": true}}, {"class_name": "Activation", "name": "activation_14", "inbound_nodes": [[["torch_batch_norm2d_14", 0, 0, {}]]], "config": {"activation": "relu", "name": "activation_14", "trainable": true}}, {"class_name": "ZeroPadding2D", "name": "zero_padding2d_48", "inbound_nodes": [[["activation_50", 0, 0, {}]]], "config": {"padding": [[1, 1], [1, 1]], "data_format": "channels_first", "name": "zero_padding2d_48", "trainable": true}}, {"class_name": "ZeroPadding2D", "name": "zero_padding2d_12", "inbound_nodes": [[["activation_14", 0, 0, {}]]], "config": {"padding": [[1, 1], [1, 1]], "data_format": "channels_first", "name": "zero_padding2d_12", "trainable": true}}, {"class_name": "Conv2D", "name": "conv2d_50", "inbound_nodes": [[["zero_padding2d_48", 0, 0, {}]]], "config": {"data_format": "channels_first", "kernel_initializer": {"config": {"mode": "fan_avg", "scale": 1.0, "distribution": "uniform", "seed": null}, "class_name": "VarianceScaling"}, "activity_regularizer": null, "bias_constraint": null, "kernel_size": [3, 3], "kernel_regularizer": null, "filters": 64, "activation": "linear", "strides": [1, 1], "padding": "valid", "dilation_rate": [1, 1], "trainable": true, "bias_initializer": {"config": {}, "class_name": "Zeros"}, "kernel_constraint": null, "name": "conv2d_50", "use_bias": false, "bias_regularizer": null}}, {"class_name": "Conv2D", "name": "conv2d_14", "inbound_nodes": [[["zero_padding2d_12", 0, 0, {}]]], "config": {"data_format": "channels_first", "kernel_initializer": {"config": {"mode": "fan_avg", "scale": 1.0, "distribution": "uniform", "seed": null}, "class_name": "VarianceScaling"}, "activity_regularizer": null, "bias_constraint": null, "kernel_size": [3, 3], "kernel_regularizer": null, "filters": 64, "activation": "linear", "strides": [1, 1], "padding": "valid", "dilation_rate": [1, 1], "trainable": true, "bias_initializer": {"config": {}, "class_name": "Zeros"}, "kernel_constraint": null, "name": "conv2d_14", "use_bias": false, "bias_regularizer": null}}, {"class_name": "TorchBatchNorm2D", "name": "torch_batch_norm2d_51", "inbound_nodes": [[["conv2d_50", 0, 0, {}]]], "config": {"epsilon": 1e-05, "name": "torch_batch_norm2d_51", "momentum": 0.1, "trainable": true, "axis": 1}}, {"class_name": "TorchBatchNorm2D", "name": "torch_batch_norm2d_15", "inbound_nodes": [[["conv2d_14", 0, 0, {}]]], "config": {"epsilon": 1e-05, "name": "torch_batch_norm2d_15", "momentum": 0.1, "trainable": true, "axis": 1}}, {"class_name": "Activation", "name": "activation_51", "inbound_nodes": [[["torch_batch_norm2d_51", 0, 0, {}]]], "config": {"activation": "relu", "name": "activation_51", "trainable": true}}, {"class_name": "Activation", "name": "activation_15", "inbound_nodes": [[["torch_batch_norm2d_15", 0, 0, {}]]], "config": {"activation": "relu", "name": "activation_15", "trainable": true}}, {"class_name": "ZeroPadding2D", "name": "zero_padding2d_49", "inbound_nodes": [[["activation_51", 0, 0, {}]]], "config": {"padding": [[1, 1], [1, 1]], "data_format": "channels_first", "name": "zero_padding2d_49", "trainable": true}}, {"class_name": "ZeroPadding2D", "name": "zero_padding2d_13", "inbound_nodes": [[["activation_15", 0, 0, {}]]], "config": {"padding": [[1, 1], [1, 1]], "data_format": "channels_first", "name": "zero_padding2d_13", "trainable": true}}, {"class_name": "Conv2D", "name": "conv2d_51", "inbound_nodes": [[["zero_padding2d_49", 0, 0, {}]]], "config": {"data_format": "channels_first", "kernel_initializer": {"config": {"mode": "fan_avg", "scale": 1.0, "distribution": "uniform", "seed": null}, "class_name": "VarianceScaling"}, "activity_regularizer": null, "bias_constraint": null, "kernel_size": [3, 3], "kernel_regularizer": null, "filters": 64, "activation": "linear", "strides": [1, 1], "padding": "valid", "dilation_rate": [1, 1], "trainable": true, "bias_initializer": {"config": {}, "class_name": "Zeros"}, "kernel_constraint": null, "name": "conv2d_51", "use_bias": false, "bias_regularizer": null}}, {"class_name": "Conv2D", "name": "conv2d_15", "inbound_nodes": [[["zero_padding2d_13", 0, 0, {}]]], "config": {"data_format": "channels_first", "kernel_initializer": {"config": {"mode": "fan_avg", "scale": 1.0, "distribution": "uniform", "seed": null}, "class_name": "VarianceScaling"}, "activity_regularizer": null, "bias_constraint": null, "kernel_size": [3, 3], "kernel_regularizer": null, "filters": 64, "activation": "linear", "strides": [1, 1], "padding": "valid", "dilation_rate": [1, 1], "trainable": true, "bias_initializer": {"config": {}, "class_name": "Zeros"}, "kernel_constraint": null, "name": "conv2d_15", "use_bias": false, "bias_regularizer": null}}, {"class_name": "Concatenate", "name": "concatenate_16", "inbound_nodes": [[["conv2d_49", 0, 0, {}], ["conv2d_50", 0, 0, {}], ["conv2d_51", 0, 0, {}]]], "config": {"name": "concatenate_16", "trainable": true, "axis": 1}}, {"class_name": "Concatenate", "name": "concatenate_4", "inbound_nodes": [[["conv2d_13", 0, 0, {}], ["conv2d_14", 0, 0, {}], ["conv2d_15", 0, 0, {}]]], "config": {"name": "concatenate_4", "trainable": true, "axis": 1}}, {"class_name": "Add", "name": "add_19", "inbound_nodes": [[["concatenate_16", 0, 0, {}], ["add_18", 0, 0, {}]]], "config": {"name": "add_19", "trainable": true}}, {"class_name": "Add", "name": "add_4", "inbound_nodes": [[["concatenate_4", 0, 0, {}], ["add_3", 0, 0, {}]]], "config": {"name": "add_4", "trainable": true}}, {"class_name": "UpSampling2D", "name": "up_sampling2d_4", "inbound_nodes": [[["add_19", 0, 0, {}]]], "config": {"data_format": "channels_first", "name": "up_sampling2d_4", "size": [2, 2], "trainable": true}}, {"class_name": "Add", "name": "add_20", "inbound_nodes": [[["add_4", 0, 0, {}], ["up_sampling2d_4", 0, 0, {}]]], "config": {"name": "add_20", "trainable": true}}, {"class_name": "TorchBatchNorm2D", "name": "torch_batch_norm2d_52", "inbound_nodes": [[["add_20", 0, 0, {}]]], "config": {"epsilon": 1e-05, "name": "torch_batch_norm2d_52", "momentum": 0.1, "trainable": true, "axis": 1}}, {"class_name": "Activation", "name": "activation_52", "inbound_nodes": [[["torch_batch_norm2d_52", 0, 0, {}]]], "config": {"activation": "relu", "name": "activation_52", "trainable": true}}, {"class_name": "ZeroPadding2D", "name": "zero_padding2d_50", "inbound_nodes": [[["activation_52", 0, 0, {}]]], "config": {"padding": [[1, 1], [1, 1]], "data_format": "channels_first", "name": "zero_padding2d_50", "trainable": true}}, {"class_name": "Conv2D", "name": "conv2d_52", "inbound_nodes": [[["zero_padding2d_50", 0, 0, {}]]], "config": {"data_format": "channels_first", "kernel_initializer": {"config": {"mode": "fan_avg", "scale": 1.0, "distribution": "uniform", "seed": null}, "class_name": "VarianceScaling"}, "activity_regularizer": null, "bias_constraint": null, "kernel_size": [3, 3], "kernel_regularizer": null, "filters": 128, "activation": "linear", "strides": [1, 1], "padding": "valid", "dilation_rate": [1, 1], "trainable": true, "bias_initializer": {"config": {}, "class_name": "Zeros"}, "kernel_constraint": null, "name": "conv2d_52", "use_bias": false, "bias_regularizer": null}}, {"class_name": "TorchBatchNorm2D", "name": "torch_batch_norm2d_53", "inbound_nodes": [[["conv2d_52", 0, 0, {}]]], "config": {"epsilon": 1e-05, "name": "torch_batch_norm2d_53", "momentum": 0.1, "trainable": true, "axis": 1}}, {"class_name": "Activation", "name": "activation_53", "inbound_nodes": [[["torch_batch_norm2d_53", 0, 0, {}]]], "config": {"activation": "relu", "name": "activation_53", "trainable": true}}, {"class_name": "ZeroPadding2D", "name": "zero_padding2d_51", "inbound_nodes": [[["activation_53", 0, 0, {}]]], "config": {"padding": [[1, 1], [1, 1]], "data_format": "channels_first", "name": "zero_padding2d_51", "trainable": true}}, {"class_name": "Conv2D", "name": "conv2d_53", "inbound_nodes": [[["zero_padding2d_51", 0, 0, {}]]], "config": {"data_format": "channels_first", "kernel_initializer": {"config": {"mode": "fan_avg", "scale": 1.0, "distribution": "uniform", "seed": null}, "class_name": "VarianceScaling"}, "activity_regularizer": null, "bias_constraint": null, "kernel_size": [3, 3], "kernel_regularizer": null, "filters": 64, "activation": "linear", "strides": [1, 1], "padding": "valid", "dilation_rate": [1, 1], "trainable": true, "bias_initializer": {"config": {}, "class_name": "Zeros"}, "kernel_constraint": null, "name": "conv2d_53", "use_bias": false, "bias_regularizer": null}}, {"class_name": "TorchBatchNorm2D", "name": "torch_batch_norm2d_54", "inbound_nodes": [[["conv2d_53", 0, 0, {}]]], "config": {"epsilon": 1e-05, "name": "torch_batch_norm2d_54", "momentum": 0.1, "trainable": true, "axis": 1}}, {"class_name": "Activation", "name": "activation_54", "inbound_nodes": [[["torch_batch_norm2d_54", 0, 0, {}]]], "config": {"activation": "relu", "name": "activation_54", "trainable": true}}, {"class_name": "ZeroPadding2D", "name": "zero_padding2d_52", "inbound_nodes": [[["activation_54", 0, 0, {}]]], "config": {"padding": [[1, 1], [1, 1]], "data_format": "channels_first", "name": "zero_padding2d_52", "trainable": true}}, {"class_name": "Conv2D", "name": "conv2d_54", "inbound_nodes": [[["zero_padding2d_52", 0, 0, {}]]], "config": {"data_format": "channels_first", "kernel_initializer": {"config": {"mode": "fan_avg", "scale": 1.0, "distribution": "uniform", "seed": null}, "class_name": "VarianceScaling"}, "activity_regularizer": null, "bias_constraint": null, "kernel_size": [3, 3], "kernel_regularizer": null, "filters": 64, "activation": "linear", "strides": [1, 1], "padding": "valid", "dilation_rate": [1, 1], "trainable": true, "bias_initializer": {"config": {}, "class_name": "Zeros"}, "kernel_constraint": null, "name": "conv2d_54", "use_bias": false, "bias_regularizer": null}}, {"class_name": "Concatenate", "name": "concatenate_17", "inbound_nodes": [[["conv2d_52", 0, 0, {}], ["conv2d_53", 0, 0, {}], ["conv2d_54", 0, 0, {}]]], "config": {"name": "concatenate_17", "trainable": true, "axis": 1}}, {"class_name": "Add", "name": "add_21", "inbound_nodes": [[["concatenate_17", 0, 0, {}], ["add_20", 0, 0, {}]]], "config": {"name": "add_21", "trainable": true}}, {"class_name": "Conv2D", "name": "conv2d_55", "inbound_nodes": [[["add_21", 0, 0, {}]]], "config": {"data_format": "channels_first", "kernel_initializer": {"config": {"mode": "fan_avg", "scale": 1.0, "distribution": "uniform", "seed": null}, "class_name": "VarianceScaling"}, "activity_regularizer": null, "bias_constraint": null, "kernel_size": [1, 1], "kernel_regularizer": null, "filters": 256, "activation": "linear", "strides": [1, 1], "padding": "valid", "dilation_rate": [1, 1], "trainable": true, "bias_initializer": {"config": {}, "class_name": "Zeros"}, "kernel_constraint": null, "name": "conv2d_55", "use_bias": true, "bias_regularizer": null}}, {"class_name": "TorchBatchNorm2D", "name": "torch_batch_norm2d_55", "inbound_nodes": [[["conv2d_55", 0, 0, {}]]], "config": {"epsilon": 1e-05, "name": "torch_batch_norm2d_55", "momentum": 0.1, "trainable": true, "axis": 1}}, {"class_name": "Activation", "name": "activation_55", "inbound_nodes": [[["torch_batch_norm2d_55", 0, 0, {}]]], "config": {"activation": "relu", "name": "activation_55", "trainable": true}}, {"class_name": "Conv2D", "name": "conv2d_56", "inbound_nodes": [[["activation_55", 0, 0, {}]]], "config": {"data_format": "channels_first", "kernel_initializer": {"config": {"mode": "fan_avg", "scale": 1.0, "distribution": "uniform", "seed": null}, "class_name": "VarianceScaling"}, "activity_regularizer": null, "bias_constraint": null, "kernel_size": [1, 1], "kernel_regularizer": null, "filters": 68, "activation": "linear", "strides": [1, 1], "padding": "valid", "dilation_rate": [1, 1], "trainable": true, "bias_initializer": {"config": {}, "class_name": "Zeros"}, "kernel_constraint": null, "name": "conv2d_56", "use_bias": true, "bias_regularizer": null}}, {"class_name": "Conv2D", "name": "conv2d_57", "inbound_nodes": [[["activation_55", 0, 0, {}]]], "config": {"data_format": "channels_first", "kernel_initializer": {"config": {"mode": "fan_avg", "scale": 1.0, "distribution": "uniform", "seed": null}, "class_name": "VarianceScaling"}, "activity_regularizer": null, "bias_constraint": null, "kernel_size": [1, 1], "kernel_regularizer": null, "filters": 256, "activation": "linear", "strides": [1, 1], "padding": "valid", "dilation_rate": [1, 1], "trainable": true, "bias_initializer": {"config": {}, "class_name": "Zeros"}, "kernel_constraint": null, "name": "conv2d_57", "use_bias": true, "bias_regularizer": null}}, {"class_name": "Conv2D", "name": "conv2d_58", "inbound_nodes": [[["conv2d_56", 0, 0, {}]]], "config": {"data_format": "channels_first", "kernel_initializer": {"config": {"mode": "fan_avg", "scale": 1.0, "distribution": "uniform", "seed": null}, "class_name": "VarianceScaling"}, "activity_regularizer": null, "bias_constraint": null, "kernel_size": [1, 1], "kernel_regularizer": null, "filters": 256, "activation": "linear", "strides": [1, 1], "padding": "valid", "dilation_rate": [1, 1], "trainable": true, "bias_initializer": {"config": {}, "class_name": "Zeros"}, "kernel_constraint": null, "name": "conv2d_58", "use_bias": true, "bias_regularizer": null}}, {"class_name": "Add", "name": "add_22", "inbound_nodes": [[["add_3", 0, 0, {}], ["conv2d_57", 0, 0, {}], ["conv2d_58", 0, 0, {}]]], "config": {"name": "add_22", "trainable": true}}, {"class_name": "AveragePooling2D", "name": "average_pooling2d_6", "inbound_nodes": [[["add_22", 0, 0, {}]]], "config": {"data_format": "channels_first", "strides": [2, 2], "trainable": true, "padding": "valid", "name": "average_pooling2d_6", "pool_size": [2, 2]}}, {"class_name": "TorchBatchNorm2D", "name": "torch_batch_norm2d_59", "inbound_nodes": [[["average_pooling2d_6", 0, 0, {}]]], "config": {"epsilon": 1e-05, "name": "torch_batch_norm2d_59", "momentum": 0.1, "trainable": true, "axis": 1}}, {"class_name": "Activation", "name": "activation_59", "inbound_nodes": [[["torch_batch_norm2d_59", 0, 0, {}]]], "config": {"activation": "relu", "name": "activation_59", "trainable": true}}, {"class_name": "ZeroPadding2D", "name": "zero_padding2d_56", "inbound_nodes": [[["activation_59", 0, 0, {}]]], "config": {"padding": [[1, 1], [1, 1]], "data_format": "channels_first", "name": "zero_padding2d_56", "trainable": true}}, {"class_name": "Conv2D", "name": "conv2d_62", "inbound_nodes": [[["zero_padding2d_56", 0, 0, {}]]], "config": {"data_format": "channels_first", "kernel_initializer": {"config": {"mode": "fan_avg", "scale": 1.0, "distribution": "uniform", "seed": null}, "class_name": "VarianceScaling"}, "activity_regularizer": null, "bias_constraint": null, "kernel_size": [3, 3], "kernel_regularizer": null, "filters": 128, "activation": "linear", "strides": [1, 1], "padding": "valid", "dilation_rate": [1, 1], "trainable": true, "bias_initializer": {"config": {}, "class_name": "Zeros"}, "kernel_constraint": null, "name": "conv2d_62", "use_bias": false, "bias_regularizer": null}}, {"class_name": "TorchBatchNorm2D", "name": "torch_batch_norm2d_60", "inbound_nodes": [[["conv2d_62", 0, 0, {}]]], "config": {"epsilon": 1e-05, "name": "torch_batch_norm2d_60", "momentum": 0.1, "trainable": true, "axis": 1}}, {"class_name": "Activation", "name": "activation_60", "inbound_nodes": [[["torch_batch_norm2d_60", 0, 0, {}]]], "config": {"activation": "relu", "name": "activation_60", "trainable": true}}, {"class_name": "ZeroPadding2D", "name": "zero_padding2d_57", "inbound_nodes": [[["activation_60", 0, 0, {}]]], "config": {"padding": [[1, 1], [1, 1]], "data_format": "channels_first", "name": "zero_padding2d_57", "trainable": true}}, {"class_name": "Conv2D", "name": "conv2d_63", "inbound_nodes": [[["zero_padding2d_57", 0, 0, {}]]], "config": {"data_format": "channels_first", "kernel_initializer": {"config": {"mode": "fan_avg", "scale": 1.0, "distribution": "uniform", "seed": null}, "class_name": "VarianceScaling"}, "activity_regularizer": null, "bias_constraint": null, "kernel_size": [3, 3], "kernel_regularizer": null, "filters": 64, "activation": "linear", "strides": [1, 1], "padding": "valid", "dilation_rate": [1, 1], "trainable": true, "bias_initializer": {"config": {}, "class_name": "Zeros"}, "kernel_constraint": null, "name": "conv2d_63", "use_bias": false, "bias_regularizer": null}}, {"class_name": "TorchBatchNorm2D", "name": "torch_batch_norm2d_61", "inbound_nodes": [[["conv2d_63", 0, 0, {}]]], "config": {"epsilon": 1e-05, "name": "torch_batch_norm2d_61", "momentum": 0.1, "trainable": true, "axis": 1}}, {"class_name": "Activation", "name": "activation_61", "inbound_nodes": [[["torch_batch_norm2d_61", 0, 0, {}]]], "config": {"activation": "relu", "name": "activation_61", "trainable": true}}, {"class_name": "ZeroPadding2D", "name": "zero_padding2d_58", "inbound_nodes": [[["activation_61", 0, 0, {}]]], "config": {"padding": [[1, 1], [1, 1]], "data_format": "channels_first", "name": "zero_padding2d_58", "trainable": true}}, {"class_name": "Conv2D", "name": "conv2d_64", "inbound_nodes": [[["zero_padding2d_58", 0, 0, {}]]], "config": {"data_format": "channels_first", "kernel_initializer": {"config": {"mode": "fan_avg", "scale": 1.0, "distribution": "uniform", "seed": null}, "class_name": "VarianceScaling"}, "activity_regularizer": null, "bias_constraint": null, "kernel_size": [3, 3], "kernel_regularizer": null, "filters": 64, "activation": "linear", "strides": [1, 1], "padding": "valid", "dilation_rate": [1, 1], "trainable": true, "bias_initializer": {"config": {}, "class_name": "Zeros"}, "kernel_constraint": null, "name": "conv2d_64", "use_bias": false, "bias_regularizer": null}}, {"class_name": "Concatenate", "name": "concatenate_19", "inbound_nodes": [[["conv2d_62", 0, 0, {}], ["conv2d_63", 0, 0, {}], ["conv2d_64", 0, 0, {}]]], "config": {"name": "concatenate_19", "trainable": true, "axis": 1}}, {"class_name": "Add", "name": "add_24", "inbound_nodes": [[["concatenate_19", 0, 0, {}], ["average_pooling2d_6", 0, 0, {}]]], "config": {"name": "add_24", "trainable": true}}, {"class_name": "AveragePooling2D", "name": "average_pooling2d_7", "inbound_nodes": [[["add_24", 0, 0, {}]]], "config": {"data_format": "channels_first", "strides": [2, 2], "trainable": true, "padding": "valid", "name": "average_pooling2d_7", "pool_size": [2, 2]}}, {"class_name": "TorchBatchNorm2D", "name": "torch_batch_norm2d_65", "inbound_nodes": [[["average_pooling2d_7", 0, 0, {}]]], "config": {"epsilon": 1e-05, "name": "torch_batch_norm2d_65", "momentum": 0.1, "trainable": true, "axis": 1}}, {"class_name": "Activation", "name": "activation_65", "inbound_nodes": [[["torch_batch_norm2d_65", 0, 0, {}]]], "config": {"activation": "relu", "name": "activation_65", "trainable": true}}, {"class_name": "ZeroPadding2D", "name": "zero_padding2d_62", "inbound_nodes": [[["activation_65", 0, 0, {}]]], "config": {"padding": [[1, 1], [1, 1]], "data_format": "channels_first", "name": "zero_padding2d_62", "trainable": true}}, {"class_name": "Conv2D", "name": "conv2d_68", "inbound_nodes": [[["zero_padding2d_62", 0, 0, {}]]], "config": {"data_format": "channels_first", "kernel_initializer": {"config": {"mode": "fan_avg", "scale": 1.0, "distribution": "uniform", "seed": null}, "class_name": "VarianceScaling"}, "activity_regularizer": null, "bias_constraint": null, "kernel_size": [3, 3], "kernel_regularizer": null, "filters": 128, "activation": "linear", "strides": [1, 1], "padding": "valid", "dilation_rate": [1, 1], "trainable": true, "bias_initializer": {"config": {}, "class_name": "Zeros"}, "kernel_constraint": null, "name": "conv2d_68", "use_bias": false, "bias_regularizer": null}}, {"class_name": "TorchBatchNorm2D", "name": "torch_batch_norm2d_66", "inbound_nodes": [[["conv2d_68", 0, 0, {}]]], "config": {"epsilon": 1e-05, "name": "torch_batch_norm2d_66", "momentum": 0.1, "trainable": true, "axis": 1}}, {"class_name": "Activation", "name": "activation_66", "inbound_nodes": [[["torch_batch_norm2d_66", 0, 0, {}]]], "config": {"activation": "relu", "name": "activation_66", "trainable": true}}, {"class_name": "ZeroPadding2D", "name": "zero_padding2d_63", "inbound_nodes": [[["activation_66", 0, 0, {}]]], "config": {"padding": [[1, 1], [1, 1]], "data_format": "channels_first", "name": "zero_padding2d_63", "trainable": true}}, {"class_name": "Conv2D", "name": "conv2d_69", "inbound_nodes": [[["zero_padding2d_63", 0, 0, {}]]], "config": {"data_format": "channels_first", "kernel_initializer": {"config": {"mode": "fan_avg", "scale": 1.0, "distribution": "uniform", "seed": null}, "class_name": "VarianceScaling"}, "activity_regularizer": null, "bias_constraint": null, "kernel_size": [3, 3], "kernel_regularizer": null, "filters": 64, "activation": "linear", "strides": [1, 1], "padding": "valid", "dilation_rate": [1, 1], "trainable": true, "bias_initializer": {"config": {}, "class_name": "Zeros"}, "kernel_constraint": null, "name": "conv2d_69", "use_bias": false, "bias_regularizer": null}}, {"class_name": "TorchBatchNorm2D", "name": "torch_batch_norm2d_67", "inbound_nodes": [[["conv2d_69", 0, 0, {}]]], "config": {"epsilon": 1e-05, "name": "torch_batch_norm2d_67", "momentum": 0.1, "trainable": true, "axis": 1}}, {"class_name": "Activation", "name": "activation_67", "inbound_nodes": [[["torch_batch_norm2d_67", 0, 0, {}]]], "config": {"activation": "relu", "name": "activation_67", "trainable": true}}, {"class_name": "ZeroPadding2D", "name": "zero_padding2d_64", "inbound_nodes": [[["activation_67", 0, 0, {}]]], "config": {"padding": [[1, 1], [1, 1]], "data_format": "channels_first", "name": "zero_padding2d_64", "trainable": true}}, {"class_name": "Conv2D", "name": "conv2d_70", "inbound_nodes": [[["zero_padding2d_64", 0, 0, {}]]], "config": {"data_format": "channels_first", "kernel_initializer": {"config": {"mode": "fan_avg", "scale": 1.0, "distribution": "uniform", "seed": null}, "class_name": "VarianceScaling"}, "activity_regularizer": null, "bias_constraint": null, "kernel_size": [3, 3], "kernel_regularizer": null, "filters": 64, "activation": "linear", "strides": [1, 1], "padding": "valid", "dilation_rate": [1, 1], "trainable": true, "bias_initializer": {"config": {}, "class_name": "Zeros"}, "kernel_constraint": null, "name": "conv2d_70", "use_bias": false, "bias_regularizer": null}}, {"class_name": "Concatenate", "name": "concatenate_21", "inbound_nodes": [[["conv2d_68", 0, 0, {}], ["conv2d_69", 0, 0, {}], ["conv2d_70", 0, 0, {}]]], "config": {"name": "concatenate_21", "trainable": true, "axis": 1}}, {"class_name": "Add", "name": "add_26", "inbound_nodes": [[["concatenate_21", 0, 0, {}], ["average_pooling2d_7", 0, 0, {}]]], "config": {"name": "add_26", "trainable": true}}, {"class_name": "AveragePooling2D", "name": "average_pooling2d_8", "inbound_nodes": [[["add_26", 0, 0, {}]]], "config": {"data_format": "channels_first", "strides": [2, 2], "trainable": true, "padding": "valid", "name": "average_pooling2d_8", "pool_size": [2, 2]}}, {"class_name": "TorchBatchNorm2D", "name": "torch_batch_norm2d_71", "inbound_nodes": [[["average_pooling2d_8", 0, 0, {}]]], "config": {"epsilon": 1e-05, "name": "torch_batch_norm2d_71", "momentum": 0.1, "trainable": true, "axis": 1}}, {"class_name": "Activation", "name": "activation_71", "inbound_nodes": [[["torch_batch_norm2d_71", 0, 0, {}]]], "config": {"activation": "relu", "name": "activation_71", "trainable": true}}, {"class_name": "ZeroPadding2D", "name": "zero_padding2d_68", "inbound_nodes": [[["activation_71", 0, 0, {}]]], "config": {"padding": [[1, 1], [1, 1]], "data_format": "channels_first", "name": "zero_padding2d_68", "trainable": true}}, {"class_name": "Conv2D", "name": "conv2d_74", "inbound_nodes": [[["zero_padding2d_68", 0, 0, {}]]], "config": {"data_format": "channels_first", "kernel_initializer": {"config": {"mode": "fan_avg", "scale": 1.0, "distribution": "uniform", "seed": null}, "class_name": "VarianceScaling"}, "activity_regularizer": null, "bias_constraint": null, "kernel_size": [3, 3], "kernel_regularizer": null, "filters": 128, "activation": "linear", "strides": [1, 1], "padding": "valid", "dilation_rate": [1, 1], "trainable": true, "bias_initializer": {"config": {}, "class_name": "Zeros"}, "kernel_constraint": null, "name": "conv2d_74", "use_bias": false, "bias_regularizer": null}}, {"class_name": "TorchBatchNorm2D", "name": "torch_batch_norm2d_72", "inbound_nodes": [[["conv2d_74", 0, 0, {}]]], "config": {"epsilon": 1e-05, "name": "torch_batch_norm2d_72", "momentum": 0.1, "trainable": true, "axis": 1}}, {"class_name": "Activation", "name": "activation_72", "inbound_nodes": [[["torch_batch_norm2d_72", 0, 0, {}]]], "config": {"activation": "relu", "name": "activation_72", "trainable": true}}, {"class_name": "ZeroPadding2D", "name": "zero_padding2d_69", "inbound_nodes": [[["activation_72", 0, 0, {}]]], "config": {"padding": [[1, 1], [1, 1]], "data_format": "channels_first", "name": "zero_padding2d_69", "trainable": true}}, {"class_name": "Conv2D", "name": "conv2d_75", "inbound_nodes": [[["zero_padding2d_69", 0, 0, {}]]], "config": {"data_format": "channels_first", "kernel_initializer": {"config": {"mode": "fan_avg", "scale": 1.0, "distribution": "uniform", "seed": null}, "class_name": "VarianceScaling"}, "activity_regularizer": null, "bias_constraint": null, "kernel_size": [3, 3], "kernel_regularizer": null, "filters": 64, "activation": "linear", "strides": [1, 1], "padding": "valid", "dilation_rate": [1, 1], "trainable": true, "bias_initializer": {"config": {}, "class_name": "Zeros"}, "kernel_constraint": null, "name": "conv2d_75", "use_bias": false, "bias_regularizer": null}}, {"class_name": "TorchBatchNorm2D", "name": "torch_batch_norm2d_73", "inbound_nodes": [[["conv2d_75", 0, 0, {}]]], "config": {"epsilon": 1e-05, "name": "torch_batch_norm2d_73", "momentum": 0.1, "trainable": true, "axis": 1}}, {"class_name": "Activation", "name": "activation_73", "inbound_nodes": [[["torch_batch_norm2d_73", 0, 0, {}]]], "config": {"activation": "relu", "name": "activation_73", "trainable": true}}, {"class_name": "ZeroPadding2D", "name": "zero_padding2d_70", "inbound_nodes": [[["activation_73", 0, 0, {}]]], "config": {"padding": [[1, 1], [1, 1]], "data_format": "channels_first", "name": "zero_padding2d_70", "trainable": true}}, {"class_name": "Conv2D", "name": "conv2d_76", "inbound_nodes": [[["zero_padding2d_70", 0, 0, {}]]], "config": {"data_format": "channels_first", "kernel_initializer": {"config": {"mode": "fan_avg", "scale": 1.0, "distribution": "uniform", "seed": null}, "class_name": "VarianceScaling"}, "activity_regularizer": null, "bias_constraint": null, "kernel_size": [3, 3], "kernel_regularizer": null, "filters": 64, "activation": "linear", "strides": [1, 1], "padding": "valid", "dilation_rate": [1, 1], "trainable": true, "bias_initializer": {"config": {}, "class_name": "Zeros"}, "kernel_constraint": null, "name": "conv2d_76", "use_bias": false, "bias_regularizer": null}}, {"class_name": "Concatenate", "name": "concatenate_23", "inbound_nodes": [[["conv2d_74", 0, 0, {}], ["conv2d_75", 0, 0, {}], ["conv2d_76", 0, 0, {}]]], "config": {"name": "concatenate_23", "trainable": true, "axis": 1}}, {"class_name": "Add", "name": "add_28", "inbound_nodes": [[["concatenate_23", 0, 0, {}], ["average_pooling2d_8", 0, 0, {}]]], "config": {"name": "add_28", "trainable": true}}, {"class_name": "AveragePooling2D", "name": "average_pooling2d_9", "inbound_nodes": [[["add_28", 0, 0, {}]]], "config": {"data_format": "channels_first", "strides": [2, 2], "trainable": true, "padding": "valid", "name": "average_pooling2d_9", "pool_size": [2, 2]}}, {"class_name": "TorchBatchNorm2D", "name": "torch_batch_norm2d_77", "inbound_nodes": [[["average_pooling2d_9", 0, 0, {}]]], "config": {"epsilon": 1e-05, "name": "torch_batch_norm2d_77", "momentum": 0.1, "trainable": true, "axis": 1}}, {"class_name": "Activation", "name": "activation_77", "inbound_nodes": [[["torch_batch_norm2d_77", 0, 0, {}]]], "config": {"activation": "relu", "name": "activation_77", "trainable": true}}, {"class_name": "ZeroPadding2D", "name": "zero_padding2d_74", "inbound_nodes": [[["activation_77", 0, 0, {}]]], "config": {"padding": [[1, 1], [1, 1]], "data_format": "channels_first", "name": "zero_padding2d_74", "trainable": true}}, {"class_name": "Conv2D", "name": "conv2d_80", "inbound_nodes": [[["zero_padding2d_74", 0, 0, {}]]], "config": {"data_format": "channels_first", "kernel_initializer": {"config": {"mode": "fan_avg", "scale": 1.0, "distribution": "uniform", "seed": null}, "class_name": "VarianceScaling"}, "activity_regularizer": null, "bias_constraint": null, "kernel_size": [3, 3], "kernel_regularizer": null, "filters": 128, "activation": "linear", "strides": [1, 1], "padding": "valid", "dilation_rate": [1, 1], "trainable": true, "bias_initializer": {"config": {}, "class_name": "Zeros"}, "kernel_constraint": null, "name": "conv2d_80", "use_bias": false, "bias_regularizer": null}}, {"class_name": "TorchBatchNorm2D", "name": "torch_batch_norm2d_78", "inbound_nodes": [[["conv2d_80", 0, 0, {}]]], "config": {"epsilon": 1e-05, "name": "torch_batch_norm2d_78", "momentum": 0.1, "trainable": true, "axis": 1}}, {"class_name": "Activation", "name": "activation_78", "inbound_nodes": [[["torch_batch_norm2d_78", 0, 0, {}]]], "config": {"activation": "relu", "name": "activation_78", "trainable": true}}, {"class_name": "ZeroPadding2D", "name": "zero_padding2d_75", "inbound_nodes": [[["activation_78", 0, 0, {}]]], "config": {"padding": [[1, 1], [1, 1]], "data_format": "channels_first", "name": "zero_padding2d_75", "trainable": true}}, {"class_name": "Conv2D", "name": "conv2d_81", "inbound_nodes": [[["zero_padding2d_75", 0, 0, {}]]], "config": {"data_format": "channels_first", "kernel_initializer": {"config": {"mode": "fan_avg", "scale": 1.0, "distribution": "uniform", "seed": null}, "class_name": "VarianceScaling"}, "activity_regularizer": null, "bias_constraint": null, "kernel_size": [3, 3], "kernel_regularizer": null, "filters": 64, "activation": "linear", "strides": [1, 1], "padding": "valid", "dilation_rate": [1, 1], "trainable": true, "bias_initializer": {"config": {}, "class_name": "Zeros"}, "kernel_constraint": null, "name": "conv2d_81", "use_bias": false, "bias_regularizer": null}}, {"class_name": "TorchBatchNorm2D", "name": "torch_batch_norm2d_79", "inbound_nodes": [[["conv2d_81", 0, 0, {}]]], "config": {"epsilon": 1e-05, "name": "torch_batch_norm2d_79", "momentum": 0.1, "trainable": true, "axis": 1}}, {"class_name": "Activation", "name": "activation_79", "inbound_nodes": [[["torch_batch_norm2d_79", 0, 0, {}]]], "config": {"activation": "relu", "name": "activation_79", "trainable": true}}, {"class_name": "ZeroPadding2D", "name": "zero_padding2d_76", "inbound_nodes": [[["activation_79", 0, 0, {}]]], "config": {"padding": [[1, 1], [1, 1]], "data_format": "channels_first", "name": "zero_padding2d_76", "trainable": true}}, {"class_name": "Conv2D", "name": "conv2d_82", "inbound_nodes": [[["zero_padding2d_76", 0, 0, {}]]], "config": {"data_format": "channels_first", "kernel_initializer": {"config": {"mode": "fan_avg", "scale": 1.0, "distribution": "uniform", "seed": null}, "class_name": "VarianceScaling"}, "activity_regularizer": null, "bias_constraint": null, "kernel_size": [3, 3], "kernel_regularizer": null, "filters": 64, "activation": "linear", "strides": [1, 1], "padding": "valid", "dilation_rate": [1, 1], "trainable": true, "bias_initializer": {"config": {}, "class_name": "Zeros"}, "kernel_constraint": null, "name": "conv2d_82", "use_bias": false, "bias_regularizer": null}}, {"class_name": "Concatenate", "name": "concatenate_25", "inbound_nodes": [[["conv2d_80", 0, 0, {}], ["conv2d_81", 0, 0, {}], ["conv2d_82", 0, 0, {}]]], "config": {"name": "concatenate_25", "trainable": true, "axis": 1}}, {"class_name": "Add", "name": "add_30", "inbound_nodes": [[["concatenate_25", 0, 0, {}], ["average_pooling2d_9", 0, 0, {}]]], "config": {"name": "add_30", "trainable": true}}, {"class_name": "TorchBatchNorm2D", "name": "torch_batch_norm2d_80", "inbound_nodes": [[["add_30", 0, 0, {}]]], "config": {"epsilon": 1e-05, "name": "torch_batch_norm2d_80", "momentum": 0.1, "trainable": true, "axis": 1}}, {"class_name": "Activation", "name": "activation_80", "inbound_nodes": [[["torch_batch_norm2d_80", 0, 0, {}]]], "config": {"activation": "relu", "name": "activation_80", "trainable": true}}, {"class_name": "ZeroPadding2D", "name": "zero_padding2d_77", "inbound_nodes": [[["activation_80", 0, 0, {}]]], "config": {"padding": [[1, 1], [1, 1]], "data_format": "channels_first", "name": "zero_padding2d_77", "trainable": true}}, {"class_name": "Conv2D", "name": "conv2d_83", "inbound_nodes": [[["zero_padding2d_77", 0, 0, {}]]], "config": {"data_format": "channels_first", "kernel_initializer": {"config": {"mode": "fan_avg", "scale": 1.0, "distribution": "uniform", "seed": null}, "class_name": "VarianceScaling"}, "activity_regularizer": null, "bias_constraint": null, "kernel_size": [3, 3], "kernel_regularizer": null, "filters": 128, "activation": "linear", "strides": [1, 1], "padding": "valid", "dilation_rate": [1, 1], "trainable": true, "bias_initializer": {"config": {}, "class_name": "Zeros"}, "kernel_constraint": null, "name": "conv2d_83", "use_bias": false, "bias_regularizer": null}}, {"class_name": "TorchBatchNorm2D", "name": "torch_batch_norm2d_81", "inbound_nodes": [[["conv2d_83", 0, 0, {}]]], "config": {"epsilon": 1e-05, "name": "torch_batch_norm2d_81", "momentum": 0.1, "trainable": true, "axis": 1}}, {"class_name": "Activation", "name": "activation_81", "inbound_nodes": [[["torch_batch_norm2d_81", 0, 0, {}]]], "config": {"activation": "relu", "name": "activation_81", "trainable": true}}, {"class_name": "ZeroPadding2D", "name": "zero_padding2d_78", "inbound_nodes": [[["activation_81", 0, 0, {}]]], "config": {"padding": [[1, 1], [1, 1]], "data_format": "channels_first", "name": "zero_padding2d_78", "trainable": true}}, {"class_name": "Conv2D", "name": "conv2d_84", "inbound_nodes": [[["zero_padding2d_78", 0, 0, {}]]], "config": {"data_format": "channels_first", "kernel_initializer": {"config": {"mode": "fan_avg", "scale": 1.0, "distribution": "uniform", "seed": null}, "class_name": "VarianceScaling"}, "activity_regularizer": null, "bias_constraint": null, "kernel_size": [3, 3], "kernel_regularizer": null, "filters": 64, "activation": "linear", "strides": [1, 1], "padding": "valid", "dilation_rate": [1, 1], "trainable": true, "bias_initializer": {"config": {}, "class_name": "Zeros"}, "kernel_constraint": null, "name": "conv2d_84", "use_bias": false, "bias_regularizer": null}}, {"class_name": "TorchBatchNorm2D", "name": "torch_batch_norm2d_82", "inbound_nodes": [[["conv2d_84", 0, 0, {}]]], "config": {"epsilon": 1e-05, "name": "torch_batch_norm2d_82", "momentum": 0.1, "trainable": true, "axis": 1}}, {"class_name": "Activation", "name": "activation_82", "inbound_nodes": [[["torch_batch_norm2d_82", 0, 0, {}]]], "config": {"activation": "relu", "name": "activation_82", "trainable": true}}, {"class_name": "ZeroPadding2D", "name": "zero_padding2d_79", "inbound_nodes": [[["activation_82", 0, 0, {}]]], "config": {"padding": [[1, 1], [1, 1]], "data_format": "channels_first", "name": "zero_padding2d_79", "trainable": true}}, {"class_name": "Conv2D", "name": "conv2d_85", "inbound_nodes": [[["zero_padding2d_79", 0, 0, {}]]], "config": {"data_format": "channels_first", "kernel_initializer": {"config": {"mode": "fan_avg", "scale": 1.0, "distribution": "uniform", "seed": null}, "class_name": "VarianceScaling"}, "activity_regularizer": null, "bias_constraint": null, "kernel_size": [3, 3], "kernel_regularizer": null, "filters": 64, "activation": "linear", "strides": [1, 1], "padding": "valid", "dilation_rate": [1, 1], "trainable": true, "bias_initializer": {"config": {}, "class_name": "Zeros"}, "kernel_constraint": null, "name": "conv2d_85", "use_bias": false, "bias_regularizer": null}}, {"class_name": "Concatenate", "name": "concatenate_26", "inbound_nodes": [[["conv2d_83", 0, 0, {}], ["conv2d_84", 0, 0, {}], ["conv2d_85", 0, 0, {}]]], "config": {"name": "concatenate_26", "trainable": true, "axis": 1}}, {"class_name": "Add", "name": "add_31", "inbound_nodes": [[["concatenate_26", 0, 0, {}], ["add_30", 0, 0, {}]]], "config": {"name": "add_31", "trainable": true}}, {"class_name": "TorchBatchNorm2D", "name": "torch_batch_norm2d_83", "inbound_nodes": [[["add_31", 0, 0, {}]]], "config": {"epsilon": 1e-05, "name": "torch_batch_norm2d_83", "momentum": 0.1, "trainable": true, "axis": 1}}, {"class_name": "TorchBatchNorm2D", "name": "torch_batch_norm2d_74", "inbound_nodes": [[["add_28", 0, 0, {}]]], "config": {"epsilon": 1e-05, "name": "torch_batch_norm2d_74", "momentum": 0.1, "trainable": true, "axis": 1}}, {"class_name": "Activation", "name": "activation_83", "inbound_nodes": [[["torch_batch_norm2d_83", 0, 0, {}]]], "config": {"activation": "relu", "name": "activation_83", "trainable": true}}, {"class_name": "Activation", "name": "activation_74", "inbound_nodes": [[["torch_batch_norm2d_74", 0, 0, {}]]], "config": {"activation": "relu", "name": "activation_74", "trainable": true}}, {"class_name": "ZeroPadding2D", "name": "zero_padding2d_80", "inbound_nodes": [[["activation_83", 0, 0, {}]]], "config": {"padding": [[1, 1], [1, 1]], "data_format": "channels_first", "name": "zero_padding2d_80", "trainable": true}}, {"class_name": "ZeroPadding2D", "name": "zero_padding2d_71", "inbound_nodes": [[["activation_74", 0, 0, {}]]], "config": {"padding": [[1, 1], [1, 1]], "data_format": "channels_first", "name": "zero_padding2d_71", "trainable": true}}, {"class_name": "Conv2D", "name": "conv2d_86", "inbound_nodes": [[["zero_padding2d_80", 0, 0, {}]]], "config": {"data_format": "channels_first", "kernel_initializer": {"config": {"mode": "fan_avg", "scale": 1.0, "distribution": "uniform", "seed": null}, "class_name": "VarianceScaling"}, "activity_regularizer": null, "bias_constraint": null, "kernel_size": [3, 3], "kernel_regularizer": null, "filters": 128, "activation": "linear", "strides": [1, 1], "padding": "valid", "dilation_rate": [1, 1], "trainable": true, "bias_initializer": {"config": {}, "class_name": "Zeros"}, "kernel_constraint": null, "name": "conv2d_86", "use_bias": false, "bias_regularizer": null}}, {"class_name": "Conv2D", "name": "conv2d_77", "inbound_nodes": [[["zero_padding2d_71", 0, 0, {}]]], "config": {"data_format": "channels_first", "kernel_initializer": {"config": {"mode": "fan_avg", "scale": 1.0, "distribution": "uniform", "seed": null}, "class_name": "VarianceScaling"}, "activity_regularizer": null, "bias_constraint": null, "kernel_size": [3, 3], "kernel_regularizer": null, "filters": 128, "activation": "linear", "strides": [1, 1], "padding": "valid", "dilation_rate": [1, 1], "trainable": true, "bias_initializer": {"config": {}, "class_name": "Zeros"}, "kernel_constraint": null, "name": "conv2d_77", "use_bias": false, "bias_regularizer": null}}, {"class_name": "TorchBatchNorm2D", "name": "torch_batch_norm2d_84", "inbound_nodes": [[["conv2d_86", 0, 0, {}]]], "config": {"epsilon": 1e-05, "name": "torch_batch_norm2d_84", "momentum": 0.1, "trainable": true, "axis": 1}}, {"class_name": "TorchBatchNorm2D", "name": "torch_batch_norm2d_75", "inbound_nodes": [[["conv2d_77", 0, 0, {}]]], "config": {"epsilon": 1e-05, "name": "torch_batch_norm2d_75", "momentum": 0.1, "trainable": true, "axis": 1}}, {"class_name": "Activation", "name": "activation_84", "inbound_nodes": [[["torch_batch_norm2d_84", 0, 0, {}]]], "config": {"activation": "relu", "name": "activation_84", "trainable": true}}, {"class_name": "Activation", "name": "activation_75", "inbound_nodes": [[["torch_batch_norm2d_75", 0, 0, {}]]], "config": {"activation": "relu", "name": "activation_75", "trainable": true}}, {"class_name": "ZeroPadding2D", "name": "zero_padding2d_81", "inbound_nodes": [[["activation_84", 0, 0, {}]]], "config": {"padding": [[1, 1], [1, 1]], "data_format": "channels_first", "name": "zero_padding2d_81", "trainable": true}}, {"class_name": "ZeroPadding2D", "name": "zero_padding2d_72", "inbound_nodes": [[["activation_75", 0, 0, {}]]], "config": {"padding": [[1, 1], [1, 1]], "data_format": "channels_first", "name": "zero_padding2d_72", "trainable": true}}, {"class_name": "Conv2D", "name": "conv2d_87", "inbound_nodes": [[["zero_padding2d_81", 0, 0, {}]]], "config": {"data_format": "channels_first", "kernel_initializer": {"config": {"mode": "fan_avg", "scale": 1.0, "distribution": "uniform", "seed": null}, "class_name": "VarianceScaling"}, "activity_regularizer": null, "bias_constraint": null, "kernel_size": [3, 3], "kernel_regularizer": null, "filters": 64, "activation": "linear", "strides": [1, 1], "padding": "valid", "dilation_rate": [1, 1], "trainable": true, "bias_initializer": {"config": {}, "class_name": "Zeros"}, "kernel_constraint": null, "name": "conv2d_87", "use_bias": false, "bias_regularizer": null}}, {"class_name": "Conv2D", "name": "conv2d_78", "inbound_nodes": [[["zero_padding2d_72", 0, 0, {}]]], "config": {"data_format": "channels_first", "kernel_initializer": {"config": {"mode": "fan_avg", "scale": 1.0, "distribution": "uniform", "seed": null}, "class_name": "VarianceScaling"}, "activity_regularizer": null, "bias_constraint": null, "kernel_size": [3, 3], "kernel_regularizer": null, "filters": 64, "activation": "linear", "strides": [1, 1], "padding": "valid", "dilation_rate": [1, 1], "trainable": true, "bias_initializer": {"config": {}, "class_name": "Zeros"}, "kernel_constraint": null, "name": "conv2d_78", "use_bias": false, "bias_regularizer": null}}, {"class_name": "TorchBatchNorm2D", "name": "torch_batch_norm2d_85", "inbound_nodes": [[["conv2d_87", 0, 0, {}]]], "config": {"epsilon": 1e-05, "name": "torch_batch_norm2d_85", "momentum": 0.1, "trainable": true, "axis": 1}}, {"class_name": "TorchBatchNorm2D", "name": "torch_batch_norm2d_76", "inbound_nodes": [[["conv2d_78", 0, 0, {}]]], "config": {"epsilon": 1e-05, "name": "torch_batch_norm2d_76", "momentum": 0.1, "trainable": true, "axis": 1}}, {"class_name": "Activation", "name": "activation_85", "inbound_nodes": [[["torch_batch_norm2d_85", 0, 0, {}]]], "config": {"activation": "relu", "name": "activation_85", "trainable": true}}, {"class_name": "Activation", "name": "activation_76", "inbound_nodes": [[["torch_batch_norm2d_76", 0, 0, {}]]], "config": {"activation": "relu", "name": "activation_76", "trainable": true}}, {"class_name": "ZeroPadding2D", "name": "zero_padding2d_82", "inbound_nodes": [[["activation_85", 0, 0, {}]]], "config": {"padding": [[1, 1], [1, 1]], "data_format": "channels_first", "name": "zero_padding2d_82", "trainable": true}}, {"class_name": "ZeroPadding2D", "name": "zero_padding2d_73", "inbound_nodes": [[["activation_76", 0, 0, {}]]], "config": {"padding": [[1, 1], [1, 1]], "data_format": "channels_first", "name": "zero_padding2d_73", "trainable": true}}, {"class_name": "Conv2D", "name": "conv2d_88", "inbound_nodes": [[["zero_padding2d_82", 0, 0, {}]]], "config": {"data_format": "channels_first", "kernel_initializer": {"config": {"mode": "fan_avg", "scale": 1.0, "distribution": "uniform", "seed": null}, "class_name": "VarianceScaling"}, "activity_regularizer": null, "bias_constraint": null, "kernel_size": [3, 3], "kernel_regularizer": null, "filters": 64, "activation": "linear", "strides": [1, 1], "padding": "valid", "dilation_rate": [1, 1], "trainable": true, "bias_initializer": {"config": {}, "class_name": "Zeros"}, "kernel_constraint": null, "name": "conv2d_88", "use_bias": false, "bias_regularizer": null}}, {"class_name": "Conv2D", "name": "conv2d_79", "inbound_nodes": [[["zero_padding2d_73", 0, 0, {}]]], "config": {"data_format": "channels_first", "kernel_initializer": {"config": {"mode": "fan_avg", "scale": 1.0, "distribution": "uniform", "seed": null}, "class_name": "VarianceScaling"}, "activity_regularizer": null, "bias_constraint": null, "kernel_size": [3, 3], "kernel_regularizer": null, "filters": 64, "activation": "linear", "strides": [1, 1], "padding": "valid", "dilation_rate": [1, 1], "trainable": true, "bias_initializer": {"config": {}, "class_name": "Zeros"}, "kernel_constraint": null, "name": "conv2d_79", "use_bias": false, "bias_regularizer": null}}, {"class_name": "Concatenate", "name": "concatenate_27", "inbound_nodes": [[["conv2d_86", 0, 0, {}], ["conv2d_87", 0, 0, {}], ["conv2d_88", 0, 0, {}]]], "config": {"name": "concatenate_27", "trainable": true, "axis": 1}}, {"class_name": "Concatenate", "name": "concatenate_24", "inbound_nodes": [[["conv2d_77", 0, 0, {}], ["conv2d_78", 0, 0, {}], ["conv2d_79", 0, 0, {}]]], "config": {"name": "concatenate_24", "trainable": true, "axis": 1}}, {"class_name": "Add", "name": "add_32", "inbound_nodes": [[["concatenate_27", 0, 0, {}], ["add_31", 0, 0, {}]]], "config": {"name": "add_32", "trainable": true}}, {"class_name": "Add", "name": "add_29", "inbound_nodes": [[["concatenate_24", 0, 0, {}], ["add_28", 0, 0, {}]]], "config": {"name": "add_29", "trainable": true}}, {"class_name": "UpSampling2D", "name": "up_sampling2d_5", "inbound_nodes": [[["add_32", 0, 0, {}]]], "config": {"data_format": "channels_first", "name": "up_sampling2d_5", "size": [2, 2], "trainable": true}}, {"class_name": "Add", "name": "add_33", "inbound_nodes": [[["add_29", 0, 0, {}], ["up_sampling2d_5", 0, 0, {}]]], "config": {"name": "add_33", "trainable": true}}, {"class_name": "TorchBatchNorm2D", "name": "torch_batch_norm2d_86", "inbound_nodes": [[["add_33", 0, 0, {}]]], "config": {"epsilon": 1e-05, "name": "torch_batch_norm2d_86", "momentum": 0.1, "trainable": true, "axis": 1}}, {"class_name": "TorchBatchNorm2D", "name": "torch_batch_norm2d_68", "inbound_nodes": [[["add_26", 0, 0, {}]]], "config": {"epsilon": 1e-05, "name": "torch_batch_norm2d_68", "momentum": 0.1, "trainable": true, "axis": 1}}, {"class_name": "Activation", "name": "activation_86", "inbound_nodes": [[["torch_batch_norm2d_86", 0, 0, {}]]], "config": {"activation": "relu", "name": "activation_86", "trainable": true}}, {"class_name": "Activation", "name": "activation_68", "inbound_nodes": [[["torch_batch_norm2d_68", 0, 0, {}]]], "config": {"activation": "relu", "name": "activation_68", "trainable": true}}, {"class_name": "ZeroPadding2D", "name": "zero_padding2d_83", "inbound_nodes": [[["activation_86", 0, 0, {}]]], "config": {"padding": [[1, 1], [1, 1]], "data_format": "channels_first", "name": "zero_padding2d_83", "trainable": true}}, {"class_name": "ZeroPadding2D", "name": "zero_padding2d_65", "inbound_nodes": [[["activation_68", 0, 0, {}]]], "config": {"padding": [[1, 1], [1, 1]], "data_format": "channels_first", "name": "zero_padding2d_65", "trainable": true}}, {"class_name": "Conv2D", "name": "conv2d_89", "inbound_nodes": [[["zero_padding2d_83", 0, 0, {}]]], "config": {"data_format": "channels_first", "kernel_initializer": {"config": {"mode": "fan_avg", "scale": 1.0, "distribution": "uniform", "seed": null}, "class_name": "VarianceScaling"}, "activity_regularizer": null, "bias_constraint": null, "kernel_size": [3, 3], "kernel_regularizer": null, "filters": 128, "activation": "linear", "strides": [1, 1], "padding": "valid", "dilation_rate": [1, 1], "trainable": true, "bias_initializer": {"config": {}, "class_name": "Zeros"}, "kernel_constraint": null, "name": "conv2d_89", "use_bias": false, "bias_regularizer": null}}, {"class_name": "Conv2D", "name": "conv2d_71", "inbound_nodes": [[["zero_padding2d_65", 0, 0, {}]]], "config": {"data_format": "channels_first", "kernel_initializer": {"config": {"mode": "fan_avg", "scale": 1.0, "distribution": "uniform", "seed": null}, "class_name": "VarianceScaling"}, "activity_regularizer": null, "bias_constraint": null, "kernel_size": [3, 3], "kernel_regularizer": null, "filters": 128, "activation": "linear", "strides": [1, 1], "padding": "valid", "dilation_rate": [1, 1], "trainable": true, "bias_initializer": {"config": {}, "class_name": "Zeros"}, "kernel_constraint": null, "name": "conv2d_71", "use_bias": false, "bias_regularizer": null}}, {"class_name": "TorchBatchNorm2D", "name": "torch_batch_norm2d_87", "inbound_nodes": [[["conv2d_89", 0, 0, {}]]], "config": {"epsilon": 1e-05, "name": "torch_batch_norm2d_87", "momentum": 0.1, "trainable": true, "axis": 1}}, {"class_name": "TorchBatchNorm2D", "name": "torch_batch_norm2d_69", "inbound_nodes": [[["conv2d_71", 0, 0, {}]]], "config": {"epsilon": 1e-05, "name": "torch_batch_norm2d_69", "momentum": 0.1, "trainable": true, "axis": 1}}, {"class_name": "Activation", "name": "activation_87", "inbound_nodes": [[["torch_batch_norm2d_87", 0, 0, {}]]], "config": {"activation": "relu", "name": "activation_87", "trainable": true}}, {"class_name": "Activation", "name": "activation_69", "inbound_nodes": [[["torch_batch_norm2d_69", 0, 0, {}]]], "config": {"activation": "relu", "name": "activation_69", "trainable": true}}, {"class_name": "ZeroPadding2D", "name": "zero_padding2d_84", "inbound_nodes": [[["activation_87", 0, 0, {}]]], "config": {"padding": [[1, 1], [1, 1]], "data_format": "channels_first", "name": "zero_padding2d_84", "trainable": true}}, {"class_name": "ZeroPadding2D", "name": "zero_padding2d_66", "inbound_nodes": [[["activation_69", 0, 0, {}]]], "config": {"padding": [[1, 1], [1, 1]], "data_format": "channels_first", "name": "zero_padding2d_66", "trainable": true}}, {"class_name": "Conv2D", "name": "conv2d_90", "inbound_nodes": [[["zero_padding2d_84", 0, 0, {}]]], "config": {"data_format": "channels_first", "kernel_initializer": {"config": {"mode": "fan_avg", "scale": 1.0, "distribution": "uniform", "seed": null}, "class_name": "VarianceScaling"}, "activity_regularizer": null, "bias_constraint": null, "kernel_size": [3, 3], "kernel_regularizer": null, "filters": 64, "activation": "linear", "strides": [1, 1], "padding": "valid", "dilation_rate": [1, 1], "trainable": true, "bias_initializer": {"config": {}, "class_name": "Zeros"}, "kernel_constraint": null, "name": "conv2d_90", "use_bias": false, "bias_regularizer": null}}, {"class_name": "Conv2D", "name": "conv2d_72", "inbound_nodes": [[["zero_padding2d_66", 0, 0, {}]]], "config": {"data_format": "channels_first", "kernel_initializer": {"config": {"mode": "fan_avg", "scale": 1.0, "distribution": "uniform", "seed": null}, "class_name": "VarianceScaling"}, "activity_regularizer": null, "bias_constraint": null, "kernel_size": [3, 3], "kernel_regularizer": null, "filters": 64, "activation": "linear", "strides": [1, 1], "padding": "valid", "dilation_rate": [1, 1], "trainable": true, "bias_initializer": {"config": {}, "class_name": "Zeros"}, "kernel_constraint": null, "name": "conv2d_72", "use_bias": false, "bias_regularizer": null}}, {"class_name": "TorchBatchNorm2D", "name": "torch_batch_norm2d_88", "inbound_nodes": [[["conv2d_90", 0, 0, {}]]], "config": {"epsilon": 1e-05, "name": "torch_batch_norm2d_88", "momentum": 0.1, "trainable": true, "axis": 1}}, {"class_name": "TorchBatchNorm2D", "name": "torch_batch_norm2d_70", "inbound_nodes": [[["conv2d_72", 0, 0, {}]]], "config": {"epsilon": 1e-05, "name": "torch_batch_norm2d_70", "momentum": 0.1, "trainable": true, "axis": 1}}, {"class_name": "Activation", "name": "activation_88", "inbound_nodes": [[["torch_batch_norm2d_88", 0, 0, {}]]], "config": {"activation": "relu", "name": "activation_88", "trainable": true}}, {"class_name": "Activation", "name": "activation_70", "inbound_nodes": [[["torch_batch_norm2d_70", 0, 0, {}]]], "config": {"activation": "relu", "name": "activation_70", "trainable": true}}, {"class_name": "ZeroPadding2D", "name": "zero_padding2d_85", "inbound_nodes": [[["activation_88", 0, 0, {}]]], "config": {"padding": [[1, 1], [1, 1]], "data_format": "channels_first", "name": "zero_padding2d_85", "trainable": true}}, {"class_name": "ZeroPadding2D", "name": "zero_padding2d_67", "inbound_nodes": [[["activation_70", 0, 0, {}]]], "config": {"padding": [[1, 1], [1, 1]], "data_format": "channels_first", "name": "zero_padding2d_67", "trainable": true}}, {"class_name": "Conv2D", "name": "conv2d_91", "inbound_nodes": [[["zero_padding2d_85", 0, 0, {}]]], "config": {"data_format": "channels_first", "kernel_initializer": {"config": {"mode": "fan_avg", "scale": 1.0, "distribution": "uniform", "seed": null}, "class_name": "VarianceScaling"}, "activity_regularizer": null, "bias_constraint": null, "kernel_size": [3, 3], "kernel_regularizer": null, "filters": 64, "activation": "linear", "strides": [1, 1], "padding": "valid", "dilation_rate": [1, 1], "trainable": true, "bias_initializer": {"config": {}, "class_name": "Zeros"}, "kernel_constraint": null, "name": "conv2d_91", "use_bias": false, "bias_regularizer": null}}, {"class_name": "Conv2D", "name": "conv2d_73", "inbound_nodes": [[["zero_padding2d_67", 0, 0, {}]]], "config": {"data_format": "channels_first", "kernel_initializer": {"config": {"mode": "fan_avg", "scale": 1.0, "distribution": "uniform", "seed": null}, "class_name": "VarianceScaling"}, "activity_regularizer": null, "bias_constraint": null, "kernel_size": [3, 3], "kernel_regularizer": null, "filters": 64, "activation": "linear", "strides": [1, 1], "padding": "valid", "dilation_rate": [1, 1], "trainable": true, "bias_initializer": {"config": {}, "class_name": "Zeros"}, "kernel_constraint": null, "name": "conv2d_73", "use_bias": false, "bias_regularizer": null}}, {"class_name": "Concatenate", "name": "concatenate_28", "inbound_nodes": [[["conv2d_89", 0, 0, {}], ["conv2d_90", 0, 0, {}], ["conv2d_91", 0, 0, {}]]], "config": {"name": "concatenate_28", "trainable": true, "axis": 1}}, {"class_name": "Concatenate", "name": "concatenate_22", "inbound_nodes": [[["conv2d_71", 0, 0, {}], ["conv2d_72", 0, 0, {}], ["conv2d_73", 0, 0, {}]]], "config": {"name": "concatenate_22", "trainable": true, "axis": 1}}, {"class_name": "Add", "name": "add_34", "inbound_nodes": [[["concatenate_28", 0, 0, {}], ["add_33", 0, 0, {}]]], "config": {"name": "add_34", "trainable": true}}, {"class_name": "Add", "name": "add_27", "inbound_nodes": [[["concatenate_22", 0, 0, {}], ["add_26", 0, 0, {}]]], "config": {"name": "add_27", "trainable": true}}, {"class_name": "UpSampling2D", "name": "up_sampling2d_6", "inbound_nodes": [[["add_34", 0, 0, {}]]], "config": {"data_format": "channels_first", "name": "up_sampling2d_6", "size": [2, 2], "trainable": true}}, {"class_name": "Add", "name": "add_35", "inbound_nodes": [[["add_27", 0, 0, {}], ["up_sampling2d_6", 0, 0, {}]]], "config": {"name": "add_35", "trainable": true}}, {"class_name": "TorchBatchNorm2D", "name": "torch_batch_norm2d_89", "inbound_nodes": [[["add_35", 0, 0, {}]]], "config": {"epsilon": 1e-05, "name": "torch_batch_norm2d_89", "momentum": 0.1, "trainable": true, "axis": 1}}, {"class_name": "TorchBatchNorm2D", "name": "torch_batch_norm2d_62", "inbound_nodes": [[["add_24", 0, 0, {}]]], "config": {"epsilon": 1e-05, "name": "torch_batch_norm2d_62", "momentum": 0.1, "trainable": true, "axis": 1}}, {"class_name": "Activation", "name": "activation_89", "inbound_nodes": [[["torch_batch_norm2d_89", 0, 0, {}]]], "config": {"activation": "relu", "name": "activation_89", "trainable": true}}, {"class_name": "Activation", "name": "activation_62", "inbound_nodes": [[["torch_batch_norm2d_62", 0, 0, {}]]], "config": {"activation": "relu", "name": "activation_62", "trainable": true}}, {"class_name": "ZeroPadding2D", "name": "zero_padding2d_86", "inbound_nodes": [[["activation_89", 0, 0, {}]]], "config": {"padding": [[1, 1], [1, 1]], "data_format": "channels_first", "name": "zero_padding2d_86", "trainable": true}}, {"class_name": "ZeroPadding2D", "name": "zero_padding2d_59", "inbound_nodes": [[["activation_62", 0, 0, {}]]], "config": {"padding": [[1, 1], [1, 1]], "data_format": "channels_first", "name": "zero_padding2d_59", "trainable": true}}, {"class_name": "Conv2D", "name": "conv2d_92", "inbound_nodes": [[["zero_padding2d_86", 0, 0, {}]]], "config": {"data_format": "channels_first", "kernel_initializer": {"config": {"mode": "fan_avg", "scale": 1.0, "distribution": "uniform", "seed": null}, "class_name": "VarianceScaling"}, "activity_regularizer": null, "bias_constraint": null, "kernel_size": [3, 3], "kernel_regularizer": null, "filters": 128, "activation": "linear", "strides": [1, 1], "padding": "valid", "dilation_rate": [1, 1], "trainable": true, "bias_initializer": {"config": {}, "class_name": "Zeros"}, "kernel_constraint": null, "name": "conv2d_92", "use_bias": false, "bias_regularizer": null}}, {"class_name": "Conv2D", "name": "conv2d_65", "inbound_nodes": [[["zero_padding2d_59", 0, 0, {}]]], "config": {"data_format": "channels_first", "kernel_initializer": {"config": {"mode": "fan_avg", "scale": 1.0, "distribution": "uniform", "seed": null}, "class_name": "VarianceScaling"}, "activity_regularizer": null, "bias_constraint": null, "kernel_size": [3, 3], "kernel_regularizer": null, "filters": 128, "activation": "linear", "strides": [1, 1], "padding": "valid", "dilation_rate": [1, 1], "trainable": true, "bias_initializer": {"config": {}, "class_name": "Zeros"}, "kernel_constraint": null, "name": "conv2d_65", "use_bias": false, "bias_regularizer": null}}, {"class_name": "TorchBatchNorm2D", "name": "torch_batch_norm2d_90", "inbound_nodes": [[["conv2d_92", 0, 0, {}]]], "config": {"epsilon": 1e-05, "name": "torch_batch_norm2d_90", "momentum": 0.1, "trainable": true, "axis": 1}}, {"class_name": "TorchBatchNorm2D", "name": "torch_batch_norm2d_63", "inbound_nodes": [[["conv2d_65", 0, 0, {}]]], "config": {"epsilon": 1e-05, "name": "torch_batch_norm2d_63", "momentum": 0.1, "trainable": true, "axis": 1}}, {"class_name": "Activation", "name": "activation_90", "inbound_nodes": [[["torch_batch_norm2d_90", 0, 0, {}]]], "config": {"activation": "relu", "name": "activation_90", "trainable": true}}, {"class_name": "Activation", "name": "activation_63", "inbound_nodes": [[["torch_batch_norm2d_63", 0, 0, {}]]], "config": {"activation": "relu", "name": "activation_63", "trainable": true}}, {"class_name": "ZeroPadding2D", "name": "zero_padding2d_87", "inbound_nodes": [[["activation_90", 0, 0, {}]]], "config": {"padding": [[1, 1], [1, 1]], "data_format": "channels_first", "name": "zero_padding2d_87", "trainable": true}}, {"class_name": "ZeroPadding2D", "name": "zero_padding2d_60", "inbound_nodes": [[["activation_63", 0, 0, {}]]], "config": {"padding": [[1, 1], [1, 1]], "data_format": "channels_first", "name": "zero_padding2d_60", "trainable": true}}, {"class_name": "Conv2D", "name": "conv2d_93", "inbound_nodes": [[["zero_padding2d_87", 0, 0, {}]]], "config": {"data_format": "channels_first", "kernel_initializer": {"config": {"mode": "fan_avg", "scale": 1.0, "distribution": "uniform", "seed": null}, "class_name": "VarianceScaling"}, "activity_regularizer": null, "bias_constraint": null, "kernel_size": [3, 3], "kernel_regularizer": null, "filters": 64, "activation": "linear", "strides": [1, 1], "padding": "valid", "dilation_rate": [1, 1], "trainable": true, "bias_initializer": {"config": {}, "class_name": "Zeros"}, "kernel_constraint": null, "name": "conv2d_93", "use_bias": false, "bias_regularizer": null}}, {"class_name": "Conv2D", "name": "conv2d_66", "inbound_nodes": [[["zero_padding2d_60", 0, 0, {}]]], "config": {"data_format": "channels_first", "kernel_initializer": {"config": {"mode": "fan_avg", "scale": 1.0, "distribution": "uniform", "seed": null}, "class_name": "VarianceScaling"}, "activity_regularizer": null, "bias_constraint": null, "kernel_size": [3, 3], "kernel_regularizer": null, "filters": 64, "activation": "linear", "strides": [1, 1], "padding": "valid", "dilation_rate": [1, 1], "trainable": true, "bias_initializer": {"config": {}, "class_name": "Zeros"}, "kernel_constraint": null, "name": "conv2d_66", "use_bias": false, "bias_regularizer": null}}, {"class_name": "TorchBatchNorm2D", "name": "torch_batch_norm2d_91", "inbound_nodes": [[["conv2d_93", 0, 0, {}]]], "config": {"epsilon": 1e-05, "name": "torch_batch_norm2d_91", "momentum": 0.1, "trainable": true, "axis": 1}}, {"class_name": "TorchBatchNorm2D", "name": "torch_batch_norm2d_64", "inbound_nodes": [[["conv2d_66", 0, 0, {}]]], "config": {"epsilon": 1e-05, "name": "torch_batch_norm2d_64", "momentum": 0.1, "trainable": true, "axis": 1}}, {"class_name": "Activation", "name": "activation_91", "inbound_nodes": [[["torch_batch_norm2d_91", 0, 0, {}]]], "config": {"activation": "relu", "name": "activation_91", "trainable": true}}, {"class_name": "Activation", "name": "activation_64", "inbound_nodes": [[["torch_batch_norm2d_64", 0, 0, {}]]], "config": {"activation": "relu", "name": "activation_64", "trainable": true}}, {"class_name": "ZeroPadding2D", "name": "zero_padding2d_88", "inbound_nodes": [[["activation_91", 0, 0, {}]]], "config": {"padding": [[1, 1], [1, 1]], "data_format": "channels_first", "name": "zero_padding2d_88", "trainable": true}}, {"class_name": "ZeroPadding2D", "name": "zero_padding2d_61", "inbound_nodes": [[["activation_64", 0, 0, {}]]], "config": {"padding": [[1, 1], [1, 1]], "data_format": "channels_first", "name": "zero_padding2d_61", "trainable": true}}, {"class_name": "Conv2D", "name": "conv2d_94", "inbound_nodes": [[["zero_padding2d_88", 0, 0, {}]]], "config": {"data_format": "channels_first", "kernel_initializer": {"config": {"mode": "fan_avg", "scale": 1.0, "distribution": "uniform", "seed": null}, "class_name": "VarianceScaling"}, "activity_regularizer": null, "bias_constraint": null, "kernel_size": [3, 3], "kernel_regularizer": null, "filters": 64, "activation": "linear", "strides": [1, 1], "padding": "valid", "dilation_rate": [1, 1], "trainable": true, "bias_initializer": {"config": {}, "class_name": "Zeros"}, "kernel_constraint": null, "name": "conv2d_94", "use_bias": false, "bias_regularizer": null}}, {"class_name": "Conv2D", "name": "conv2d_67", "inbound_nodes": [[["zero_padding2d_61", 0, 0, {}]]], "config": {"data_format": "channels_first", "kernel_initializer": {"config": {"mode": "fan_avg", "scale": 1.0, "distribution": "uniform", "seed": null}, "class_name": "VarianceScaling"}, "activity_regularizer": null, "bias_constraint": null, "kernel_size": [3, 3], "kernel_regularizer": null, "filters": 64, "activation": "linear", "strides": [1, 1], "padding": "valid", "dilation_rate": [1, 1], "trainable": true, "bias_initializer": {"config": {}, "class_name": "Zeros"}, "kernel_constraint": null, "name": "conv2d_67", "use_bias": false, "bias_regularizer": null}}, {"class_name": "Concatenate", "name": "concatenate_29", "inbound_nodes": [[["conv2d_92", 0, 0, {}], ["conv2d_93", 0, 0, {}], ["conv2d_94", 0, 0, {}]]], "config": {"name": "concatenate_29", "trainable": true, "axis": 1}}, {"class_name": "Concatenate", "name": "concatenate_20", "inbound_nodes": [[["conv2d_65", 0, 0, {}], ["conv2d_66", 0, 0, {}], ["conv2d_67", 0, 0, {}]]], "config": {"name": "concatenate_20", "trainable": true, "axis": 1}}, {"class_name": "Add", "name": "add_36", "inbound_nodes": [[["concatenate_29", 0, 0, {}], ["add_35", 0, 0, {}]]], "config": {"name": "add_36", "trainable": true}}, {"class_name": "Add", "name": "add_25", "inbound_nodes": [[["concatenate_20", 0, 0, {}], ["add_24", 0, 0, {}]]], "config": {"name": "add_25", "trainable": true}}, {"class_name": "UpSampling2D", "name": "up_sampling2d_7", "inbound_nodes": [[["add_36", 0, 0, {}]]], "config": {"data_format": "channels_first", "name": "up_sampling2d_7", "size": [2, 2], "trainable": true}}, {"class_name": "Add", "name": "add_37", "inbound_nodes": [[["add_25", 0, 0, {}], ["up_sampling2d_7", 0, 0, {}]]], "config": {"name": "add_37", "trainable": true}}, {"class_name": "TorchBatchNorm2D", "name": "torch_batch_norm2d_92", "inbound_nodes": [[["add_37", 0, 0, {}]]], "config": {"epsilon": 1e-05, "name": "torch_batch_norm2d_92", "momentum": 0.1, "trainable": true, "axis": 1}}, {"class_name": "TorchBatchNorm2D", "name": "torch_batch_norm2d_56", "inbound_nodes": [[["add_22", 0, 0, {}]]], "config": {"epsilon": 1e-05, "name": "torch_batch_norm2d_56", "momentum": 0.1, "trainable": true, "axis": 1}}, {"class_name": "Activation", "name": "activation_92", "inbound_nodes": [[["torch_batch_norm2d_92", 0, 0, {}]]], "config": {"activation": "relu", "name": "activation_92", "trainable": true}}, {"class_name": "Activation", "name": "activation_56", "inbound_nodes": [[["torch_batch_norm2d_56", 0, 0, {}]]], "config": {"activation": "relu", "name": "activation_56", "trainable": true}}, {"class_name": "ZeroPadding2D", "name": "zero_padding2d_89", "inbound_nodes": [[["activation_92", 0, 0, {}]]], "config": {"padding": [[1, 1], [1, 1]], "data_format": "channels_first", "name": "zero_padding2d_89", "trainable": true}}, {"class_name": "ZeroPadding2D", "name": "zero_padding2d_53", "inbound_nodes": [[["activation_56", 0, 0, {}]]], "config": {"padding": [[1, 1], [1, 1]], "data_format": "channels_first", "name": "zero_padding2d_53", "trainable": true}}, {"class_name": "Conv2D", "name": "conv2d_95", "inbound_nodes": [[["zero_padding2d_89", 0, 0, {}]]], "config": {"data_format": "channels_first", "kernel_initializer": {"config": {"mode": "fan_avg", "scale": 1.0, "distribution": "uniform", "seed": null}, "class_name": "VarianceScaling"}, "activity_regularizer": null, "bias_constraint": null, "kernel_size": [3, 3], "kernel_regularizer": null, "filters": 128, "activation": "linear", "strides": [1, 1], "padding": "valid", "dilation_rate": [1, 1], "trainable": true, "bias_initializer": {"config": {}, "class_name": "Zeros"}, "kernel_constraint": null, "name": "conv2d_95", "use_bias": false, "bias_regularizer": null}}, {"class_name": "Conv2D", "name": "conv2d_59", "inbound_nodes": [[["zero_padding2d_53", 0, 0, {}]]], "config": {"data_format": "channels_first", "kernel_initializer": {"config": {"mode": "fan_avg", "scale": 1.0, "distribution": "uniform", "seed": null}, "class_name": "VarianceScaling"}, "activity_regularizer": null, "bias_constraint": null, "kernel_size": [3, 3], "kernel_regularizer": null, "filters": 128, "activation": "linear", "strides": [1, 1], "padding": "valid", "dilation_rate": [1, 1], "trainable": true, "bias_initializer": {"config": {}, "class_name": "Zeros"}, "kernel_constraint": null, "name": "conv2d_59", "use_bias": false, "bias_regularizer": null}}, {"class_name": "TorchBatchNorm2D", "name": "torch_batch_norm2d_93", "inbound_nodes": [[["conv2d_95", 0, 0, {}]]], "config": {"epsilon": 1e-05, "name": "torch_batch_norm2d_93", "momentum": 0.1, "trainable": true, "axis": 1}}, {"class_name": "TorchBatchNorm2D", "name": "torch_batch_norm2d_57", "inbound_nodes": [[["conv2d_59", 0, 0, {}]]], "config": {"epsilon": 1e-05, "name": "torch_batch_norm2d_57", "momentum": 0.1, "trainable": true, "axis": 1}}, {"class_name": "Activation", "name": "activation_93", "inbound_nodes": [[["torch_batch_norm2d_93", 0, 0, {}]]], "config": {"activation": "relu", "name": "activation_93", "trainable": true}}, {"class_name": "Activation", "name": "activation_57", "inbound_nodes": [[["torch_batch_norm2d_57", 0, 0, {}]]], "config": {"activation": "relu", "name": "activation_57", "trainable": true}}, {"class_name": "ZeroPadding2D", "name": "zero_padding2d_90", "inbound_nodes": [[["activation_93", 0, 0, {}]]], "config": {"padding": [[1, 1], [1, 1]], "data_format": "channels_first", "name": "zero_padding2d_90", "trainable": true}}, {"class_name": "ZeroPadding2D", "name": "zero_padding2d_54", "inbound_nodes": [[["activation_57", 0, 0, {}]]], "config": {"padding": [[1, 1], [1, 1]], "data_format": "channels_first", "name": "zero_padding2d_54", "trainable": true}}, {"class_name": "Conv2D", "name": "conv2d_96", "inbound_nodes": [[["zero_padding2d_90", 0, 0, {}]]], "config": {"data_format": "channels_first", "kernel_initializer": {"config": {"mode": "fan_avg", "scale": 1.0, "distribution": "uniform", "seed": null}, "class_name": "VarianceScaling"}, "activity_regularizer": null, "bias_constraint": null, "kernel_size": [3, 3], "kernel_regularizer": null, "filters": 64, "activation": "linear", "strides": [1, 1], "padding": "valid", "dilation_rate": [1, 1], "trainable": true, "bias_initializer": {"config": {}, "class_name": "Zeros"}, "kernel_constraint": null, "name": "conv2d_96", "use_bias": false, "bias_regularizer": null}}, {"class_name": "Conv2D", "name": "conv2d_60", "inbound_nodes": [[["zero_padding2d_54", 0, 0, {}]]], "config": {"data_format": "channels_first", "kernel_initializer": {"config": {"mode": "fan_avg", "scale": 1.0, "distribution": "uniform", "seed": null}, "class_name": "VarianceScaling"}, "activity_regularizer": null, "bias_constraint": null, "kernel_size": [3, 3], "kernel_regularizer": null, "filters": 64, "activation": "linear", "strides": [1, 1], "padding": "valid", "dilation_rate": [1, 1], "trainable": true, "bias_initializer": {"config": {}, "class_name": "Zeros"}, "kernel_constraint": null, "name": "conv2d_60", "use_bias": false, "bias_regularizer": null}}, {"class_name": "TorchBatchNorm2D", "name": "torch_batch_norm2d_94", "inbound_nodes": [[["conv2d_96", 0, 0, {}]]], "config": {"epsilon": 1e-05, "name": "torch_batch_norm2d_94", "momentum": 0.1, "trainable": true, "axis": 1}}, {"class_name": "TorchBatchNorm2D", "name": "torch_batch_norm2d_58", "inbound_nodes": [[["conv2d_60", 0, 0, {}]]], "config": {"epsilon": 1e-05, "name": "torch_batch_norm2d_58", "momentum": 0.1, "trainable": true, "axis": 1}}, {"class_name": "Activation", "name": "activation_94", "inbound_nodes": [[["torch_batch_norm2d_94", 0, 0, {}]]], "config": {"activation": "relu", "name": "activation_94", "trainable": true}}, {"class_name": "Activation", "name": "activation_58", "inbound_nodes": [[["torch_batch_norm2d_58", 0, 0, {}]]], "config": {"activation": "relu", "name": "activation_58", "trainable": true}}, {"class_name": "ZeroPadding2D", "name": "zero_padding2d_91", "inbound_nodes": [[["activation_94", 0, 0, {}]]], "config": {"padding": [[1, 1], [1, 1]], "data_format": "channels_first", "name": "zero_padding2d_91", "trainable": true}}, {"class_name": "ZeroPadding2D", "name": "zero_padding2d_55", "inbound_nodes": [[["activation_58", 0, 0, {}]]], "config": {"padding": [[1, 1], [1, 1]], "data_format": "channels_first", "name": "zero_padding2d_55", "trainable": true}}, {"class_name": "Conv2D", "name": "conv2d_97", "inbound_nodes": [[["zero_padding2d_91", 0, 0, {}]]], "config": {"data_format": "channels_first", "kernel_initializer": {"config": {"mode": "fan_avg", "scale": 1.0, "distribution": "uniform", "seed": null}, "class_name": "VarianceScaling"}, "activity_regularizer": null, "bias_constraint": null, "kernel_size": [3, 3], "kernel_regularizer": null, "filters": 64, "activation": "linear", "strides": [1, 1], "padding": "valid", "dilation_rate": [1, 1], "trainable": true, "bias_initializer": {"config": {}, "class_name": "Zeros"}, "kernel_constraint": null, "name": "conv2d_97", "use_bias": false, "bias_regularizer": null}}, {"class_name": "Conv2D", "name": "conv2d_61", "inbound_nodes": [[["zero_padding2d_55", 0, 0, {}]]], "config": {"data_format": "channels_first", "kernel_initializer": {"config": {"mode": "fan_avg", "scale": 1.0, "distribution": "uniform", "seed": null}, "class_name": "VarianceScaling"}, "activity_regularizer": null, "bias_constraint": null, "kernel_size": [3, 3], "kernel_regularizer": null, "filters": 64, "activation": "linear", "strides": [1, 1], "padding": "valid", "dilation_rate": [1, 1], "trainable": true, "bias_initializer": {"config": {}, "class_name": "Zeros"}, "kernel_constraint": null, "name": "conv2d_61", "use_bias": false, "bias_regularizer": null}}, {"class_name": "Concatenate", "name": "concatenate_30", "inbound_nodes": [[["conv2d_95", 0, 0, {}], ["conv2d_96", 0, 0, {}], ["conv2d_97", 0, 0, {}]]], "config": {"name": "concatenate_30", "trainable": true, "axis": 1}}, {"class_name": "Concatenate", "name": "concatenate_18", "inbound_nodes": [[["conv2d_59", 0, 0, {}], ["conv2d_60", 0, 0, {}], ["conv2d_61", 0, 0, {}]]], "config": {"name": "concatenate_18", "trainable": true, "axis": 1}}, {"class_name": "Add", "name": "add_38", "inbound_nodes": [[["concatenate_30", 0, 0, {}], ["add_37", 0, 0, {}]]], "config": {"name": "add_38", "trainable": true}}, {"class_name": "Add", "name": "add_23", "inbound_nodes": [[["concatenate_18", 0, 0, {}], ["add_22", 0, 0, {}]]], "config": {"name": "add_23", "trainable": true}}, {"class_name": "UpSampling2D", "name": "up_sampling2d_8", "inbound_nodes": [[["add_38", 0, 0, {}]]], "config": {"data_format": "channels_first", "name": "up_sampling2d_8", "size": [2, 2], "trainable": true}}, {"class_name": "Add", "name": "add_39", "inbound_nodes": [[["add_23", 0, 0, {}], ["up_sampling2d_8", 0, 0, {}]]], "config": {"name": "add_39", "trainable": true}}, {"class_name": "TorchBatchNorm2D", "name": "torch_batch_norm2d_95", "inbound_nodes": [[["add_39", 0, 0, {}]]], "config": {"epsilon": 1e-05, "name": "torch_batch_norm2d_95", "momentum": 0.1, "trainable": true, "axis": 1}}, {"class_name": "Activation", "name": "activation_95", "inbound_nodes": [[["torch_batch_norm2d_95", 0, 0, {}]]], "config": {"activation": "relu", "name": "activation_95", "trainable": true}}, {"class_name": "ZeroPadding2D", "name": "zero_padding2d_92", "inbound_nodes": [[["activation_95", 0, 0, {}]]], "config": {"padding": [[1, 1], [1, 1]], "data_format": "channels_first", "name": "zero_padding2d_92", "trainable": true}}, {"class_name": "Conv2D", "name": "conv2d_98", "inbound_nodes": [[["zero_padding2d_92", 0, 0, {}]]], "config": {"data_format": "channels_first", "kernel_initializer": {"config": {"mode": "fan_avg", "scale": 1.0, "distribution": "uniform", "seed": null}, "class_name": "VarianceScaling"}, "activity_regularizer": null, "bias_constraint": null, "kernel_size": [3, 3], "kernel_regularizer": null, "filters": 128, "activation": "linear", "strides": [1, 1], "padding": "valid", "dilation_rate": [1, 1], "trainable": true, "bias_initializer": {"config": {}, "class_name": "Zeros"}, "kernel_constraint": null, "name": "conv2d_98", "use_bias": false, "bias_regularizer": null}}, {"class_name": "TorchBatchNorm2D", "name": "torch_batch_norm2d_96", "inbound_nodes": [[["conv2d_98", 0, 0, {}]]], "config": {"epsilon": 1e-05, "name": "torch_batch_norm2d_96", "momentum": 0.1, "trainable": true, "axis": 1}}, {"class_name": "Activation", "name": "activation_96", "inbound_nodes": [[["torch_batch_norm2d_96", 0, 0, {}]]], "config": {"activation": "relu", "name": "activation_96", "trainable": true}}, {"class_name": "ZeroPadding2D", "name": "zero_padding2d_93", "inbound_nodes": [[["activation_96", 0, 0, {}]]], "config": {"padding": [[1, 1], [1, 1]], "data_format": "channels_first", "name": "zero_padding2d_93", "trainable": true}}, {"class_name": "Conv2D", "name": "conv2d_99", "inbound_nodes": [[["zero_padding2d_93", 0, 0, {}]]], "config": {"data_format": "channels_first", "kernel_initializer": {"config": {"mode": "fan_avg", "scale": 1.0, "distribution": "uniform", "seed": null}, "class_name": "VarianceScaling"}, "activity_regularizer": null, "bias_constraint": null, "kernel_size": [3, 3], "kernel_regularizer": null, "filters": 64, "activation": "linear", "strides": [1, 1], "padding": "valid", "dilation_rate": [1, 1], "trainable": true, "bias_initializer": {"config": {}, "class_name": "Zeros"}, "kernel_constraint": null, "name": "conv2d_99", "use_bias": false, "bias_regularizer": null}}, {"class_name": "TorchBatchNorm2D", "name": "torch_batch_norm2d_97", "inbound_nodes": [[["conv2d_99", 0, 0, {}]]], "config": {"epsilon": 1e-05, "name": "torch_batch_norm2d_97", "momentum": 0.1, "trainable": true, "axis": 1}}, {"class_name": "Activation", "name": "activation_97", "inbound_nodes": [[["torch_batch_norm2d_97", 0, 0, {}]]], "config": {"activation": "relu", "name": "activation_97", "trainable": true}}, {"class_name": "ZeroPadding2D", "name": "zero_padding2d_94", "inbound_nodes": [[["activation_97", 0, 0, {}]]], "config": {"padding": [[1, 1], [1, 1]], "data_format": "channels_first", "name": "zero_padding2d_94", "trainable": true}}, {"class_name": "Conv2D", "name": "conv2d_100", "inbound_nodes": [[["zero_padding2d_94", 0, 0, {}]]], "config": {"data_format": "channels_first", "kernel_initializer": {"config": {"mode": "fan_avg", "scale": 1.0, "distribution": "uniform", "seed": null}, "class_name": "VarianceScaling"}, "activity_regularizer": null, "bias_constraint": null, "kernel_size": [3, 3], "kernel_regularizer": null, "filters": 64, "activation": "linear", "strides": [1, 1], "padding": "valid", "dilation_rate": [1, 1], "trainable": true, "bias_initializer": {"config": {}, "class_name": "Zeros"}, "kernel_constraint": null, "name": "conv2d_100", "use_bias": false, "bias_regularizer": null}}, {"class_name": "Concatenate", "name": "concatenate_31", "inbound_nodes": [[["conv2d_98", 0, 0, {}], ["conv2d_99", 0, 0, {}], ["conv2d_100", 0, 0, {}]]], "config": {"name": "concatenate_31", "trainable": true, "axis": 1}}, {"class_name": "Add", "name": "add_40", "inbound_nodes": [[["concatenate_31", 0, 0, {}], ["add_39", 0, 0, {}]]], "config": {"name": "add_40", "trainable": true}}, {"class_name": "Conv2D", "name": "conv2d_101", "inbound_nodes": [[["add_40", 0, 0, {}]]], "config": {"data_format": "channels_first", "kernel_initializer": {"config": {"mode": "fan_avg", "scale": 1.0, "distribution": "uniform", "seed": null}, "class_name": "VarianceScaling"}, "activity_regularizer": null, "bias_constraint": null, "kernel_size": [1, 1], "kernel_regularizer": null, "filters": 256, "activation": "linear", "strides": [1, 1], "padding": "valid", "dilation_rate": [1, 1], "trainable": true, "bias_initializer": {"config": {}, "class_name": "Zeros"}, "kernel_constraint": null, "name": "conv2d_101", "use_bias": true, "bias_regularizer": null}}, {"class_name": "TorchBatchNorm2D", "name": "torch_batch_norm2d_98", "inbound_nodes": [[["conv2d_101", 0, 0, {}]]], "config": {"epsilon": 1e-05, "name": "torch_batch_norm2d_98", "momentum": 0.1, "trainable": true, "axis": 1}}, {"class_name": "Activation", "name": "activation_98", "inbound_nodes": [[["torch_batch_norm2d_98", 0, 0, {}]]], "config": {"activation": "relu", "name": "activation_98", "trainable": true}}, {"class_name": "Conv2D", "name": "conv2d_102", "inbound_nodes": [[["activation_98", 0, 0, {}]]], "config": {"data_format": "channels_first", "kernel_initializer": {"config": {"mode": "fan_avg", "scale": 1.0, "distribution": "uniform", "seed": null}, "class_name": "VarianceScaling"}, "activity_regularizer": null, "bias_constraint": null, "kernel_size": [1, 1], "kernel_regularizer": null, "filters": 68, "activation": "linear", "strides": [1, 1], "padding": "valid", "dilation_rate": [1, 1], "trainable": true, "bias_initializer": {"config": {}, "class_name": "Zeros"}, "kernel_constraint": null, "name": "conv2d_102", "use_bias": true, "bias_regularizer": null}}, {"class_name": "Conv2D", "name": "conv2d_103", "inbound_nodes": [[["activation_98", 0, 0, {}]]], "config": {"data_format": "channels_first", "kernel_initializer": {"config": {"mode": "fan_avg", "scale": 1.0, "distribution": "uniform", "seed": null}, "class_name": "VarianceScaling"}, "activity_regularizer": null, "bias_constraint": null, "kernel_size": [1, 1], "kernel_regularizer": null, "filters": 256, "activation": "linear", "strides": [1, 1], "padding": "valid", "dilation_rate": [1, 1], "trainable": true, "bias_initializer": {"config": {}, "class_name": "Zeros"}, "kernel_constraint": null, "name": "conv2d_103", "use_bias": true, "bias_regularizer": null}}, {"class_name": "Conv2D", "name": "conv2d_104", "inbound_nodes": [[["conv2d_102", 0, 0, {}]]], "config": {"data_format": "channels_first", "kernel_initializer": {"config": {"mode": "fan_avg", "scale": 1.0, "distribution": "uniform", "seed": null}, "class_name": "VarianceScaling"}, "activity_regularizer": null, "bias_constraint": null, "kernel_size": [1, 1], "kernel_regularizer": null, "filters": 256, "activation": "linear", "strides": [1, 1], "padding": "valid"…
ntization": {"min": -0.0, "scale": 0.0033563374966273413, "dtype": "uint8"}}, {"name": "torch_batch_norm2d_34/beta", "shape": [256], "dtype": "float32", "quantization": {"min": -0.3423061888884095, "scale": 0.0017375948674538556, "dtype": "uint8"}}, {"name": "torch_batch_norm2d_34/moving_mean", "shape": [256], "dtype": "float32", "quantization": {"min": -8.046746358684466, "scale": 0.04084642821667241, "dtype": "uint8"}}, {"name": "torch_batch_norm2d_34/moving_variance", "shape": [256], "dtype": "float32", "quantization": {"min": 0.02047165296971798, "scale": 0.015691854125436614, "dtype": "uint8"}}, {"name": "torch_batch_norm2d_35/gamma", "shape": [128], "dtype": "float32", "quantization": {"min": -0.0, "scale": 0.0036275215546244426, "dtype": "uint8"}}, {"name": "torch_batch_norm2d_35/beta", "shape": [128], "dtype": "float32", "quantization": {"min": -0.3207608461380005, "scale": 0.0012246943097196374, "dtype": "uint8"}}, {"name": "torch_batch_norm2d_35/moving_mean", "shape": [128], "dtype": "float32", "quantization": {"min": -2.2543723146120707, "scale": 0.012055466923059201, "dtype": "uint8"}}, {"name": "torch_batch_norm2d_35/moving_variance", "shape": [128], "dtype": "float32", "quantization": {"min": 1.0081138610839844, "scale": 0.006725312214271695, "dtype": "uint8"}}, {"name": "torch_batch_norm2d_36/gamma", "shape": [64], "dtype": "float32", "quantization": {"min": 0.0012526863720268011, "scale": 0.0027404631844119114, "dtype": "uint8"}}, {"name": "torch_batch_norm2d_36/beta", "shape": [64], "dtype": "float32", "quantization": {"min": -0.3538578748703003, "scale": 0.0013175686711774154, "dtype": "uint8"}}, {"name": "torch_batch_norm2d_36/moving_mean", "shape": [64], "dtype": "float32", "quantization": {"min": -1.614944668377147, "scale": 0.008971914824317483, "dtype": "uint8"}}, {"name": "torch_batch_norm2d_36/moving_variance", "shape": [64], "dtype": "float32", "quantization": {"min": 0.4598992168903351, "scale": 0.00625789387553346, "dtype": "uint8"}}, {"name": "torch_batch_norm2d_37/gamma", "shape": [256], "dtype": "float32", "quantization": {"min": -0.0, "scale": 0.0036119763319398842, "dtype": "uint8"}}, {"name": "torch_batch_norm2d_37/beta", "shape": [256], "dtype": "float32", "quantization": {"min": -0.3889407515525818, "scale": 0.0014978330655425203, "dtype": "uint8"}}, {"name": "torch_batch_norm2d_37/moving_mean", "shape": [256], "dtype": "float32", "quantization": {"min": -9.327216348928564, "scale": 0.04378974811703551, "dtype": "uint8"}}, {"name": "torch_batch_norm2d_37/moving_variance", "shape": [256], "dtype": "float32", "quantization": {"min": 0.07522570341825485, "scale": 0.02492935379930571, "dtype": "uint8"}}, {"name": "torch_batch_norm2d_38/gamma", "shape": [128], "dtype": "float32", "quantization": {"min": 0.002420820062980056, "scale": 0.003815622044288937, "dtype": "uint8"}}, {"name": "torch_batch_norm2d_38/beta", "shape": [128], "dtype": "float32", "quantization": {"min": -0.3594636917114258, "scale": 0.0013606522999265614, "dtype": "uint8"}}, {"name": "torch_batch_norm2d_38/moving_mean", "shape": [128], "dtype": "float32", "quantization": {"min": -2.3250293619492473, "scale": 0.017613858802645814, "dtype": "uint8"}}, {"name": "torch_batch_norm2d_38/moving_variance", "shape": [128], "dtype": "float32", "quantization": {"min": 1.0525047779083252, "scale": 0.005312119278253293, "dtype": "uint8"}}, {"name": "torch_batch_norm2d_39/gamma", "shape": [64], "dtype": "float32", "quantization": {"min": -0.0, "scale": 0.002741996962554278, "dtype": "uint8"}}, {"name": "torch_batch_norm2d_39/beta", "shape": [64], "dtype": "float32", "quantization": {"min": -0.39310669898986816, "scale": 0.0015206977231975863, "dtype": "uint8"}}, {"name": "torch_batch_norm2d_39/moving_mean", "shape": [64], "dtype": "float32", "quantization": {"min": -1.7678726112141327, "scale": 0.012810671095754586, "dtype": "uint8"}}, {"name": "torch_batch_norm2d_39/moving_variance", "shape": [64], "dtype": "float32", "quantization": {"min": 0.6253935694694519, "scale": 0.005603484780180688, "dtype": "uint8"}}, {"name": "torch_batch_norm2d_4/gamma", "shape": [32], "dtype": "float32", "quantization": {"min": 0.12637867033481598, "scale": 0.003912243597647723, "dtype": "uint8"}}, {"name": "torch_batch_norm2d_4/beta", "shape": [32], "dtype": "float32", "quantization": {"min": -0.32326790304744946, "scale": 0.0019832386690027573, "dtype": "uint8"}}, {"name": "torch_batch_norm2d_4/moving_mean", "shape": [32], "dtype": "float32", "quantization": {"min": -1.3603196349798465, "scale": 0.01658926384121764, "dtype": "uint8"}}, {"name": "torch_batch_norm2d_4/moving_variance", "shape": [32], "dtype": "float32", "quantization": {"min": 0.4135670065879822, "scale": 0.01266880526262171, "dtype": "uint8"}}, {"name": "torch_batch_norm2d_40/gamma", "shape": [256], "dtype": "float32", "quantization": {"min": 4.402405011205701e-06, "scale": 0.0038357017414009354, "dtype": "uint8"}}, {"name": "torch_batch_norm2d_40/beta", "shape": [256], "dtype": "float32", "quantization": {"min": -0.4158777594566345, "scale": 0.00162860719605769, "dtype": "uint8"}}, {"name": "torch_batch_norm2d_40/moving_mean", "shape": [256], "dtype": "float32", "quantization": {"min": -11.215218804864323, "scale": 0.05579710848191205, "dtype": "uint8"}}, {"name": "torch_batch_norm2d_40/moving_variance", "shape": [256], "dtype": "float32", "quantization": {"min": 0.16163168847560883, "scale": 0.03604548544275994, "dtype": "uint8"}}, {"name": "torch_batch_norm2d_41/gamma", "shape": [128], "dtype": "float32", "quantization": {"min": 0.0033390894532203674, "scale": 0.003937124592416427, "dtype": "uint8"}}, {"name": "torch_batch_norm2d_41/beta", "shape": [128], "dtype": "float32", "quantization": {"min": -0.3837689161300659, "scale": 0.0014062741296548469, "dtype": "uint8"}}, {"name": "torch_batch_norm2d_41/moving_mean", "shape": [128], "dtype": "float32", "quantization": {"min": -3.409146959641401, "scale": 0.026843676847570084, "dtype": "uint8"}}, {"name": "torch_batch_norm2d_41/moving_variance", "shape": [128], "dtype": "float32", "quantization": {"min": 1.336203932762146, "scale": 0.022508954534343643, "dtype": "uint8"}}, {"name": "torch_batch_norm2d_42/gamma", "shape": [64], "dtype": "float32", "quantization": {"min": 0.0021865954622626305, "scale": 0.003234791759328515, "dtype": "uint8"}}, {"name": "torch_batch_norm2d_42/beta", "shape": [64], "dtype": "float32", "quantization": {"min": -0.35369229316711426, "scale": 0.0013210439652788872, "dtype": "uint8"}}, {"name": "torch_batch_norm2d_42/moving_mean", "shape": [64], "dtype": "float32", "quantization": {"min": -2.6585713732476326, "scale": 0.021971664241715972, "dtype": "uint8"}}, {"name": "torch_batch_norm2d_42/moving_variance", "shape": [64], "dtype": "float32", "quantization": {"min": 0.9278333187103271, "scale": 0.010631443472469554, "dtype": "uint8"}}, {"name": "torch_batch_norm2d_43/gamma", "shape": [256], "dtype": "float32", "quantization": {"min": -0.1407437102467406, "scale": 0.005026561080240736, "dtype": "uint8"}}, {"name": "torch_batch_norm2d_43/beta", "shape": [256], "dtype": "float32", "quantization": {"min": -0.3338854803758509, "scale": 0.0016694274018792545, "dtype": "uint8"}}, {"name": "torch_batch_norm2d_43/moving_mean", "shape": [256], "dtype": "float32", "quantization": {"min": -23.036873774435005, "scale": 0.11348213681987687, "dtype": "uint8"}}, {"name": "torch_batch_norm2d_43/moving_variance", "shape": [256], "dtype": "float32", "quantization": {"min": 0.5990867018699646, "scale": 0.15549856471080406, "dtype": "uint8"}}, {"name": "torch_batch_norm2d_44/gamma", "shape": [128], "dtype": "float32", "quantization": {"min": 0.00091115030227229, "scale": 0.003971234825211486, "dtype": "uint8"}}, {"name": "torch_batch_norm2d_44/beta", "shape": [128], "dtype": "float32", "quantization": {"min": -0.3331340551376343, "scale": 0.001281364749678794, "dtype": "uint8"}}, {"name": "torch_batch_norm2d_44/moving_mean", "shape": [128], "dtype": "float32", "quantization": {"min": -4.976653472115012, "scale": 0.03340035887325511, "dtype": "uint8"}}, {"name": "torch_batch_norm2d_44/moving_variance", "shape": [128], "dtype": "float32", "quantization": {"min": 2.7246246337890625, "scale": 0.06770570792403875, "dtype": "uint8"}}, {"name": "torch_batch_norm2d_45/gamma", "shape": [64], "dtype": "float32", "quantization": {"min": 4.531766171567142e-05, "scale": 0.0036387099228187593, "dtype": "uint8"}}, {"name": "torch_batch_norm2d_45/beta", "shape": [64], "dtype": "float32", "quantization": {"min": -0.269897997379303, "scale": 0.0010534142436204002, "dtype": "uint8"}}, {"name": "torch_batch_norm2d_45/moving_mean", "shape": [64], "dtype": "float32", "quantization": {"min": -3.012510860667509, "scale": 0.025104257172229243, "dtype": "uint8"}}, {"name": "torch_batch_norm2d_45/moving_variance", "shape": [64], "dtype": "float32", "quantization": {"min": 2.0110065937042236, "scale": 0.03083797436134488, "dtype": "uint8"}}, {"name": "torch_batch_norm2d_46/gamma", "shape": [256], "dtype": "float32", "quantization": {"min": 0.0006074574775993824, "scale": 0.004518391233960203, "dtype": "uint8"}}, {"name": "torch_batch_norm2d_46/beta", "shape": [256], "dtype": "float32", "quantization": {"min": -0.431322068677229, "scale": 0.0017533417425903619, "dtype": "uint8"}}, {"name": "torch_batch_norm2d_46/moving_mean", "shape": [256], "dtype": "float32", "quantization": {"min": -33.39979800056009, "scale": 0.1721639072193819, "dtype": "uint8"}}, {"name": "torch_batch_norm2d_46/moving_variance", "shape": [256], "dtype": "float32", "quantization": {"min": 1.5693475008010864, "scale": 0.3139726073134179, "dtype": "uint8"}}, {"name": "torch_batch_norm2d_47/gamma", "shape": [128], "dtype": "float32", "quantization": {"min": 0.0022663839627057314, "scale": 0.003803182673622288, "dtype": "uint8"}}, {"name": "torch_batch_norm2d_47/beta", "shape": [128], "dtype": "float32", "quantization": {"min": -0.5250104665756226, "scale": 0.0019730977860151554, "dtype": "uint8"}}, {"name": "torch_batch_norm2d_47/moving_mean", "shape": [128], "dtype": "float32", "quantization": {"min": -7.236807630576339, "scale": 0.04333417742860084, "dtype": "uint8"}}, {"name": "torch_batch_norm2d_47/moving_variance", "shape": [128], "dtype": "float32", "quantization": {"min": 2.960620403289795, "scale": 0.10206543604532878, "dtype": "uint8"}}, {"name": "torch_batch_norm2d_48/gamma", "shape": [64], "dtype": "float32", "quantization": {"min": 0.38979634642601013, "scale": 0.0032999773820241293, "dtype": "uint8"}}, {"name": "torch_batch_norm2d_48/beta", "shape": [64], "dtype": "float32", "quantization": {"min": -0.47014637671264947, "scale": 0.002626516071020388, "dtype": "uint8"}}, {"name": "torch_batch_norm2d_48/moving_mean", "shape": [64], "dtype": "float32", "quantization": {"min": -1.5236942342683382, "scale": 0.019287268788206812, "dtype": "uint8"}}, {"name": "torch_batch_norm2d_48/moving_variance", "shape": [64], "dtype": "float32", "quantization": {"min": 0.8545702695846558, "scale": 0.04811338957618264, "dtype": "uint8"}}, {"name": "torch_batch_norm2d_49/gamma", "shape": [256], "dtype": "float32", "quantization": {"min": -0.2905266621533562, "scale": 0.005587051195256851, "dtype": "uint8"}}, {"name": "torch_batch_norm2d_49/beta", "shape": [256], "dtype": "float32", "quantization": {"min": -0.512679776724647, "scale": 0.0023303626214756686, "dtype": "uint8"}}, {"name": "torch_batch_norm2d_49/moving_mean", "shape": [256], "dtype": "float32", "quantization": {"min": -36.36732769012451, "scale": 0.1731777509053548, "dtype": "uint8"}}, {"name": "torch_batch_norm2d_49/moving_variance", "shape": [256], "dtype": "float32", "quantization": {"min": 5.540792942047119, "scale": 0.45708352444218653, "dtype": "uint8"}}, {"name": "torch_batch_norm2d_5/gamma", "shape": [64], "dtype": "float32", "quantization": {"min": 0.006352877710014582, "scale": 0.0031609989611395433, "dtype": "uint8"}}, {"name": "torch_batch_norm2d_5/beta", "shape": [64], "dtype": "float32", "quantization": {"min": -0.30797575291465307, "scale": 0.002825465623070212, "dtype": "uint8"}}, {"name": "torch_batch_norm2d_5/moving_mean", "shape": [64], "dtype": "float32", "quantization": {"min": 5.605193857299268e-45, "scale": 0.0021401304824679506, "dtype": "uint8"}}, {"name": "torch_batch_norm2d_5/moving_variance", "shape": [64], "dtype": "float32", "quantization": {"min": 5.605193857299268e-45, "scale": 0.0011666559705547257, "dtype": "uint8"}}, {"name": "torch_batch_norm2d_50/gamma", "shape": [128], "dtype": "float32", "quantization": {"min": 0.14932331442832947, "scale": 0.003305608735365026, "dtype": "uint8"}}, {"name": "torch_batch_norm2d_50/beta", "shape": [128], "dtype": "float32", "quantization": {"min": -0.688034929627297, "scale": 0.0028198152853577746, "dtype": "uint8"}}, {"name": "torch_batch_norm2d_50/moving_mean", "shape": [128], "dtype": "float32", "quantization": {"min": -8.949892934163412, "scale": 0.05359217325846354, "dtype": "uint8"}}, {"name": "torch_batch_norm2d_50/moving_variance", "shape": [128], "dtype": "float32", "quantization": {"min": 2.0315961837768555, "scale": 0.2027576109942268, "dtype": "uint8"}}, {"name": "torch_batch_norm2d_51/gamma", "shape": [64], "dtype": "float32", "quantization": {"min": 0.44743478298187256, "scale": 0.0039577867470535575, "dtype": "uint8"}}, {"name": "torch_batch_norm2d_51/beta", "shape": [64], "dtype": "float32", "quantization": {"min": -0.8188970280628578, "scale": 0.004903575018340466, "dtype": "uint8"}}, {"name": "torch_batch_norm2d_51/moving_mean", "shape": [64], "dtype": "float32", "quantization": {"min": -1.8799982370114794, "scale": 0.028059675179275812, "dtype": "uint8"}}, {"name": "torch_batch_norm2d_51/moving_variance", "shape": [64], "dtype": "float32", "quantization": {"min": 0.4793272018432617, "scale": 0.12941630120370903, "dtype": "uint8"}}, {"name": "torch_batch_norm2d_52/gamma", "shape": [256], "dtype": "float32", "quantization": {"min": 0.16329342126846313, "scale": 0.004311215877532959, "dtype": "uint8"}}, {"name": "torch_batch_norm2d_52/beta", "shape": [256], "dtype": "float32", "quantization": {"min": -0.529939134798798, "scale": 0.0035566384885825364, "dtype": "uint8"}}, {"name": "torch_batch_norm2d_52/moving_mean", "shape": [256], "dtype": "float32", "quantization": {"min": -42.28876652437098, "scale": 0.20628666597254136, "dtype": "uint8"}}, {"name": "torch_batch_norm2d_52/moving_variance", "shape": [256], "dtype": "float32", "quantization": {"min": 19.040510177612305, "scale": 0.6088790669160731, "dtype": "uint8"}}, {"name": "torch_batch_norm2d_53/gamma", "shape": [128], "dtype": "float32", "quantization": {"min": 0.00031083804788067937, "scale": 0.0042040308323396626, "dtype": "uint8"}}, {"name": "torch_batch_norm2d_53/beta", "shape": [128], "dtype": "float32", "quantization": {"min": -0.6952690755619721, "scale": 0.004456853048474181, "dtype": "uint8"}}, {"name": "torch_batch_norm2d_53/moving_mean", "shape": [128], "dtype": "float32", "quantization": {"min": -9.680642101811427, "scale": 0.08643430448045918, "dtype": "uint8"}}, {"name": "torch_batch_norm2d_53/moving_variance", "shape": [128], "dtype": "float32", "quantization": {"min": 5.280397415161133, "scale": 0.5142903571035348, "dtype": "uint8"}}, {"name": "torch_batch_norm2d_54/gamma", "shape": [64], "dtype": "float32", "quantization": {"min": 0.3230654299259186, "scale": 0.005471780604007197, "dtype": "uint8"}}, {"name": "torch_batch_norm2d_54/beta", "shape": [64], "dtype": "float32", "quantization": {"min": -0.9944089954974604, "scale": 0.006063469484740612, "dtype": "uint8"}}, {"name": "torch_batch_norm2d_54/moving_mean", "shape": [64], "dtype": "float32", "quantization": {"min": -12.05286829331342, "scale": 0.12555071138868146, "dtype": "uint8"}}, {"name": "torch_batch_norm2d_54/moving_variance", "shape": [64], "dtype": "float32", "quantization": {"min": 0.9215790629386902, "scale": 3.432822037911883, "dtype": "uint8"}}, {"name": "torch_batch_norm2d_55/gamma", "shape": [256], "dtype": "float32", "quantization": {"min": 2.946038694062736e-05, "scale": 0.003545682508974649, "dtype": "uint8"}}, {"name": "torch_batch_norm2d_55/beta", "shape": [256], "dtype": "float32", "quantization": {"min": -0.580487421914643, "scale": 0.0032611652916552975, "dtype": "uint8"}}, {"name": "torch_batch_norm2d_55/moving_mean", "shape": [256], "dtype": "float32", "quantization": {"min": -69.0262841318168, "scale": 0.4571277094822304, "dtype": "uint8"}}, {"name": "torch_batch_norm2d_55/moving_variance", "shape": [256], "dtype": "float32", "quantization": {"min": 56.51348114013672, "scale": 27.819922622979856, "dtype": "uint8"}}, {"name": "torch_batch_norm2d_56/gamma", "shape": [256], "dtype": "float32", "quantization": {"min": 0.22190570831298828, "scale": 0.0032247047798306333, "dtype": "uint8"}}, {"name": "torch_batch_norm2d_56/beta", "shape": [256], "dtype": "float32", "quantization": {"min": -0.4916967233022054, "scale": 0.0036154170831044514, "dtype": "uint8"}}, {"name": "torch_batch_norm2d_56/moving_mean", "shape": [256], "dtype": "float32", "quantization": {"min": -0.9642360972423181, "scale": 0.0056060238211762675, "dtype": "uint8"}}, {"name": "torch_batch_norm2d_56/moving_variance", "shape": [256], "dtype": "float32", "quantization": {"min": 0.036121562123298645, "scale": 0.00432915190855662, "dtype": "uint8"}}, {"name": "torch_batch_norm2d_57/gamma", "shape": [128], "dtype": "float32", "quantization": {"min": -0.0, "scale": 0.004343205739175627, "dtype": "uint8"}}, {"name": "torch_batch_norm2d_57/beta", "shape": [128], "dtype": "float32", "quantization": {"min": -0.7740721835809595, "scale": 0.0036341417069528617, "dtype": "uint8"}}, {"name": "torch_batch_norm2d_57/moving_mean", "shape": [128], "dtype": "float32", "quantization": {"min": -7.620601758769914, "scale": 0.06804108713187423, "dtype": "uint8"}}, {"name": "torch_batch_norm2d_57/moving_variance", "shape": [128], "dtype": "float32", "quantization": {"min": 1.6844384670257568, "scale": 0.21312394329145842, "dtype": "uint8"}}, {"name": "torch_batch_norm2d_58/gamma", "shape": [64], "dtype": "float32", "quantization": {"min": -0.0, "scale": 0.0054323389553639, "dtype": "uint8"}}, {"name": "torch_batch_norm2d_58/beta", "shape": [64], "dtype": "float32", "quantization": {"min": -0.7258480389912922, "scale": 0.0042696943470076016, "dtype": "uint8"}}, {"name": "torch_batch_norm2d_58/moving_mean", "shape": [64], "dtype": "float32", "quantization": {"min": -2.29210999806722, "scale": 0.01942466100056966, "dtype": "uint8"}}, {"name": "torch_batch_norm2d_58/moving_variance", "shape": [64], "dtype": "float32", "quantization": {"min": 0.5862335562705994, "scale": 0.028748886491738113, "dtype": "uint8"}}, {"name": "torch_batch_norm2d_59/gamma", "shape": [256], "dtype": "float32", "quantization": {"min": -0.0, "scale": 0.003224794197412135, "dtype": "uint8"}}, {"name": "torch_batch_norm2d_59/beta", "shape": [256], "dtype": "float32", "quantization": {"min": -0.41710012309691485, "scale": 0.003310318437277102, "dtype": "uint8"}}, {"name": "torch_batch_norm2d_59/moving_mean", "shape": [256], "dtype": "float32", "quantization": {"min": -0.9642361374462353, "scale": 0.0056060240549199725, "dtype": "uint8"}}, {"name": "torch_batch_norm2d_59/moving_variance", "shape": [256], "dtype": "float32", "quantization": {"min": 0.026240143924951553, "scale": 0.0038814188072494433, "dtype": "uint8"}}, {"name": "torch_batch_norm2d_6/gamma", "shape": [128], "dtype": "float32", "quantization": {"min": -0.0, "scale": 0.004356076176763428, "dtype": "uint8"}}, {"name": "torch_batch_norm2d_6/beta", "shape": [128], "dtype": "float32", "quantization": {"min": -0.42463645981807335, "scale": 0.003598614066254859, "dtype": "uint8"}}, {"name": "torch_batch_norm2d_6/moving_mean", "shape": [128], "dtype": "float32", "quantization": {"min": -4.690363025665283, "scale": 0.030655967488008386, "dtype": "uint8"}}, {"name": "torch_batch_norm2d_6/moving_variance", "shape": [128], "dtype": "float32", "quantization": {"min": 0.1602289378643036, "scale": 0.03502868495735468, "dtype": "uint8"}}, {"name": "torch_batch_norm2d_60/gamma", "shape": [128], "dtype": "float32", "quantization": {"min": -0.0, "scale": 0.003600184818930632, "dtype": "uint8"}}, {"name": "torch_batch_norm2d_60/beta", "shape": [128], "dtype": "float32", "quantization": {"min": -0.42284328107740365, "scale": 0.0017050132301508212, "dtype": "uint8"}}, {"name": "torch_batch_norm2d_60/moving_mean", "shape": [128], "dtype": "float32", "quantization": {"min": -2.197725035863764, "scale": 0.01200942642548505, "dtype": "uint8"}}, {"name": "torch_batch_norm2d_60/moving_variance", "shape": [128], "dtype": "float32", "quantization": {"min": 0.5644893646240234, "scale": 0.06382433573404948, "dtype": "uint8"}}, {"name": "torch_batch_norm2d_61/gamma", "shape": [64], "dtype": "float32", "quantization": {"min": 0.0019005155190825462, "scale": 0.0035947048525307693, "dtype": "uint8"}}, {"name": "torch_batch_norm2d_61/beta", "shape": [64], "dtype": "float32", "quantization": {"min": -0.3570289214452108, "scale": 0.001593879113594691, "dtype": "uint8"}}, {"name": "torch_batch_norm2d_61/moving_mean", "shape": [64], "dtype": "float32", "quantization": {"min": -0.7460879625058642, "scale": 0.00717392271640254, "dtype": "uint8"}}, {"name": "torch_batch_norm2d_61/moving_variance", "shape": [64], "dtype": "float32", "quantization": {"min": 0.20342017710208893, "scale": 0.02770031006897197, "dtype": "uint8"}}, {"name": "torch_batch_norm2d_62/gamma", "shape": [256], "dtype": "float32", "quantization": {"min": -0.0, "scale": 0.004296651073473542, "dtype": "uint8"}}, {"name": "torch_batch_norm2d_62/beta", "shape": [256], "dtype": "float32", "quantization": {"min": -0.45436939246514263, "scale": 0.00261131834750082, "dtype": "uint8"}}, {"name": "torch_batch_norm2d_62/moving_mean", "shape": [256], "dtype": "float32", "quantization": {"min": -2.702114329618566, "scale": 0.0150117462756587, "dtype": "uint8"}}, {"name": "torch_batch_norm2d_62/moving_variance", "shape": [256], "dtype": "float32", "quantization": {"min": 0.06073930114507675, "scale": 0.08809400157016867, "dtype": "uint8"}}, {"name": "torch_batch_norm2d_63/gamma", "shape": [128], "dtype": "float32", "quantization": {"min": 0.00011845301924040541, "scale": 0.00441397654966054, "dtype": "uint8"}}, {"name": "torch_batch_norm2d_63/beta", "shape": [128], "dtype": "float32", "quantization": {"min": -0.5355113736846868, "scale": 0.002168062241638408, "dtype": "uint8"}}, {"name": "torch_batch_norm2d_63/moving_mean", "shape": [128], "dtype": "float32", "quantization": {"min": -6.007800261179606, "scale": 0.035340001536350626, "dtype": "uint8"}}, {"name": "torch_batch_norm2d_63/moving_variance", "shape": [128], "dtype": "float32", "quantization": {"min": 1.7483104467391968, "scale": 0.27274784621070414, "dtype": "uint8"}}, {"name": "torch_batch_norm2d_64/gamma", "shape": [64], "dtype": "float32", "quantization": {"min": 0.00017692605615593493, "scale": 0.0042380276084740594, "dtype": "uint8"}}, {"name": "torch_batch_norm2d_64/beta", "shape": [64], "dtype": "float32", "quantization": {"min": -0.4621356288007661, "scale": 0.00228780014257805, "dtype": "uint8"}}, {"name": "torch_batch_norm2d_64/moving_mean", "shape": [64], "dtype": "float32", "quantization": {"min": -1.6770416400011847, "scale": 0.019500484186060287, "dtype": "uint8"}}, {"name": "torch_batch_norm2d_64/moving_variance", "shape": [64], "dtype": "float32", "quantization": {"min": 1.1630264520645142, "scale": 0.026518744580885944, "dtype": "uint8"}}, {"name": "torch_batch_norm2d_65/gamma", "shape": [256], "dtype": "float32", "quantization": {"min": 0.0006294758059084415, "scale": 0.004060545423086368, "dtype": "uint8"}}, {"name": "torch_batch_norm2d_65/beta", "shape": [256], "dtype": "float32", "quantization": {"min": -0.40112282388350545, "scale": 0.0018920887919033275, "dtype": "uint8"}}, {"name": "torch_batch_norm2d_65/moving_mean", "shape": [256], "dtype": "float32", "quantization": {"min": -2.702114329618566, "scale": 0.0150117462756587, "dtype": "uint8"}}, {"name": "torch_batch_norm2d_65/moving_variance", "shape": [256], "dtype": "float32", "quantization": {"min": 0.033437833189964294, "scale": 0.07466102260000565, "dtype": "uint8"}}, {"name": "torch_batch_norm2d_66/gamma", "shape": [128], "dtype": "float32", "quantization": {"min": 0.00027974488330073655, "scale": 0.003523283065456495, "dtype": "uint8"}}, {"name": "torch_batch_norm2d_66/beta", "shape": [128], "dtype": "float32", "quantization": {"min": -0.34020177721977235, "scale": 0.0016676557706851586, "dtype": "uint8"}}, {"name": "torch_batch_norm2d_66/moving_mean", "shape": [128], "dtype": "float32", "quantization": {"min": -2.2979634761810304, "scale": 0.014452600479125976, "dtype": "uint8"}}, {"name": "torch_batch_norm2d_66/moving_variance", "shape": [128], "dtype": "float32", "quantization": {"min": 0.823748767375946, "scale": 0.38190617584714703, "dtype": "uint8"}}, {"name": "torch_batch_norm2d_67/gamma", "shape": [64], "dtype": "float32", "quantization": {"min": -0.0, "scale": 0.0033296418571148487, "dtype": "uint8"}}, {"name": "torch_batch_norm2d_67/beta", "shape": [64], "dtype": "float32", "quantization": {"min": -0.22331024765530053, "scale": 0.0009422373318789052, "dtype": "uint8"}}, {"name": "torch_batch_norm2d_67/moving_mean", "shape": [64], "dtype": "float32", "quantization": {"min": -0.8525465834374522, "scale": 0.006003849179136987, "dtype": "uint8"}}, {"name": "torch_batch_norm2d_67/moving_variance", "shape": [64], "dtype": "float32", "quantization": {"min": 0.3909107744693756, "scale": 0.029975761502396826, "dtype": "uint8"}}, {"name": "torch_batch_norm2d_68/gamma", "shape": [256], "dtype": "float32", "quantization": {"min": 0.013948719948530197, "scale": 0.0042847383986501135, "dtype": "uint8"}}, {"name": "torch_batch_norm2d_68/beta", "shape": [256], "dtype": "float32", "quantization": {"min": -0.36100475238818747, "scale": 0.0023907599495906454, "dtype": "uint8"}}, {"name": "torch_batch_norm2d_68/moving_mean", "shape": [256], "dtype": "float32", "quantization": {"min": -3.9632096468233593, "scale": 0.01869438512652528, "dtype": "uint8"}}, {"name": "torch_batch_norm2d_68/moving_variance", "shape": [256], "dtype": "float32", "quantization": {"min": 0.06117674335837364, "scale": 0.46010070327742425, "dtype": "uint8"}}, {"name": "torch_batch_norm2d_69/gamma", "shape": [128], "dtype": "float32", "quantization": {"min": 3.529760942910798e-05, "scale": 0.003925416938085726, "dtype": "uint8"}}, {"name": "torch_batch_norm2d_69/beta", "shape": [128], "dtype": "float32", "quantization": {"min": -0.36152617458034964, "scale": 0.002065863854744855, "dtype": "uint8"}}, {"name": "torch_batch_norm2d_69/moving_mean", "shape": [128], "dtype": "float32", "quantization": {"min": -4.307262803993973, "scale": 0.034458102431951784, "dtype": "uint8"}}, {"name": "torch_batch_norm2d_69/moving_variance", "shape": [128], "dtype": "float32", "quantization": {"min": 1.7745424509048462, "scale": 1.4858809877844419, "dtype": "uint8"}}, {"name": "torch_batch_norm2d_7/gamma", "shape": [64], "dtype": "float32", "quantization": {"min": 0.004565796814858913, "scale": 0.003925622828012588, "dtype": "uint8"}}, {"name": "torch_batch_norm2d_7/beta", "shape": [64], "dtype": "float32", "quantization": {"min": -0.2900636454423269, "scale": 0.002437509625565772, "dtype": "uint8"}}, {"name": "torch_batch_norm2d_7/moving_mean", "shape": [64], "dtype": "float32", "quantization": {"min": -5.604954998165954, "scale": 0.040912080278583604, "dtype": "uint8"}}, {"name": "torch_batch_norm2d_7/moving_variance", "shape": [64], "dtype": "float32", "quantization": {"min": 1.040039300918579, "scale": 0.023902170330870384, "dtype": "uint8"}}, {"name": "torch_batch_norm2d_70/gamma", "shape": [64], "dtype": "float32", "quantization": {"min": 5.728383985115215e-05, "scale": 0.003597786364986735, "dtype": "uint8"}}, {"name": "torch_batch_norm2d_70/beta", "shape": [64], "dtype": "float32", "quantization": {"min": -0.36478111147880554, "scale": 0.0014112410172089642, "dtype": "uint8"}}, {"name": "torch_batch_norm2d_70/moving_mean", "shape": [64], "dtype": "float32", "quantization": {"min": -1.5700441089330934, "scale": 0.009075399473601696, "dtype": "uint8"}}, {"name": "torch_batch_norm2d_70/moving_variance", "shape": [64], "dtype": "float32", "quantization": {"min": 0.6246894001960754, "scale": 0.012301598109450996, "dtype": "uint8"}}, {"name": "torch_batch_norm2d_71/gamma", "shape": [256], "dtype": "float32", "quantization": {"min": -0.0, "scale": 0.0037195120911871758, "dtype": "uint8"}}, {"name": "torch_batch_norm2d_71/beta", "shape": [256], "dtype": "float32", "quantization": {"min": -0.31754185250576805, "scale": 0.0015798102114714828, "dtype": "uint8"}}, {"name": "torch_batch_norm2d_71/moving_mean", "shape": [256], "dtype": "float32", "quantization": {"min": -3.9632098450380213, "scale": 0.0186943860615001, "dtype": "uint8"}}, {"name": "torch_batch_norm2d_71/moving_variance", "shape": [256], "dtype": "float32", "quantization": {"min": 0.027701592072844505, "scale": 0.35446894318595823, "dtype": "uint8"}}, {"name": "torch_batch_norm2d_72/gamma", "shape": [128], "dtype": "float32", "quantization": {"min": -0.0, "scale": 0.003463709931227141, "dtype": "uint8"}}, {"name": "torch_batch_norm2d_72/beta", "shape": [128], "dtype": "float32", "quantization": {"min": -0.3081287741661072, "scale": 0.0011965852924713902, "dtype": "uint8"}}, {"name": "torch_batch_norm2d_72/moving_mean", "shape": [128], "dtype": "float32", "quantization": {"min": -2.297971205617867, "scale": 0.01573952880560183, "dtype": "uint8"}}, {"name": "torch_batch_norm2d_72/moving_variance", "shape": [128], "dtype": "float32", "quantization": {"min": 0.6879838705062866, "scale": 0.02445833776511398, "dtype": "uint8"}}, {"name": "torch_batch_norm2d_73/gamma", "shape": [64], "dtype": "float32", "quantization": {"min": -0.0, "scale": 0.002724986713763107, "dtype": "uint8"}}, {"name": "torch_batch_norm2d_73/beta", "shape": [64], "dtype": "float32", "quantization": {"min": -0.26318904757499695, "scale": 0.0010185827263722233, "dtype": "uint8"}}, {"name": "torch_batch_norm2d_73/moving_mean", "shape": [64], "dtype": "float32", "quantization": {"min": -0.9947996377944945, "scale": 0.0061788797378540036, "dtype": "uint8"}}, {"name": "torch_batch_norm2d_73/moving_variance", "shape": [64], "dtype": "float32", "quantization": {"min": 0.2898031175136566, "scale": 0.011961991763582416, "dtype": "uint8"}}, {"name": "torch_batch_norm2d_74/gamma", "shape": [256], "dtype": "float32", "quantization": {"min": 0.0007396460277959704, "scale": 0.003950421202142595, "dtype": "uint8"}}, {"name": "torch_batch_norm2d_74/beta", "shape": [256], "dtype": "float32", "quantization": {"min": -0.2991831757858688, "scale": 0.0014112413952163622, "dtype": "uint8"}}, {"name": "torch_batch_norm2d_74/moving_mean", "shape": [256], "dtype": "float32", "quantization": {"min": -4.883121636334588, "scale": 0.022607044612660127, "dtype": "uint8"}}, {"name": "torch_batch_norm2d_74/moving_variance", "shape": [256], "dtype": "float32", "quantization": {"min": 0.05971039459109306, "scale": 0.4943683291913248, "dtype": "uint8"}}, {"name": "torch_batch_norm2d_75/gamma", "shape": [128], "dtype": "float32", "quantization": {"min": 0.0005466661532409489, "scale": 0.0035793607056999175, "dtype": "uint8"}}, {"name": "torch_batch_norm2d_75/beta", "shape": [128], "dtype": "float32", "quantization": {"min": -0.3849760890007019, "scale": 0.001469984215994676, "dtype": "uint8"}}, {"name": "torch_batch_norm2d_75/moving_mean", "shape": [128], "dtype": "float32", "quantization": {"min": -2.435200242435231, "scale": 0.01932698605107326, "dtype": "uint8"}}, {"name": "torch_batch_norm2d_75/moving_variance", "shape": [128], "dtype": "float32", "quantization": {"min": 0.9722438454627991, "scale": 0.016462290287017824, "dtype": "uint8"}}, {"name": "torch_batch_norm2d_76/gamma", "shape": [64], "dtype": "float32", "quantization": {"min": 0.00015189824625849724, "scale": 0.0031901244019322534, "dtype": "uint8"}}, {"name": "torch_batch_norm2d_76/beta", "shape": [64], "dtype": "float32", "quantization": {"min": -0.313516765832901, "scale": 0.0012237629341874637, "dtype": "uint8"}}, {"name": "torch_batch_norm2d_76/moving_mean", "shape": [64], "dtype": "float32", "quantization": {"min": -1.4687764532425824, "scale": 0.012884003975812127, "dtype": "uint8"}}, {"name": "torch_batch_norm2d_76/moving_variance", "shape": [64], "dtype": "float32", "quantization": {"min": 0.5892526507377625, "scale": 0.00467607156903136, "dtype": "uint8"}}, {"name": "torch_batch_norm2d_77/gamma", "shape": [256], "dtype": "float32", "quantization": {"min": -0.21582817540449256, "scale": 0.004905185804647558, "dtype": "uint8"}}, {"name": "torch_batch_norm2d_77/beta", "shape": [256], "dtype": "float32", "quantization": {"min": -0.29064239263534547, "scale": 0.001554237393771901, "dtype": "uint8"}}, {"name": "torch_batch_norm2d_77/moving_mean", "shape": [256], "dtype": "float32", "quantization": {"min": -4.883121585845947, "scale": 0.022607044378916422, "dtype": "uint8"}}, {"name": "torch_batch_norm2d_77/moving_variance", "shape": [256], "dtype": "float32", "quantization": {"min": 0.020364701747894287, "scale": 0.13159844664966358, "dtype": "uint8"}}, {"name": "torch_batch_norm2d_78/gamma", "shape": [128], "dtype": "float32", "quantization": {"min": 3.196939724148251e-05, "scale": 0.003533034381332839, "dtype": "uint8"}}, {"name": "torch_batch_norm2d_78/beta", "shape": [128], "dtype": "float32", "quantization": {"min": -0.33510521054267883, "scale": 0.001310058074601579, "dtype": "uint8"}}, {"name": "torch_batch_norm2d_78/moving_mean", "shape": [128], "dtype": "float32", "quantization": {"min": -2.2762648068222346, "scale": 0.017114772983625823, "dtype": "uint8"}}, {"name": "torch_batch_norm2d_78/moving_variance", "shape": [128], "dtype": "float32", "quantization": {"min": 0.7316730618476868, "scale": 0.0070323446217705225, "dtype": "uint8"}}, {"name": "torch_batch_norm2d_79/gamma", "shape": [64], "dtype": "float32", "quantization": {"min": 0.001266204984858632, "scale": 0.00263613616846794, "dtype": "uint8"}}, {"name": "torch_batch_norm2d_79/beta", "shape": [64], "dtype": "float32", "quantization": {"min": -0.3964501917362213, "scale": 0.0014897627865566928, "dtype": "uint8"}}, {"name": "torch_batch_norm2d_79/moving_mean", "shape": [64], "dtype": "float32", "quantization": {"min": -1.1262051124198764, "scale": 0.008663116249383665, "dtype": "uint8"}}, {"name": "torch_batch_norm2d_79/moving_variance", "shape": [64], "dtype": "float32", "quantization": {"min": 0.3322485387325287, "scale": 0.0035913646221160888, "dtype": "uint8"}}, {"name": "torch_batch_norm2d_8/gamma", "shape": [32], "dtype": "float32", "quantization": {"min": 0.2592458724975586, "scale": 0.002580261931699865, "dtype": "uint8"}}, {"name": "torch_batch_norm2d_8/beta", "shape": [32], "dtype": "float32", "quantization": {"min": -0.3133772484812082, "scale": 0.0018543032454509361, "dtype": "uint8"}}, {"name": "torch_batch_norm2d_8/moving_mean", "shape": [32], "dtype": "float32", "quantization": {"min": -1.9870204588946174, "scale": 0.013895247964298025, "dtype": "uint8"}}, {"name": "torch_batch_norm2d_8/moving_variance", "shape": [32], "dtype": "float32", "quantization": {"min": 0.5058318972587585, "scale": 0.007329998998080983, "dtype": "uint8"}}, {"name": "torch_batch_norm2d_80/gamma", "shape": [256], "dtype": "float32", "quantization": {"min": 0.00010431520058773458, "scale": 0.0036474494095754756, "dtype": "uint8"}}, {"name": "torch_batch_norm2d_80/beta", "shape": [256], "dtype": "float32", "quantization": {"min": -0.37350090095663774, "scale": 0.00148214643236761, "dtype": "uint8"}}, {"name": "torch_batch_norm2d_80/moving_mean", "shape": [256], "dtype": "float32", "quantization": {"min": -5.812495208254048, "scale": 0.027034861433739756, "dtype": "uint8"}}, {"name": "torch_batch_norm2d_80/moving_variance", "shape": [256], "dtype": "float32", "quantization": {"min": 0.07773315906524658, "scale": 0.11968116339515238, "dtype": "uint8"}}, {"name": "torch_batch_norm2d_81/gamma", "shape": [128], "dtype": "float32", "quantization": {"min": -0.0, "scale": 0.0035740111475153005, "dtype": "uint8"}}, {"name": "torch_batch_norm2d_81/beta", "shape": [128], "dtype": "float32", "quantization": {"min": -0.32110416889190674, "scale": 0.0012358540961263226, "dtype": "uint8"}}, {"name": "torch_batch_norm2d_81/moving_mean", "shape": [128], "dtype": "float32", "quantization": {"min": -1.908575176257713, "scale": 0.012639570703693464, "dtype": "uint8"}}, {"name": "torch_batch_norm2d_81/moving_variance", "shape": [128], "dtype": "float32", "quantization": {"min": 0.6970399618148804, "scale": 0.005451515141655417, "dtype": "uint8"}}, {"name": "torch_batch_norm2d_82/gamma", "shape": [64], "dtype": "float32", "quantization": {"min": 0.006358879618346691, "scale": 0.0027492253694172, "dtype": "uint8"}}, {"name": "torch_batch_norm2d_82/beta", "shape": [64], "dtype": "float32", "quantization": {"min": -0.378824919462204, "scale": 0.0013052583471232768, "dtype": "uint8"}}, {"name": "torch_batch_norm2d_82/moving_mean", "shape": [64], "dtype": "float32", "quantization": {"min": -1.3987440810484044, "scale": 0.011101143500384162, "dtype": "uint8"}}, {"name": "torch_batch_norm2d_82/moving_variance", "shape": [64], "dtype": "float32", "quantization": {"min": 0.46649307012557983, "scale": 0.004580355859270283, "dtype": "uint8"}}, {"name": "torch_batch_norm2d_83/gamma", "shape": [256], "dtype": "float32", "quantization": {"min": -0.0, "scale": 0.003965520150229043, "dtype": "uint8"}}, {"name": "torch_batch_norm2d_83/beta", "shape": [256], "dtype": "float32", "quantization": {"min": -0.36560228712418497, "scale": 0.001549162233577055, "dtype": "uint8"}}, {"name": "torch_batch_norm2d_83/moving_mean", "shape": [256], "dtype": "float32", "quantization": {"min": -7.144591140747071, "scale": 0.033076810836791995, "dtype": "uint8"}}, {"name": "torch_batch_norm2d_83/moving_variance", "shape": [256], "dtype": "float32", "quantization": {"min": 0.14744263887405396, "scale": 0.11867647802128511, "dtype": "uint8"}}, {"name": "torch_batch_norm2d_84/gamma", "shape": [128], "dtype": "float32", "quantization": {"min": 0.003759365761652589, "scale": 0.0035276867147973354, "dtype": "uint8"}}, {"name": "torch_batch_norm2d_84/beta", "shape": [128], "dtype": "float32", "quantization": {"min": -0.339910330053638, "scale": 0.0013817493091611301, "dtype": "uint8"}}, {"name": "torch_batch_norm2d_84/moving_mean", "shape": [128], "dtype": "float32", "quantization": {"min": -2.7470756315717506, "scale": 0.019763134040084538, "dtype": "uint8"}}, {"name": "torch_batch_norm2d_84/moving_variance", "shape": [128], "dtype": "float32", "quantization": {"min": 1.1741939783096313, "scale": 0.019266672227896894, "dtype": "uint8"}}, {"name": "torch_batch_norm2d_85/gamma", "shape": [64], "dtype": "float32", "quantization": {"min": 0.007403665687888861, "scale": 0.0025966726334802075, "dtype": "uint8"}}, {"name": "torch_batch_norm2d_85/beta", "shape": [64], "dtype": "float32", "quantization": {"min": -0.3985947072505951, "scale": 0.0014773831209715675, "dtype": "uint8"}}, {"name": "torch_batch_norm2d_85/moving_mean", "shape": [64], "dtype": "float32", "quantization": {"min": -2.2846752026501824, "scale": 0.017710660485660328, "dtype": "uint8"}}, {"name": "torch_batch_norm2d_85/moving_variance", "shape": [64], "dtype": "float32", "quantization": {"min": 0.6066592335700989, "scale": 0.011601905028025309, "dtype": "uint8"}}, {"name": "torch_batch_norm2d_86/gamma", "shape": [256], "dtype": "float32", "quantization": {"min": -0.0, "scale": 0.004332313479116077, "dtype": "uint8"}}, {"name": "torch_batch_norm2d_86/beta", "shape": [256], "dtype": "float32", "quantization": {"min": -0.3071689401771508, "scale": 0.0017160275987550325, "dtype": "uint8"}}, {"name": "torch_batch_norm2d_86/moving_mean", "shape": [256], "dtype": "float32", "quantization": {"min": -13.232446894926182, "scale": 0.05753237780402688, "dtype": "uint8"}}, {"name": "torch_batch_norm2d_86/moving_variance", "shape": [256], "dtype": "float32", "quantization": {"min": 0.47739720344543457, "scale": 0.958279795740165, "dtype": "uint8"}}, {"name": "torch_batch_norm2d_87/gamma", "shape": [128], "dtype": "float32", "quantization": {"min": 0.0006234971224330366, "scale": 0.003926272825657518, "dtype": "uint8"}}, {"name": "torch_batch_norm2d_87/beta", "shape": [128], "dtype": "float32", "quantization": {"min": -0.3133654879890017, "scale": 0.0012385987667549476, "dtype": "uint8"}}, {"name": "torch_batch_norm2d_87/moving_mean", "shape": [128], "dtype": "float32", "quantization": {"min": -2.886882132174922, "scale": 0.023095057057399376, "dtype": "uint8"}}, {"name": "torch_batch_norm2d_87/moving_variance", "shape": [128], "dtype": "float32", "quantization": {"min": 2.3852217197418213, "scale": 0.025973913716334923, "dtype": "uint8"}}, {"name": "torch_batch_norm2d_88/gamma", "shape": [64], "dtype": "float32", "quantization": {"min": -0.0, "scale": 0.0032331370296614136, "dtype": "uint8"}}, {"name": "torch_batch_norm2d_88/beta", "shape": [64], "dtype": "float32", "quantization": {"min": -0.30299389362335205, "scale": 0.0011666873816912082, "dtype": "uint8"}}, {"name": "torch_batch_norm2d_88/moving_mean", "shape": [64], "dtype": "float32", "quantization": {"min": -2.943098685320686, "scale": 0.023174005396225873, "dtype": "uint8"}}, {"name": "torch_batch_norm2d_88/moving_variance", "shape": [64], "dtype": "float32", "quantization": {"min": 1.4864174127578735, "scale": 0.013991942592695648, "dtype": "uint8"}}, {"name": "torch_batch_norm2d_89/gamma", "shape": [256], "dtype": "float32", "quantization": {"min": -0.0, "scale": 0.003909593801968274, "dtype": "uint8"}}, {"name": "torch_batch_norm2d_89/beta", "shape": [256], "dtype": "float32", "quantization": {"min": -0.34826806152568146, "scale": 0.0026997524149277633, "dtype": "uint8"}}, {"name": "torch_batch_norm2d_89/moving_mean", "shape": [256], "dtype": "float32", "quantization": {"min": -19.765028239231484, "scale": 0.09784667445164101, "dtype": "uint8"}}, {"name": "torch_batch_norm2d_89/moving_variance", "shape": [256], "dtype": "float32", "quantization": {"min": 1.222428321838379, "scale": 6.3982713250552905, "dtype": "uint8"}}, {"name": "torch_batch_norm2d_9/gamma", "shape": [128], "dtype": "float32", "quantization": {"min": 1.5358958194156003e-07, "scale": 0.002640545233369904, "dtype": "uint8"}}, {"name": "torch_batch_norm2d_9/beta", "shape": [128], "dtype": "float32", "quantization": {"min": -0.4899780117559667, "scale": 0.002139641972733479, "dtype": "uint8"}}, {"name": "torch_batch_norm2d_9/moving_mean", "shape": [128], "dtype": "float32", "quantization": {"min": -8.070751635233561, "scale": 0.04315909965365541, "dtype": "uint8"}}, {"name": "torch_batch_norm2d_9/moving_variance", "shape": [128], "dtype": "float32", "quantization": {"min": 0.8107101917266846, "scale": 0.06519608123629701, "dtype": "uint8"}}, {"name": "torch_batch_norm2d_90/gamma", "shape": [128], "dtype": "float32", "quantization": {"min": -0.0, "scale": 0.003851395103094332, "dtype": "uint8"}}, {"name": "torch_batch_norm2d_90/beta", "shape": [128], "dtype": "float32", "quantization": {"min": -0.5010954737663269, "scale": 0.0019491831936380443, "dtype": "uint8"}}, {"name": "torch_batch_norm2d_90/moving_mean", "shape": [128], "dtype": "float32", "quantization": {"min": -3.5140320833991554, "scale": 0.02342688055599437, "dtype": "uint8"}}, {"name": "torch_batch_norm2d_90/moving_variance", "shape": [128], "dtype": "float32", "quantization": {"min": 1.8545842170715332, "scale": 0.18117838653863644, "dtype": "uint8"}}, {"name": "torch_batch_norm2d_91/gamma", "shape": [64], "dtype": "float32", "quantization": {"min": 0.2588697671890259, "scale": 0.00357357754426844, "dtype": "uint8"}}, {"name": "torch_batch_norm2d_91/beta", "shape": [64], "dtype": "float32", "quantization": {"min": -0.4016552914591397, "scale": 0.0017019292010980495, "dtype": "uint8"}}, {"name": "torch_batch_norm2d_91/moving_mean", "shape": [64], "dtype": "float32", "quantization": {"min": -1.9135326427571913, "scale": 0.02422193218679989, "dtype": "uint8"}}, {"name": "torch_batch_norm2d_91/moving_variance", "shape": [64], "dtype": "float32", "quantization": {"min": 1.287905216217041, "scale": 0.016791425966749006, "dtype": "uint8"}}, {"name": "torch_batch_norm2d_92/gamma", "shape": [256], "dtype": "float32", "quantization": {"min": -0.0, "scale": 0.004467684710100145, "dtype": "uint8"}}, {"name": "torch_batch_norm2d_92/beta", "shape": [256], "dtype": "float32", "quantization": {"min": -0.44378126368803134, "scale": 0.0022189063184401567, "dtype": "uint8"}}, {"name": "torch_batch_norm2d_92/moving_mean", "shape": [256], "dtype": "float32", "quantization": {"min": -23.329252239302093, "scale": 0.10901519737991633, "dtype": "uint8"}}, {"name": "torch_batch_norm2d_92/moving_variance", "shape": [256], "dtype": "float32", "quantization": {"min": 4.864217281341553, "scale": 7.5137486270829745, "dtype": "uint8"}}, {"name": "torch_batch_norm2d_93/gamma", "shape": [128], "dtype": "float32", "quantization": {"min": -0.0, "scale": 0.003755786271558107, "dtype": "uint8"}}, {"name": "torch_batch_norm2d_93/beta", "shape": [128], "dtype": "float32", "quantization": {"min": -0.5497494743150824, "scale": 0.00261785463959563, "dtype": "uint8"}}, {"name": "torch_batch_norm2d_93/moving_mean", "shape": [128], "dtype": "float32", "quantization": {"min": -4.4424399245019055, "scale": 0.04190981060850854, "dtype": "uint8"}}, {"name": "torch_batch_norm2d_93/moving_variance", "shape": [128], "dtype": "float32", "quantization": {"min": 2.6488304138183594, "scale": 0.17809279198740044, "dtype": "uint8"}}, {"name": "torch_batch_norm2d_94/gamma", "shape": [64], "dtype": "float32", "quantization": {"min": 0.24774497747421265, "scale": 0.004115416255651736, "dtype": "uint8"}}, {"name": "torch_batch_norm2d_94/beta", "shape": [64], "dtype": "float32", "quantization": {"min": -0.7545241687812057, "scale": 0.004600757126714669, "dtype": "uint8"}}, {"name": "torch_batch_norm2d_94/moving_mean", "shape": [64], "dtype": "float32", "quantization": {"min": -3.4423031965891524, "scale": 0.028926917618396237, "dtype": "uint8"}}, {"name": "torch_batch_norm2d_94/moving_variance", "shape": [64], "dtype": "float32", "quantization": {"min": 0.6425744891166687, "scale": 0.014424005442974614, "dtype": "uint8"}}, {"name": "torch_batch_norm2d_95/gamma", "shape": [256], "dtype": "float32", "quantization": {"min": 0.00044544777483679354, "scale": 0.004617789358827376, "dtype": "uint8"}}, {"name": "torch_batch_norm2d_95/beta", "shape": [256], "dtype": "float32", "quantization": {"min": -0.4227020894779878, "scale": 0.003063058619405709, "dtype": "uint8"}}, {"name": "torch_batch_norm2d_95/moving_mean", "shape": [256], "dtype": "float32", "quantization": {"min": -26.536366432788327, "scale": 0.16279979406618605, "dtype": "uint8"}}, {"name": "torch_batch_norm2d_95/moving_variance", "shape": [256], "dtype": "float32", "quantization": {"min": 15.802742004394531, "scale": 8.47733606076708, "dtype": "uint8"}}, {"name": "torch_batch_norm2d_96/gamma", "shape": [128], "dtype": "float32", "quantization": {"min": -0.0, "scale": 0.004027833273307895, "dtype": "uint8"}}, {"name": "torch_batch_norm2d_96/beta", "shape": [128], "dtype": "float32", "quantization": {"min": -0.8200247627847335, "scale": 0.004581143926171695, "dtype": "uint8"}}, {"name": "torch_batch_norm2d_96/moving_mean", "shape": [128], "dtype": "float32", "quantization": {"min": -8.565460743623621, "scale": 0.0962411319508272, "dtype": "uint8"}}, {"name": "torch_batch_norm2d_96/moving_variance", "shape": [128], "dtype": "float32", "quantization": {"min": 6.0463056564331055, "scale": 0.7852827670527439, "dtype": "uint8"}}, {"name": "torch_batch_norm2d_97/gamma", "shape": [64], "dtype": "float32", "quantization": {"min": -0.0, "scale": 0.005818210969343507, "dtype": "uint8"}}, {"name": "torch_batch_norm2d_97/beta", "shape": [64], "dtype": "float32", "quantization": {"min": -0.8698441292725358, "scale": 0.004578126996171241, "dtype": "uint8"}}, {"name": "torch_batch_norm2d_97/moving_mean", "shape": [64], "dtype": "float32", "quantization": {"min": -3.3569708861556706, "scale": 0.035712456235698624, "dtype": "uint8"}}, {"name": "torch_batch_norm2d_97/moving_variance", "shape": [64], "dtype": "float32", "quantization": {"min": 0.7858999967575073, "scale": 0.08905431008806415, "dtype": "uint8"}}, {"name": "torch_batch_norm2d_98/gamma", "shape": [256], "dtype": "float32", "quantization": {"min": 0.00093324005138129, "scale": 0.0031877068515100025, "dtype": "uint8"}}, {"name": "torch_batch_norm2d_98/beta", "shape": [256], "dtype": "float32", "quantization": {"min": -0.40980377179734845, "scale": 0.002483659223014233, "dtype": "uint8"}}, {"name": "torch_batch_norm2d_98/moving_mean", "shape": [256], "dtype": "float32", "quantization": {"min": -54.22313340878954, "scale": 0.259440829707127, "dtype": "uint8"}}, {"name": "torch_batch_norm2d_98/moving_variance", "shape": [256], "dtype": "float32", "quantization": {"min": 45.935203552246094, "scale": 38.960418013030406, "dtype": "uint8"}}, {"name": "torch_batch_norm2d_99/gamma", "shape": [256], "dtype": "float32", "quantization": {"min": 0.11578702926635742, "scale": 0.003928848808886958, "dtype": "uint8"}}, {"name": "torch_batch_norm2d_99/beta", "shape": [256], "dtype": "float32", "quantization": {"min": -0.6503903281454947, "scale": 0.005912639346777224, "dtype": "uint8"}}, {"name": "torch_batch_norm2d_99/moving_mean", "shape": [256], "dtype": "float32", "quantization": {"min": -0.9536927167107078, "scale": 0.005960579479441923, "dtype": "uint8"}}, {"name": "torch_batch_norm2d_99/moving_variance", "shape": [256], "dtype": "float32", "quantization": {"min": 0.058489855378866196, "scale": 0.005636180396757874, "dtype": "uint8"}}]}]}